…
I1103 23:48:17.336756 30931 net.cpp:313] The NetState phase (1) differed from the phase (0) specified by a rule in layer data
I1103 23:48:17.337038 30931 net.cpp:49] Initializing net from parameters: 
name: "FireNet"
state {
  phase: TEST
}
layer {
  name: "data"
  type: "Data"
  top: "data"
  top: "label"
  include {
    phase: TEST
  }
  transform_param {
    mirror: false
    crop_size: 227
    mean_value: 104
    mean_value: 117
    mean_value: 123
  }
  data_param {
    source: "/ssd/dataset/ilsvrc12_val_lmdb/"
    batch_size: 50
    backend: LMDB
  }
}
layer {
  name: "conv1"
  type: "Convolution"
  bottom: "data"
  top: "conv1"
  convolution_param {
    num_output: 96
    kernel_size: 7
    stride: 2
    weight_filler {
      type: "xavier"
    }
  }
}
layer {
  name: "relu_conv1"
  type: "ReLU"
  bottom: "conv1"
  top: "conv1"
}
layer {
  name: "pool1"
  type: "Pooling"
  bottom: "conv1"
  top: "pool1"
  pooling_param {
    pool: MAX
    kernel_size: 3
    stride: 2
  }
}
layer {
  name: "fire2/conv1x1_1"
  type: "Convolution"
  bottom: "pool1"
  top: "fire2/conv1x1_1"
  convolution_param {
    num_output: 16
    kernel_size: 1
    weight_filler {
      type: "xavier"
    }
  }
}
layer {
  name: "fire2/relu_conv1x1_1"
  type: "ReLU"
  bottom: "fire2/conv1x1_1"
  top: "fire2/conv1x1_1"
}
layer {
  name: "fire2/conv1x1_2"
  type: "Convolution"
  bottom: "fire2/conv1x1_1"
  top: "fire2/conv1x1_2"
  convolution_param {
    num_output: 64
    kernel_size: 1
    weight_filler {
      type: "xavier"
    }
  }
}
layer {
  name: "fire2/relu_conv1x1_2"
  type: "ReLU"
  bottom: "fire2/conv1x1_2"
  top: "fire2/conv1x1_2"
}
layer {
  name: "fire2/conv3x3_2"
  type: "Convolution"
  bottom: "fire2/conv1x1_1"
  top: "fire2/conv3x3_2"
  convolution_param {
    num_output: 64
    pad: 1
    kernel_size: 3
    weight_filler {
      type: "xavier"
    }
  }
}
layer {
  name: "fire2/relu_conv3x3_2"
  type: "ReLU"
  bottom: "fire2/conv3x3_2"
  top: "fire2/conv3x3_2"
}
layer {
  name: "fire2/concat"
  type: "Concat"
  bottom: "fire2/conv1x1_2"
  bottom: "fire2/conv3x3_2"
  top: "fire2/concat"
}
layer {
  name: "fire3/conv1x1_1"
  type: "Convolution"
  bottom: "fire2/concat"
  top: "fire3/conv1x1_1"
  convolution_param {
    num_output: 16
    kernel_size: 1
    weight_filler {
      type: "xavier"
    }
  }
}
layer {
  name: "fire3/relu_conv1x1_1"
  type: "ReLU"
  bottom: "fire3/conv1x1_1"
  top: "fire3/conv1x1_1"
}
layer {
  name: "fire3/conv1x1_2"
  type: "Convolution"
  bottom: "fire3/conv1x1_1"
  top: "fire3/conv1x1_2"
  convolution_param {
    num_output: 64
    kernel_size: 1
    weight_filler {
      type: "xavier"
    }
  }
}
layer {
  name: "fire3/relu_conv1x1_2"
  type: "ReLU"
  bottom: "fire3/conv1x1_2"
  top: "fire3/conv1x1_2"
}
layer {
  name: "fire3/conv3x3_2"
  type: "Convolution"
  bottom: "fire3/conv1x1_1"
  top: "fire3/conv3x3_2"
  convolution_param {
    num_output: 64
    pad: 1
    kernel_size: 3
    weight_filler {
      type: "xavier"
    }
  }
}
layer {
  name: "fire3/relu_conv3x3_2"
  type: "ReLU"
  bottom: "fire3/conv3x3_2"
  top: "fire3/conv3x3_2"
}
layer {
  name: "fire3/concat"
  type: "Concat"
  bottom: "fire3/conv1x1_2"
  bottom: "fire3/conv3x3_2"
  top: "fire3/concat"
}
layer {
  name: "fire4/conv1x1_1"
  type: "Convolution"
  bottom: "fire3/concat"
  top: "fire4/conv1x1_1"
  convolution_param {
    num_output: 32
    kernel_size: 1
    weight_filler {
      type: "xavier"
    }
  }
}
layer {
  name: "fire4/relu_conv1x1_1"
  type: "ReLU"
  bottom: "fire4/conv1x1_1"
  top: "fire4/conv1x1_1"
}
layer {
  name: "fire4/conv1x1_2"
  type: "Convolution"
  bottom: "fire4/conv1x1_1"
  top: "fire4/conv1x1_2"
  convolution_param {
    num_output: 128
    kernel_size: 1
    weight_filler {
      type: "xavier"
    }
  }
}
layer {
  name: "fire4/relu_conv1x1_2"
  type: "ReLU"
  bottom: "fire4/conv1x1_2"
  top: "fire4/conv1x1_2"
}
layer {
  name: "fire4/conv3x3_2"
  type: "Convolution"
  bottom: "fire4/conv1x1_1"
  top: "fire4/conv3x3_2"
  convolution_param {
    num_output: 128
    pad: 1
    kernel_size: 3
    weight_filler {
      type: "xavier"
    }
  }
}
layer {
  name: "fire4/relu_conv3x3_2"
  type: "ReLU"
  bottom: "fire4/conv3x3_2"
  top: "fire4/conv3x3_2"
}
layer {
  name: "fire4/concat"
  type: "Concat"
  bottom: "fire4/conv1x1_2"
  bottom: "fire4/conv3x3_2"
  top: "fire4/concat"
}
layer {
  name: "pool4"
  type: "Pooling"
  bottom: "fire4/concat"
  top: "pool4"
  pooling_param {
    pool: MAX
    kernel_size: 3
    stride: 2
  }
}
layer {
  name: "fire5/conv1x1_1"
  type: "Convolution"
  bottom: "pool4"
  top: "fire5/conv1x1_1"
  convolution_param {
    num_output: 32
    kernel_size: 1
    weight_filler {
      type: "xavier"
    }
  }
}
layer {
  name: "fire5/relu_conv1x1_1"
  type: "ReLU"
  bottom: "fire5/conv1x1_1"
  top: "fire5/conv1x1_1"
}
layer {
  name: "fire5/conv1x1_2"
  type: "Convolution"
  bottom: "fire5/conv1x1_1"
  top: "fire5/conv1x1_2"
  convolution_param {
    num_output: 128
    kernel_size: 1
    weight_filler {
      type: "xavier"
    }
  }
}
layer {
  name: "fire5/relu_conv1x1_2"
  type: "ReLU"
  bottom: "fire5/conv1x1_2"
  top: "fire5/conv1x1_2"
}
layer {
  name: "fire5/conv3x3_2"
  type: "Convolution"
  bottom: "fire5/conv1x1_1"
  top: "fire5/conv3x3_2"
  convolution_param {
    num_output: 128
    pad: 1
    kernel_size: 3
    weight_filler {
      type: "xavier"
    }
  }
}
layer {
  name: "fire5/relu_conv3x3_2"
  type: "ReLU"
  bottom: "fire5/conv3x3_2"
  top: "fire5/conv3x3_2"
}
layer {
  name: "fire5/concat"
  type: "Concat"
  bottom: "fire5/conv1x1_2"
  bottom: "fire5/conv3x3_2"
  top: "fire5/concat"
}
layer {
  name: "fire6/conv1x1_1"
  type: "Convolution"
  bottom: "fire5/concat"
  top: "fire6/conv1x1_1"
  convolution_param {
    num_output: 48
    kernel_size: 1
    weight_filler {
      type: "xavier"
    }
  }
}
layer {
  name: "fire6/relu_conv1x1_1"
  type: "ReLU"
  bottom: "fire6/conv1x1_1"
  top: "fire6/conv1x1_1"
}
layer {
  name: "fire6/conv1x1_2"
  type: "Convolution"
  bottom: "fire6/conv1x1_1"
  top: "fire6/conv1x1_2"
  convolution_param {
    num_output: 192
    kernel_size: 1
    weight_filler {
      type: "xavier"
    }
  }
}
layer {
  name: "fire6/relu_conv1x1_2"
  type: "ReLU"
  bottom: "fire6/conv1x1_2"
  top: "fire6/conv1x1_2"
}
layer {
  name: "fire6/conv3x3_2"
  type: "Convolution"
  bottom: "fire6/conv1x1_1"
  top: "fire6/conv3x3_2"
  convolution_param {
    num_output: 192
    pad: 1
    kernel_size: 3
    weight_filler {
      type: "xavier"
    }
  }
}
layer {
  name: "fire6/relu_conv3x3_2"
  type: "ReLU"
  bottom: "fire6/conv3x3_2"
  top: "fire6/conv3x3_2"
}
layer {
  name: "fire6/concat"
  type: "Concat"
  bottom: "fire6/conv1x1_2"
  bottom: "fire6/conv3x3_2"
  top: "fire6/concat"
}
layer {
  name: "fire7/conv1x1_1"
  type: "Convolution"
  bottom: "fire6/concat"
  top: "fire7/conv1x1_1"
  convolution_param {
    num_output: 48
    kernel_size: 1
    weight_filler {
      type: "xavier"
    }
  }
}
layer {
  name: "fire7/relu_conv1x1_1"
  type: "ReLU"
  bottom: "fire7/conv1x1_1"
  top: "fire7/conv1x1_1"
}
layer {
  name: "fire7/conv1x1_2"
  type: "Convolution"
  bottom: "fire7/conv1x1_1"
  top: "fire7/conv1x1_2"
  convolution_param {
    num_output: 192
    kernel_size: 1
    weight_filler {
      type: "xavier"
    }
  }
}
layer {
  name: "fire7/relu_conv1x1_2"
  type: "ReLU"
  bottom: "fire7/conv1x1_2"
  top: "fire7/conv1x1_2"
}
layer {
  name: "fire7/conv3x3_2"
  type: "Convolution"
  bottom: "fire7/conv1x1_1"
  top: "fire7/conv3x3_2"
  convolution_param {
    num_output: 192
    pad: 1
    kernel_size: 3
    weight_filler {
      type: "xavier"
    }
  }
}
layer {
  name: "fire7/relu_conv3x3_2"
  type: "ReLU"
  bottom: "fire7/conv3x3_2"
  top: "fire7/conv3x3_2"
}
layer {
  name: "fire7/concat"
  type: "Concat"
  bottom: "fire7/conv1x1_2"
  bottom: "fire7/conv3x3_2"
  top: "fire7/concat"
}
layer {
  name: "fire8/conv1x1_1"
  type: "Convolution"
  bottom: "fire7/concat"
  top: "fire8/conv1x1_1"
  convolution_param {
    num_output: 64
    kernel_size: 1
    weight_filler {
      type: "xavier"
    }
  }
}
layer {
  name: "fire8/relu_conv1x1_1"
  type: "ReLU"
  bottom: "fire8/conv1x1_1"
  top: "fire8/conv1x1_1"
}
layer {
  name: "fire8/conv1x1_2"
  type: "Convolution"
  bottom: "fire8/conv1x1_1"
  top: "fire8/conv1x1_2"
  convolution_param {
    num_output: 256
    kernel_size: 1
    weight_filler {
      type: "xavier"
    }
  }
}
layer {
  name: "fire8/relu_conv1x1_2"
  type: "ReLU"
  bottom: "fire8/conv1x1_2"
  top: "fire8/conv1x1_2"
}
layer {
  name: "fire8/conv3x3_2"
  type: "Convolution"
  bottom: "fire8/conv1x1_1"
  top: "fire8/conv3x3_2"
  convolution_param {
    num_output: 256
    pad: 1
    kernel_size: 3
    weight_filler {
      type: "xavier"
    }
  }
}
layer {
  name: "fire8/relu_conv3x3_2"
  type: "ReLU"
  bottom: "fire8/conv3x3_2"
  top: "fire8/conv3x3_2"
}
layer {
  name: "fire8/concat"
  type: "Concat"
  bottom: "fire8/conv1x1_2"
  bottom: "fire8/conv3x3_2"
  top: "fire8/concat"
}
layer {
  name: "pool8"
  type: "Pooling"
  bottom: "fire8/concat"
  top: "pool8"
  pooling_param {
    pool: MAX
    kernel_size: 3
    stride: 2
  }
}
layer {
  name: "fire9/conv1x1_1"
  type: "Convolution"
  bottom: "pool8"
  top: "fire9/conv1x1_1"
  convolution_param {
    num_output: 64
    kernel_size: 1
    weight_filler {
      type: "xavier"
    }
  }
}
layer {
  name: "fire9/relu_conv1x1_1"
  type: "ReLU"
  bottom: "fire9/conv1x1_1"
  top: "fire9/conv1x1_1"
}
layer {
  name: "fire9/conv1x1_2"
  type: "Convolution"
  bottom: "fire9/conv1x1_1"
  top: "fire9/conv1x1_2"
  convolution_param {
    num_output: 256
    kernel_size: 1
    weight_filler {
      type: "xavier"
    }
  }
}
layer {
  name: "fire9/relu_conv1x1_2"
  type: "ReLU"
  bottom: "fire9/conv1x1_2"
  top: "fire9/conv1x1_2"
}
layer {
  name: "fire9/conv3x3_2"
  type: "Convolution"
  bottom: "fire9/conv1x1_1"
  top: "fire9/conv3x3_2"
  convolution_param {
    num_output: 256
    pad: 1
    kernel_size: 3
    weight_filler {
      type: "xavier"
    }
  }
}
layer {
  name: "fire9/relu_conv3x3_2"
  type: "ReLU"
  bottom: "fire9/conv3x3_2"
  top: "fire9/conv3x3_2"
}
layer {
  name: "fire9/concat"
  type: "Concat"
  bottom: "fire9/conv1x1_2"
  bottom: "fire9/conv3x3_2"
  top: "fire9/concat"
}
layer {
  name: "drop9"
  type: "Dropout"
  bottom: "fire9/concat"
  top: "fire9/concat"
  dropout_param {
    dropout_ratio: 0.5
  }
}
layer {
  name: "conv_final"
  type: "Convolution"
  bottom: "fire9/concat"
  top: "conv_final"
  convolution_param {
    num_output: 1000
    pad: 1
    kernel_size: 1
    weight_filler {
      type: "gaussian"
      mean: 0
      std: 0.01
    }
  }
}
layer {
  name: "relu_conv_final"
  type: "ReLU"
  bottom: "conv_final"
  top: "conv_final"
}
layer {
  name: "pool_final"
  type: "Pooling"
  bottom: "conv_final"
  top: "pool_final"
  pooling_param {
    pool: AVE
    global_pooling: true
  }
}
layer {
  name: "loss"
  type: "SoftmaxWithLoss"
  bottom: "pool_final"
  bottom: "label"
  top: "loss"
  include {
  }
}
layer {
  name: "accuracy_top1"
  type: "Accuracy"
  bottom: "pool_final"
  bottom: "label"
  top: "accuracy_top1"
  include {
  }
  accuracy_param {
    top_k: 1
  }
}
layer {
  name: "accuracy_top5"
  type: "Accuracy"
  bottom: "pool_final"
  bottom: "label"
  top: "accuracy_top5"
  include {
  }
  accuracy_param {
    top_k: 5
  }
}
I1103 23:48:17.337477 30931 layer_factory.hpp:77] Creating layer data
I1103 23:48:17.337930 30931 net.cpp:91] Creating Layer data
I1103 23:48:17.337982 30931 net.cpp:399] data -> data
I1103 23:48:17.338027 30931 net.cpp:399] data -> label
I1103 23:48:17.339051 30948 db_lmdb.cpp:35] Opened lmdb /ssd/dataset/ilsvrc12_val_lmdb/
I1103 23:48:17.346982 30931 data_layer.cpp:41] output data size: 50,3,227,227
I1103 23:48:17.407040 30931 net.cpp:141] Setting up data
I1103 23:48:17.407158 30931 net.cpp:148] Top shape: 50 3 227 227 (7729350)
I1103 23:48:17.407193 30931 net.cpp:148] Top shape: 50 (50)
I1103 23:48:17.407224 30931 net.cpp:156] Memory required for data: 30917600
I1103 23:48:17.407258 30931 layer_factory.hpp:77] Creating layer label_data_1_split
I1103 23:48:17.407327 30931 net.cpp:91] Creating Layer label_data_1_split
I1103 23:48:17.407379 30931 net.cpp:425] label_data_1_split <- label
I1103 23:48:17.407413 30931 net.cpp:399] label_data_1_split -> label_data_1_split_0
I1103 23:48:17.407444 30931 net.cpp:399] label_data_1_split -> label_data_1_split_1
I1103 23:48:17.407496 30931 net.cpp:399] label_data_1_split -> label_data_1_split_2
I1103 23:48:17.407574 30931 net.cpp:141] Setting up label_data_1_split
I1103 23:48:17.407603 30931 net.cpp:148] Top shape: 50 (50)
I1103 23:48:17.407627 30931 net.cpp:148] Top shape: 50 (50)
I1103 23:48:17.407655 30931 net.cpp:148] Top shape: 50 (50)
I1103 23:48:17.407685 30931 net.cpp:156] Memory required for data: 30918200
I1103 23:48:17.407714 30931 layer_factory.hpp:77] Creating layer conv1
I1103 23:48:17.407749 30931 net.cpp:91] Creating Layer conv1
I1103 23:48:17.407774 30931 net.cpp:425] conv1 <- data
I1103 23:48:17.407804 30931 net.cpp:399] conv1 -> conv1
I1103 23:48:17.824827 30931 net.cpp:141] Setting up conv1
I1103 23:48:17.824944 30931 net.cpp:148] Top shape: 50 96 111 111 (59140800)
I1103 23:48:17.824986 30931 net.cpp:156] Memory required for data: 267481400
I1103 23:48:17.825033 30931 layer_factory.hpp:77] Creating layer relu_conv1
I1103 23:48:17.825093 30931 net.cpp:91] Creating Layer relu_conv1
I1103 23:48:17.825145 30931 net.cpp:425] relu_conv1 <- conv1
I1103 23:48:17.825179 30931 net.cpp:386] relu_conv1 -> conv1 (in-place)
I1103 23:48:17.825551 30931 net.cpp:141] Setting up relu_conv1
I1103 23:48:17.825592 30931 net.cpp:148] Top shape: 50 96 111 111 (59140800)
I1103 23:48:17.825636 30931 net.cpp:156] Memory required for data: 504044600
I1103 23:48:17.825682 30931 layer_factory.hpp:77] Creating layer pool1
I1103 23:48:17.825731 30931 net.cpp:91] Creating Layer pool1
I1103 23:48:17.825762 30931 net.cpp:425] pool1 <- conv1
I1103 23:48:17.825794 30931 net.cpp:399] pool1 -> pool1
I1103 23:48:17.825868 30931 net.cpp:141] Setting up pool1
I1103 23:48:17.825903 30931 net.cpp:148] Top shape: 50 96 55 55 (14520000)
I1103 23:48:17.825938 30931 net.cpp:156] Memory required for data: 562124600
I1103 23:48:17.825969 30931 layer_factory.hpp:77] Creating layer fire2/conv1x1_1
I1103 23:48:17.826016 30931 net.cpp:91] Creating Layer fire2/conv1x1_1
I1103 23:48:17.826052 30931 net.cpp:425] fire2/conv1x1_1 <- pool1
I1103 23:48:17.826100 30931 net.cpp:399] fire2/conv1x1_1 -> fire2/conv1x1_1
I1103 23:48:17.827563 30931 net.cpp:141] Setting up fire2/conv1x1_1
I1103 23:48:17.827599 30931 net.cpp:148] Top shape: 50 16 55 55 (2420000)
I1103 23:48:17.827639 30931 net.cpp:156] Memory required for data: 571804600
I1103 23:48:17.827675 30931 layer_factory.hpp:77] Creating layer fire2/relu_conv1x1_1
I1103 23:48:17.827715 30931 net.cpp:91] Creating Layer fire2/relu_conv1x1_1
I1103 23:48:17.827751 30931 net.cpp:425] fire2/relu_conv1x1_1 <- fire2/conv1x1_1
I1103 23:48:17.827785 30931 net.cpp:386] fire2/relu_conv1x1_1 -> fire2/conv1x1_1 (in-place)
I1103 23:48:17.827980 30931 net.cpp:141] Setting up fire2/relu_conv1x1_1
I1103 23:48:17.828016 30931 net.cpp:148] Top shape: 50 16 55 55 (2420000)
I1103 23:48:17.828070 30931 net.cpp:156] Memory required for data: 581484600
I1103 23:48:17.828114 30931 layer_factory.hpp:77] Creating layer fire2/conv1x1_1_fire2/relu_conv1x1_1_0_split
I1103 23:48:17.828143 30931 net.cpp:91] Creating Layer fire2/conv1x1_1_fire2/relu_conv1x1_1_0_split
I1103 23:48:17.828181 30931 net.cpp:425] fire2/conv1x1_1_fire2/relu_conv1x1_1_0_split <- fire2/conv1x1_1
I1103 23:48:17.828213 30931 net.cpp:399] fire2/conv1x1_1_fire2/relu_conv1x1_1_0_split -> fire2/conv1x1_1_fire2/relu_conv1x1_1_0_split_0
I1103 23:48:17.828256 30931 net.cpp:399] fire2/conv1x1_1_fire2/relu_conv1x1_1_0_split -> fire2/conv1x1_1_fire2/relu_conv1x1_1_0_split_1
I1103 23:48:17.828320 30931 net.cpp:141] Setting up fire2/conv1x1_1_fire2/relu_conv1x1_1_0_split
I1103 23:48:17.828352 30931 net.cpp:148] Top shape: 50 16 55 55 (2420000)
I1103 23:48:17.828387 30931 net.cpp:148] Top shape: 50 16 55 55 (2420000)
I1103 23:48:17.828420 30931 net.cpp:156] Memory required for data: 600844600
I1103 23:48:17.828505 30931 layer_factory.hpp:77] Creating layer fire2/conv1x1_2
I1103 23:48:17.828574 30931 net.cpp:91] Creating Layer fire2/conv1x1_2
I1103 23:48:17.828601 30931 net.cpp:425] fire2/conv1x1_2 <- fire2/conv1x1_1_fire2/relu_conv1x1_1_0_split_0
I1103 23:48:17.828639 30931 net.cpp:399] fire2/conv1x1_2 -> fire2/conv1x1_2
I1103 23:48:17.830086 30931 net.cpp:141] Setting up fire2/conv1x1_2
I1103 23:48:17.830129 30931 net.cpp:148] Top shape: 50 64 55 55 (9680000)
I1103 23:48:17.830170 30931 net.cpp:156] Memory required for data: 639564600
I1103 23:48:17.830219 30931 layer_factory.hpp:77] Creating layer fire2/relu_conv1x1_2
I1103 23:48:17.830260 30931 net.cpp:91] Creating Layer fire2/relu_conv1x1_2
I1103 23:48:17.830302 30931 net.cpp:425] fire2/relu_conv1x1_2 <- fire2/conv1x1_2
I1103 23:48:17.830339 30931 net.cpp:386] fire2/relu_conv1x1_2 -> fire2/conv1x1_2 (in-place)
I1103 23:48:17.830516 30931 net.cpp:141] Setting up fire2/relu_conv1x1_2
I1103 23:48:17.830549 30931 net.cpp:148] Top shape: 50 64 55 55 (9680000)
I1103 23:48:17.830585 30931 net.cpp:156] Memory required for data: 678284600
I1103 23:48:17.830623 30931 layer_factory.hpp:77] Creating layer fire2/conv3x3_2
I1103 23:48:17.830672 30931 net.cpp:91] Creating Layer fire2/conv3x3_2
I1103 23:48:17.830713 30931 net.cpp:425] fire2/conv3x3_2 <- fire2/conv1x1_1_fire2/relu_conv1x1_1_0_split_1
I1103 23:48:17.830749 30931 net.cpp:399] fire2/conv3x3_2 -> fire2/conv3x3_2
I1103 23:48:17.832021 30931 net.cpp:141] Setting up fire2/conv3x3_2
I1103 23:48:17.832068 30931 net.cpp:148] Top shape: 50 64 55 55 (9680000)
I1103 23:48:17.832109 30931 net.cpp:156] Memory required for data: 717004600
I1103 23:48:17.832149 30931 layer_factory.hpp:77] Creating layer fire2/relu_conv3x3_2
I1103 23:48:17.832181 30931 net.cpp:91] Creating Layer fire2/relu_conv3x3_2
I1103 23:48:17.832233 30931 net.cpp:425] fire2/relu_conv3x3_2 <- fire2/conv3x3_2
I1103 23:48:17.832268 30931 net.cpp:386] fire2/relu_conv3x3_2 -> fire2/conv3x3_2 (in-place)
I1103 23:48:17.832638 30931 net.cpp:141] Setting up fire2/relu_conv3x3_2
I1103 23:48:17.832681 30931 net.cpp:148] Top shape: 50 64 55 55 (9680000)
I1103 23:48:17.832713 30931 net.cpp:156] Memory required for data: 755724600
I1103 23:48:17.832801 30931 layer_factory.hpp:77] Creating layer fire2/concat
I1103 23:48:17.832842 30931 net.cpp:91] Creating Layer fire2/concat
I1103 23:48:17.832878 30931 net.cpp:425] fire2/concat <- fire2/conv1x1_2
I1103 23:48:17.832914 30931 net.cpp:425] fire2/concat <- fire2/conv3x3_2
I1103 23:48:17.832947 30931 net.cpp:399] fire2/concat -> fire2/concat
I1103 23:48:17.833011 30931 net.cpp:141] Setting up fire2/concat
I1103 23:48:17.833057 30931 net.cpp:148] Top shape: 50 128 55 55 (19360000)
I1103 23:48:17.833103 30931 net.cpp:156] Memory required for data: 833164600
I1103 23:48:17.833148 30931 layer_factory.hpp:77] Creating layer fire3/conv1x1_1
I1103 23:48:17.833187 30931 net.cpp:91] Creating Layer fire3/conv1x1_1
I1103 23:48:17.833240 30931 net.cpp:425] fire3/conv1x1_1 <- fire2/concat
I1103 23:48:17.833297 30931 net.cpp:399] fire3/conv1x1_1 -> fire3/conv1x1_1
I1103 23:48:17.834345 30931 net.cpp:141] Setting up fire3/conv1x1_1
I1103 23:48:17.834393 30931 net.cpp:148] Top shape: 50 16 55 55 (2420000)
I1103 23:48:17.834427 30931 net.cpp:156] Memory required for data: 842844600
I1103 23:48:17.834480 30931 layer_factory.hpp:77] Creating layer fire3/relu_conv1x1_1
I1103 23:48:17.834523 30931 net.cpp:91] Creating Layer fire3/relu_conv1x1_1
I1103 23:48:17.834564 30931 net.cpp:425] fire3/relu_conv1x1_1 <- fire3/conv1x1_1
I1103 23:48:17.834606 30931 net.cpp:386] fire3/relu_conv1x1_1 -> fire3/conv1x1_1 (in-place)
I1103 23:48:17.834779 30931 net.cpp:141] Setting up fire3/relu_conv1x1_1
I1103 23:48:17.834823 30931 net.cpp:148] Top shape: 50 16 55 55 (2420000)
I1103 23:48:17.834868 30931 net.cpp:156] Memory required for data: 852524600
I1103 23:48:17.834909 30931 layer_factory.hpp:77] Creating layer fire3/conv1x1_1_fire3/relu_conv1x1_1_0_split
I1103 23:48:17.834951 30931 net.cpp:91] Creating Layer fire3/conv1x1_1_fire3/relu_conv1x1_1_0_split
I1103 23:48:17.835023 30931 net.cpp:425] fire3/conv1x1_1_fire3/relu_conv1x1_1_0_split <- fire3/conv1x1_1
I1103 23:48:17.835089 30931 net.cpp:399] fire3/conv1x1_1_fire3/relu_conv1x1_1_0_split -> fire3/conv1x1_1_fire3/relu_conv1x1_1_0_split_0
I1103 23:48:17.835132 30931 net.cpp:399] fire3/conv1x1_1_fire3/relu_conv1x1_1_0_split -> fire3/conv1x1_1_fire3/relu_conv1x1_1_0_split_1
I1103 23:48:17.835204 30931 net.cpp:141] Setting up fire3/conv1x1_1_fire3/relu_conv1x1_1_0_split
I1103 23:48:17.835237 30931 net.cpp:148] Top shape: 50 16 55 55 (2420000)
I1103 23:48:17.835276 30931 net.cpp:148] Top shape: 50 16 55 55 (2420000)
I1103 23:48:17.835317 30931 net.cpp:156] Memory required for data: 871884600
I1103 23:48:17.835352 30931 layer_factory.hpp:77] Creating layer fire3/conv1x1_2
I1103 23:48:17.835413 30931 net.cpp:91] Creating Layer fire3/conv1x1_2
I1103 23:48:17.835446 30931 net.cpp:425] fire3/conv1x1_2 <- fire3/conv1x1_1_fire3/relu_conv1x1_1_0_split_0
I1103 23:48:17.835491 30931 net.cpp:399] fire3/conv1x1_2 -> fire3/conv1x1_2
I1103 23:48:17.836766 30931 net.cpp:141] Setting up fire3/conv1x1_2
I1103 23:48:17.836827 30931 net.cpp:148] Top shape: 50 64 55 55 (9680000)
I1103 23:48:17.836865 30931 net.cpp:156] Memory required for data: 910604600
I1103 23:48:17.836899 30931 layer_factory.hpp:77] Creating layer fire3/relu_conv1x1_2
I1103 23:48:17.836949 30931 net.cpp:91] Creating Layer fire3/relu_conv1x1_2
I1103 23:48:17.836989 30931 net.cpp:425] fire3/relu_conv1x1_2 <- fire3/conv1x1_2
I1103 23:48:17.837029 30931 net.cpp:386] fire3/relu_conv1x1_2 -> fire3/conv1x1_2 (in-place)
I1103 23:48:17.837224 30931 net.cpp:141] Setting up fire3/relu_conv1x1_2
I1103 23:48:17.837262 30931 net.cpp:148] Top shape: 50 64 55 55 (9680000)
I1103 23:48:17.837307 30931 net.cpp:156] Memory required for data: 949324600
I1103 23:48:17.837342 30931 layer_factory.hpp:77] Creating layer fire3/conv3x3_2
I1103 23:48:17.837390 30931 net.cpp:91] Creating Layer fire3/conv3x3_2
I1103 23:48:17.837430 30931 net.cpp:425] fire3/conv3x3_2 <- fire3/conv1x1_1_fire3/relu_conv1x1_1_0_split_1
I1103 23:48:17.837466 30931 net.cpp:399] fire3/conv3x3_2 -> fire3/conv3x3_2
I1103 23:48:17.838551 30931 net.cpp:141] Setting up fire3/conv3x3_2
I1103 23:48:17.838611 30931 net.cpp:148] Top shape: 50 64 55 55 (9680000)
I1103 23:48:17.838652 30931 net.cpp:156] Memory required for data: 988044600
I1103 23:48:17.838699 30931 layer_factory.hpp:77] Creating layer fire3/relu_conv3x3_2
I1103 23:48:17.838739 30931 net.cpp:91] Creating Layer fire3/relu_conv3x3_2
I1103 23:48:17.838781 30931 net.cpp:425] fire3/relu_conv3x3_2 <- fire3/conv3x3_2
I1103 23:48:17.838821 30931 net.cpp:386] fire3/relu_conv3x3_2 -> fire3/conv3x3_2 (in-place)
I1103 23:48:17.839203 30931 net.cpp:141] Setting up fire3/relu_conv3x3_2
I1103 23:48:17.839290 30931 net.cpp:148] Top shape: 50 64 55 55 (9680000)
I1103 23:48:17.839325 30931 net.cpp:156] Memory required for data: 1026764600
I1103 23:48:17.839382 30931 layer_factory.hpp:77] Creating layer fire3/concat
I1103 23:48:17.839433 30931 net.cpp:91] Creating Layer fire3/concat
I1103 23:48:17.839473 30931 net.cpp:425] fire3/concat <- fire3/conv1x1_2
I1103 23:48:17.839517 30931 net.cpp:425] fire3/concat <- fire3/conv3x3_2
I1103 23:48:17.839555 30931 net.cpp:399] fire3/concat -> fire3/concat
I1103 23:48:17.839613 30931 net.cpp:141] Setting up fire3/concat
I1103 23:48:17.839654 30931 net.cpp:148] Top shape: 50 128 55 55 (19360000)
I1103 23:48:17.839690 30931 net.cpp:156] Memory required for data: 1104204600
I1103 23:48:17.839725 30931 layer_factory.hpp:77] Creating layer fire4/conv1x1_1
I1103 23:48:17.839762 30931 net.cpp:91] Creating Layer fire4/conv1x1_1
I1103 23:48:17.839804 30931 net.cpp:425] fire4/conv1x1_1 <- fire3/concat
I1103 23:48:17.839869 30931 net.cpp:399] fire4/conv1x1_1 -> fire4/conv1x1_1
I1103 23:48:17.840960 30931 net.cpp:141] Setting up fire4/conv1x1_1
I1103 23:48:17.841049 30931 net.cpp:148] Top shape: 50 32 55 55 (4840000)
I1103 23:48:17.841094 30931 net.cpp:156] Memory required for data: 1123564600
I1103 23:48:17.841150 30931 layer_factory.hpp:77] Creating layer fire4/relu_conv1x1_1
I1103 23:48:17.841233 30931 net.cpp:91] Creating Layer fire4/relu_conv1x1_1
I1103 23:48:17.841295 30931 net.cpp:425] fire4/relu_conv1x1_1 <- fire4/conv1x1_1
I1103 23:48:17.841342 30931 net.cpp:386] fire4/relu_conv1x1_1 -> fire4/conv1x1_1 (in-place)
I1103 23:48:17.841542 30931 net.cpp:141] Setting up fire4/relu_conv1x1_1
I1103 23:48:17.841583 30931 net.cpp:148] Top shape: 50 32 55 55 (4840000)
I1103 23:48:17.841626 30931 net.cpp:156] Memory required for data: 1142924600
I1103 23:48:17.841667 30931 layer_factory.hpp:77] Creating layer fire4/conv1x1_1_fire4/relu_conv1x1_1_0_split
I1103 23:48:17.841711 30931 net.cpp:91] Creating Layer fire4/conv1x1_1_fire4/relu_conv1x1_1_0_split
I1103 23:48:17.841756 30931 net.cpp:425] fire4/conv1x1_1_fire4/relu_conv1x1_1_0_split <- fire4/conv1x1_1
I1103 23:48:17.841795 30931 net.cpp:399] fire4/conv1x1_1_fire4/relu_conv1x1_1_0_split -> fire4/conv1x1_1_fire4/relu_conv1x1_1_0_split_0
I1103 23:48:17.841841 30931 net.cpp:399] fire4/conv1x1_1_fire4/relu_conv1x1_1_0_split -> fire4/conv1x1_1_fire4/relu_conv1x1_1_0_split_1
I1103 23:48:17.841918 30931 net.cpp:141] Setting up fire4/conv1x1_1_fire4/relu_conv1x1_1_0_split
I1103 23:48:17.841972 30931 net.cpp:148] Top shape: 50 32 55 55 (4840000)
I1103 23:48:17.842006 30931 net.cpp:148] Top shape: 50 32 55 55 (4840000)
I1103 23:48:17.842052 30931 net.cpp:156] Memory required for data: 1181644600
I1103 23:48:17.842092 30931 layer_factory.hpp:77] Creating layer fire4/conv1x1_2
I1103 23:48:17.842138 30931 net.cpp:91] Creating Layer fire4/conv1x1_2
I1103 23:48:17.842171 30931 net.cpp:425] fire4/conv1x1_2 <- fire4/conv1x1_1_fire4/relu_conv1x1_1_0_split_0
I1103 23:48:17.842214 30931 net.cpp:399] fire4/conv1x1_2 -> fire4/conv1x1_2
I1103 23:48:17.843293 30931 net.cpp:141] Setting up fire4/conv1x1_2
I1103 23:48:17.843340 30931 net.cpp:148] Top shape: 50 128 55 55 (19360000)
I1103 23:48:17.843377 30931 net.cpp:156] Memory required for data: 1259084600
I1103 23:48:17.843439 30931 layer_factory.hpp:77] Creating layer fire4/relu_conv1x1_2
I1103 23:48:17.843474 30931 net.cpp:91] Creating Layer fire4/relu_conv1x1_2
I1103 23:48:17.843514 30931 net.cpp:425] fire4/relu_conv1x1_2 <- fire4/conv1x1_2
I1103 23:48:17.843556 30931 net.cpp:386] fire4/relu_conv1x1_2 -> fire4/conv1x1_2 (in-place)
I1103 23:48:17.843739 30931 net.cpp:141] Setting up fire4/relu_conv1x1_2
I1103 23:48:17.843796 30931 net.cpp:148] Top shape: 50 128 55 55 (19360000)
I1103 23:48:17.843835 30931 net.cpp:156] Memory required for data: 1336524600
I1103 23:48:17.843897 30931 layer_factory.hpp:77] Creating layer fire4/conv3x3_2
I1103 23:48:17.843943 30931 net.cpp:91] Creating Layer fire4/conv3x3_2
I1103 23:48:17.843983 30931 net.cpp:425] fire4/conv3x3_2 <- fire4/conv1x1_1_fire4/relu_conv1x1_1_0_split_1
I1103 23:48:17.844038 30931 net.cpp:399] fire4/conv3x3_2 -> fire4/conv3x3_2
I1103 23:48:17.845937 30931 net.cpp:141] Setting up fire4/conv3x3_2
I1103 23:48:17.846009 30931 net.cpp:148] Top shape: 50 128 55 55 (19360000)
I1103 23:48:17.846056 30931 net.cpp:156] Memory required for data: 1413964600
I1103 23:48:17.846099 30931 layer_factory.hpp:77] Creating layer fire4/relu_conv3x3_2
I1103 23:48:17.846143 30931 net.cpp:91] Creating Layer fire4/relu_conv3x3_2
I1103 23:48:17.846184 30931 net.cpp:425] fire4/relu_conv3x3_2 <- fire4/conv3x3_2
I1103 23:48:17.846238 30931 net.cpp:386] fire4/relu_conv3x3_2 -> fire4/conv3x3_2 (in-place)
I1103 23:48:17.846649 30931 net.cpp:141] Setting up fire4/relu_conv3x3_2
I1103 23:48:17.846735 30931 net.cpp:148] Top shape: 50 128 55 55 (19360000)
I1103 23:48:17.846781 30931 net.cpp:156] Memory required for data: 1491404600
I1103 23:48:17.846832 30931 layer_factory.hpp:77] Creating layer fire4/concat
I1103 23:48:17.846889 30931 net.cpp:91] Creating Layer fire4/concat
I1103 23:48:17.846938 30931 net.cpp:425] fire4/concat <- fire4/conv1x1_2
I1103 23:48:17.846982 30931 net.cpp:425] fire4/concat <- fire4/conv3x3_2
I1103 23:48:17.847038 30931 net.cpp:399] fire4/concat -> fire4/concat
I1103 23:48:17.847111 30931 net.cpp:141] Setting up fire4/concat
I1103 23:48:17.847188 30931 net.cpp:148] Top shape: 50 256 55 55 (38720000)
I1103 23:48:17.847244 30931 net.cpp:156] Memory required for data: 1646284600
I1103 23:48:17.847295 30931 layer_factory.hpp:77] Creating layer pool4
I1103 23:48:17.847337 30931 net.cpp:91] Creating Layer pool4
I1103 23:48:17.847390 30931 net.cpp:425] pool4 <- fire4/concat
I1103 23:48:17.847437 30931 net.cpp:399] pool4 -> pool4
I1103 23:48:17.847522 30931 net.cpp:141] Setting up pool4
I1103 23:48:17.847568 30931 net.cpp:148] Top shape: 50 256 27 27 (9331200)
I1103 23:48:17.847605 30931 net.cpp:156] Memory required for data: 1683609400
I1103 23:48:17.847651 30931 layer_factory.hpp:77] Creating layer fire5/conv1x1_1
I1103 23:48:17.847700 30931 net.cpp:91] Creating Layer fire5/conv1x1_1
I1103 23:48:17.847735 30931 net.cpp:425] fire5/conv1x1_1 <- pool4
I1103 23:48:17.847781 30931 net.cpp:399] fire5/conv1x1_1 -> fire5/conv1x1_1
I1103 23:48:17.848927 30931 net.cpp:141] Setting up fire5/conv1x1_1
I1103 23:48:17.848991 30931 net.cpp:148] Top shape: 50 32 27 27 (1166400)
I1103 23:48:17.849036 30931 net.cpp:156] Memory required for data: 1688275000
I1103 23:48:17.849079 30931 layer_factory.hpp:77] Creating layer fire5/relu_conv1x1_1
I1103 23:48:17.849130 30931 net.cpp:91] Creating Layer fire5/relu_conv1x1_1
I1103 23:48:17.849176 30931 net.cpp:425] fire5/relu_conv1x1_1 <- fire5/conv1x1_1
I1103 23:48:17.849231 30931 net.cpp:386] fire5/relu_conv1x1_1 -> fire5/conv1x1_1 (in-place)
I1103 23:48:17.849444 30931 net.cpp:141] Setting up fire5/relu_conv1x1_1
I1103 23:48:17.849495 30931 net.cpp:148] Top shape: 50 32 27 27 (1166400)
I1103 23:48:17.849542 30931 net.cpp:156] Memory required for data: 1692940600
I1103 23:48:17.849586 30931 layer_factory.hpp:77] Creating layer fire5/conv1x1_1_fire5/relu_conv1x1_1_0_split
I1103 23:48:17.849633 30931 net.cpp:91] Creating Layer fire5/conv1x1_1_fire5/relu_conv1x1_1_0_split
I1103 23:48:17.849685 30931 net.cpp:425] fire5/conv1x1_1_fire5/relu_conv1x1_1_0_split <- fire5/conv1x1_1
I1103 23:48:17.849735 30931 net.cpp:399] fire5/conv1x1_1_fire5/relu_conv1x1_1_0_split -> fire5/conv1x1_1_fire5/relu_conv1x1_1_0_split_0
I1103 23:48:17.849792 30931 net.cpp:399] fire5/conv1x1_1_fire5/relu_conv1x1_1_0_split -> fire5/conv1x1_1_fire5/relu_conv1x1_1_0_split_1
I1103 23:48:17.849870 30931 net.cpp:141] Setting up fire5/conv1x1_1_fire5/relu_conv1x1_1_0_split
I1103 23:48:17.849908 30931 net.cpp:148] Top shape: 50 32 27 27 (1166400)
I1103 23:48:17.849956 30931 net.cpp:148] Top shape: 50 32 27 27 (1166400)
I1103 23:48:17.849998 30931 net.cpp:156] Memory required for data: 1702271800
I1103 23:48:17.850051 30931 layer_factory.hpp:77] Creating layer fire5/conv1x1_2
I1103 23:48:17.850102 30931 net.cpp:91] Creating Layer fire5/conv1x1_2
I1103 23:48:17.850144 30931 net.cpp:425] fire5/conv1x1_2 <- fire5/conv1x1_1_fire5/relu_conv1x1_1_0_split_0
I1103 23:48:17.850193 30931 net.cpp:399] fire5/conv1x1_2 -> fire5/conv1x1_2
I1103 23:48:17.851472 30931 net.cpp:141] Setting up fire5/conv1x1_2
I1103 23:48:17.851522 30931 net.cpp:148] Top shape: 50 128 27 27 (4665600)
I1103 23:48:17.851577 30931 net.cpp:156] Memory required for data: 1720934200
I1103 23:48:17.851632 30931 layer_factory.hpp:77] Creating layer fire5/relu_conv1x1_2
I1103 23:48:17.851675 30931 net.cpp:91] Creating Layer fire5/relu_conv1x1_2
I1103 23:48:17.851716 30931 net.cpp:425] fire5/relu_conv1x1_2 <- fire5/conv1x1_2
I1103 23:48:17.851763 30931 net.cpp:386] fire5/relu_conv1x1_2 -> fire5/conv1x1_2 (in-place)
I1103 23:48:17.851982 30931 net.cpp:141] Setting up fire5/relu_conv1x1_2
I1103 23:48:17.852030 30931 net.cpp:148] Top shape: 50 128 27 27 (4665600)
I1103 23:48:17.852080 30931 net.cpp:156] Memory required for data: 1739596600
I1103 23:48:17.852116 30931 layer_factory.hpp:77] Creating layer fire5/conv3x3_2
I1103 23:48:17.852171 30931 net.cpp:91] Creating Layer fire5/conv3x3_2
I1103 23:48:17.852210 30931 net.cpp:425] fire5/conv3x3_2 <- fire5/conv1x1_1_fire5/relu_conv1x1_1_0_split_1
I1103 23:48:17.852269 30931 net.cpp:399] fire5/conv3x3_2 -> fire5/conv3x3_2
I1103 23:48:17.853906 30931 net.cpp:141] Setting up fire5/conv3x3_2
I1103 23:48:17.854008 30931 net.cpp:148] Top shape: 50 128 27 27 (4665600)
I1103 23:48:17.854061 30931 net.cpp:156] Memory required for data: 1758259000
I1103 23:48:17.854116 30931 layer_factory.hpp:77] Creating layer fire5/relu_conv3x3_2
I1103 23:48:17.854164 30931 net.cpp:91] Creating Layer fire5/relu_conv3x3_2
I1103 23:48:17.854212 30931 net.cpp:425] fire5/relu_conv3x3_2 <- fire5/conv3x3_2
I1103 23:48:17.854267 30931 net.cpp:386] fire5/relu_conv3x3_2 -> fire5/conv3x3_2 (in-place)
I1103 23:48:17.854666 30931 net.cpp:141] Setting up fire5/relu_conv3x3_2
I1103 23:48:17.854754 30931 net.cpp:148] Top shape: 50 128 27 27 (4665600)
I1103 23:48:17.854799 30931 net.cpp:156] Memory required for data: 1776921400
I1103 23:48:17.854851 30931 layer_factory.hpp:77] Creating layer fire5/concat
I1103 23:48:17.854898 30931 net.cpp:91] Creating Layer fire5/concat
I1103 23:48:17.854954 30931 net.cpp:425] fire5/concat <- fire5/conv1x1_2
I1103 23:48:17.855000 30931 net.cpp:425] fire5/concat <- fire5/conv3x3_2
I1103 23:48:17.855054 30931 net.cpp:399] fire5/concat -> fire5/concat
I1103 23:48:17.855132 30931 net.cpp:141] Setting up fire5/concat
I1103 23:48:17.855177 30931 net.cpp:148] Top shape: 50 256 27 27 (9331200)
I1103 23:48:17.855216 30931 net.cpp:156] Memory required for data: 1814246200
I1103 23:48:17.855259 30931 layer_factory.hpp:77] Creating layer fire6/conv1x1_1
I1103 23:48:17.855306 30931 net.cpp:91] Creating Layer fire6/conv1x1_1
I1103 23:48:17.855347 30931 net.cpp:425] fire6/conv1x1_1 <- fire5/concat
I1103 23:48:17.855392 30931 net.cpp:399] fire6/conv1x1_1 -> fire6/conv1x1_1
I1103 23:48:17.856557 30931 net.cpp:141] Setting up fire6/conv1x1_1
I1103 23:48:17.856624 30931 net.cpp:148] Top shape: 50 48 27 27 (1749600)
I1103 23:48:17.856678 30931 net.cpp:156] Memory required for data: 1821244600
I1103 23:48:17.856729 30931 layer_factory.hpp:77] Creating layer fire6/relu_conv1x1_1
I1103 23:48:17.856775 30931 net.cpp:91] Creating Layer fire6/relu_conv1x1_1
I1103 23:48:17.856822 30931 net.cpp:425] fire6/relu_conv1x1_1 <- fire6/conv1x1_1
I1103 23:48:17.856870 30931 net.cpp:386] fire6/relu_conv1x1_1 -> fire6/conv1x1_1 (in-place)
I1103 23:48:17.857081 30931 net.cpp:141] Setting up fire6/relu_conv1x1_1
I1103 23:48:17.857132 30931 net.cpp:148] Top shape: 50 48 27 27 (1749600)
I1103 23:48:17.857177 30931 net.cpp:156] Memory required for data: 1828243000
I1103 23:48:17.857223 30931 layer_factory.hpp:77] Creating layer fire6/conv1x1_1_fire6/relu_conv1x1_1_0_split
I1103 23:48:17.857266 30931 net.cpp:91] Creating Layer fire6/conv1x1_1_fire6/relu_conv1x1_1_0_split
I1103 23:48:17.857308 30931 net.cpp:425] fire6/conv1x1_1_fire6/relu_conv1x1_1_0_split <- fire6/conv1x1_1
I1103 23:48:17.857355 30931 net.cpp:399] fire6/conv1x1_1_fire6/relu_conv1x1_1_0_split -> fire6/conv1x1_1_fire6/relu_conv1x1_1_0_split_0
I1103 23:48:17.857409 30931 net.cpp:399] fire6/conv1x1_1_fire6/relu_conv1x1_1_0_split -> fire6/conv1x1_1_fire6/relu_conv1x1_1_0_split_1
I1103 23:48:17.857488 30931 net.cpp:141] Setting up fire6/conv1x1_1_fire6/relu_conv1x1_1_0_split
I1103 23:48:17.857534 30931 net.cpp:148] Top shape: 50 48 27 27 (1749600)
I1103 23:48:17.857578 30931 net.cpp:148] Top shape: 50 48 27 27 (1749600)
I1103 23:48:17.857615 30931 net.cpp:156] Memory required for data: 1842239800
I1103 23:48:17.857663 30931 layer_factory.hpp:77] Creating layer fire6/conv1x1_2
I1103 23:48:17.857704 30931 net.cpp:91] Creating Layer fire6/conv1x1_2
I1103 23:48:17.857753 30931 net.cpp:425] fire6/conv1x1_2 <- fire6/conv1x1_1_fire6/relu_conv1x1_1_0_split_0
I1103 23:48:17.857801 30931 net.cpp:399] fire6/conv1x1_2 -> fire6/conv1x1_2
I1103 23:48:17.858944 30931 net.cpp:141] Setting up fire6/conv1x1_2
I1103 23:48:17.858989 30931 net.cpp:148] Top shape: 50 192 27 27 (6998400)
I1103 23:48:17.859048 30931 net.cpp:156] Memory required for data: 1870233400
I1103 23:48:17.859097 30931 layer_factory.hpp:77] Creating layer fire6/relu_conv1x1_2
I1103 23:48:17.859148 30931 net.cpp:91] Creating Layer fire6/relu_conv1x1_2
I1103 23:48:17.859191 30931 net.cpp:425] fire6/relu_conv1x1_2 <- fire6/conv1x1_2
I1103 23:48:17.859279 30931 net.cpp:386] fire6/relu_conv1x1_2 -> fire6/conv1x1_2 (in-place)
I1103 23:48:17.859488 30931 net.cpp:141] Setting up fire6/relu_conv1x1_2
I1103 23:48:17.859540 30931 net.cpp:148] Top shape: 50 192 27 27 (6998400)
I1103 23:48:17.859583 30931 net.cpp:156] Memory required for data: 1898227000
I1103 23:48:17.859630 30931 layer_factory.hpp:77] Creating layer fire6/conv3x3_2
I1103 23:48:17.859678 30931 net.cpp:91] Creating Layer fire6/conv3x3_2
I1103 23:48:17.859725 30931 net.cpp:425] fire6/conv3x3_2 <- fire6/conv1x1_1_fire6/relu_conv1x1_1_0_split_1
I1103 23:48:17.859774 30931 net.cpp:399] fire6/conv3x3_2 -> fire6/conv3x3_2
I1103 23:48:17.861933 30931 net.cpp:141] Setting up fire6/conv3x3_2
I1103 23:48:17.861984 30931 net.cpp:148] Top shape: 50 192 27 27 (6998400)
I1103 23:48:17.862040 30931 net.cpp:156] Memory required for data: 1926220600
I1103 23:48:17.862090 30931 layer_factory.hpp:77] Creating layer fire6/relu_conv3x3_2
I1103 23:48:17.862145 30931 net.cpp:91] Creating Layer fire6/relu_conv3x3_2
I1103 23:48:17.862184 30931 net.cpp:425] fire6/relu_conv3x3_2 <- fire6/conv3x3_2
I1103 23:48:17.862236 30931 net.cpp:386] fire6/relu_conv3x3_2 -> fire6/conv3x3_2 (in-place)
I1103 23:48:17.862632 30931 net.cpp:141] Setting up fire6/relu_conv3x3_2
I1103 23:48:17.862720 30931 net.cpp:148] Top shape: 50 192 27 27 (6998400)
I1103 23:48:17.862762 30931 net.cpp:156] Memory required for data: 1954214200
I1103 23:48:17.862812 30931 layer_factory.hpp:77] Creating layer fire6/concat
I1103 23:48:17.862861 30931 net.cpp:91] Creating Layer fire6/concat
I1103 23:48:17.862911 30931 net.cpp:425] fire6/concat <- fire6/conv1x1_2
I1103 23:48:17.862973 30931 net.cpp:425] fire6/concat <- fire6/conv3x3_2
I1103 23:48:17.863034 30931 net.cpp:399] fire6/concat -> fire6/concat
I1103 23:48:17.863106 30931 net.cpp:141] Setting up fire6/concat
I1103 23:48:17.863153 30931 net.cpp:148] Top shape: 50 384 27 27 (13996800)
I1103 23:48:17.863198 30931 net.cpp:156] Memory required for data: 2010201400
I1103 23:48:17.863239 30931 layer_factory.hpp:77] Creating layer fire7/conv1x1_1
I1103 23:48:17.863281 30931 net.cpp:91] Creating Layer fire7/conv1x1_1
I1103 23:48:17.863323 30931 net.cpp:425] fire7/conv1x1_1 <- fire6/concat
I1103 23:48:17.863378 30931 net.cpp:399] fire7/conv1x1_1 -> fire7/conv1x1_1
I1103 23:48:17.864802 30931 net.cpp:141] Setting up fire7/conv1x1_1
I1103 23:48:17.864891 30931 net.cpp:148] Top shape: 50 48 27 27 (1749600)
I1103 23:48:17.864941 30931 net.cpp:156] Memory required for data: 2017199800
I1103 23:48:17.865000 30931 layer_factory.hpp:77] Creating layer fire7/relu_conv1x1_1
I1103 23:48:17.865041 30931 net.cpp:91] Creating Layer fire7/relu_conv1x1_1
I1103 23:48:17.865100 30931 net.cpp:425] fire7/relu_conv1x1_1 <- fire7/conv1x1_1
I1103 23:48:17.865155 30931 net.cpp:386] fire7/relu_conv1x1_1 -> fire7/conv1x1_1 (in-place)
I1103 23:48:17.865362 30931 net.cpp:141] Setting up fire7/relu_conv1x1_1
I1103 23:48:17.865406 30931 net.cpp:148] Top shape: 50 48 27 27 (1749600)
I1103 23:48:17.865455 30931 net.cpp:156] Memory required for data: 2024198200
I1103 23:48:17.865504 30931 layer_factory.hpp:77] Creating layer fire7/conv1x1_1_fire7/relu_conv1x1_1_0_split
I1103 23:48:17.865548 30931 net.cpp:91] Creating Layer fire7/conv1x1_1_fire7/relu_conv1x1_1_0_split
I1103 23:48:17.865597 30931 net.cpp:425] fire7/conv1x1_1_fire7/relu_conv1x1_1_0_split <- fire7/conv1x1_1
I1103 23:48:17.865648 30931 net.cpp:399] fire7/conv1x1_1_fire7/relu_conv1x1_1_0_split -> fire7/conv1x1_1_fire7/relu_conv1x1_1_0_split_0
I1103 23:48:17.865694 30931 net.cpp:399] fire7/conv1x1_1_fire7/relu_conv1x1_1_0_split -> fire7/conv1x1_1_fire7/relu_conv1x1_1_0_split_1
I1103 23:48:17.865792 30931 net.cpp:141] Setting up fire7/conv1x1_1_fire7/relu_conv1x1_1_0_split
I1103 23:48:17.865839 30931 net.cpp:148] Top shape: 50 48 27 27 (1749600)
I1103 23:48:17.865888 30931 net.cpp:148] Top shape: 50 48 27 27 (1749600)
I1103 23:48:17.865931 30931 net.cpp:156] Memory required for data: 2038195000
I1103 23:48:17.865978 30931 layer_factory.hpp:77] Creating layer fire7/conv1x1_2
I1103 23:48:17.866065 30931 net.cpp:91] Creating Layer fire7/conv1x1_2
I1103 23:48:17.866127 30931 net.cpp:425] fire7/conv1x1_2 <- fire7/conv1x1_1_fire7/relu_conv1x1_1_0_split_0
I1103 23:48:17.866178 30931 net.cpp:399] fire7/conv1x1_2 -> fire7/conv1x1_2
I1103 23:48:17.867329 30931 net.cpp:141] Setting up fire7/conv1x1_2
I1103 23:48:17.867395 30931 net.cpp:148] Top shape: 50 192 27 27 (6998400)
I1103 23:48:17.867444 30931 net.cpp:156] Memory required for data: 2066188600
I1103 23:48:17.867498 30931 layer_factory.hpp:77] Creating layer fire7/relu_conv1x1_2
I1103 23:48:17.867547 30931 net.cpp:91] Creating Layer fire7/relu_conv1x1_2
I1103 23:48:17.867589 30931 net.cpp:425] fire7/relu_conv1x1_2 <- fire7/conv1x1_2
I1103 23:48:17.867635 30931 net.cpp:386] fire7/relu_conv1x1_2 -> fire7/conv1x1_2 (in-place)
I1103 23:48:17.867853 30931 net.cpp:141] Setting up fire7/relu_conv1x1_2
I1103 23:48:17.867898 30931 net.cpp:148] Top shape: 50 192 27 27 (6998400)
I1103 23:48:17.867938 30931 net.cpp:156] Memory required for data: 2094182200
I1103 23:48:17.867980 30931 layer_factory.hpp:77] Creating layer fire7/conv3x3_2
I1103 23:48:17.868023 30931 net.cpp:91] Creating Layer fire7/conv3x3_2
I1103 23:48:17.868063 30931 net.cpp:425] fire7/conv3x3_2 <- fire7/conv1x1_1_fire7/relu_conv1x1_1_0_split_1
I1103 23:48:17.868108 30931 net.cpp:399] fire7/conv3x3_2 -> fire7/conv3x3_2
I1103 23:48:17.869838 30931 net.cpp:141] Setting up fire7/conv3x3_2
I1103 23:48:17.869880 30931 net.cpp:148] Top shape: 50 192 27 27 (6998400)
I1103 23:48:17.869922 30931 net.cpp:156] Memory required for data: 2122175800
I1103 23:48:17.869974 30931 layer_factory.hpp:77] Creating layer fire7/relu_conv3x3_2
I1103 23:48:17.870026 30931 net.cpp:91] Creating Layer fire7/relu_conv3x3_2
I1103 23:48:17.870075 30931 net.cpp:425] fire7/relu_conv3x3_2 <- fire7/conv3x3_2
I1103 23:48:17.870133 30931 net.cpp:386] fire7/relu_conv3x3_2 -> fire7/conv3x3_2 (in-place)
I1103 23:48:17.870533 30931 net.cpp:141] Setting up fire7/relu_conv3x3_2
I1103 23:48:17.870620 30931 net.cpp:148] Top shape: 50 192 27 27 (6998400)
I1103 23:48:17.870669 30931 net.cpp:156] Memory required for data: 2150169400
I1103 23:48:17.870723 30931 layer_factory.hpp:77] Creating layer fire7/concat
I1103 23:48:17.870767 30931 net.cpp:91] Creating Layer fire7/concat
I1103 23:48:17.870822 30931 net.cpp:425] fire7/concat <- fire7/conv1x1_2
I1103 23:48:17.870872 30931 net.cpp:425] fire7/concat <- fire7/conv3x3_2
I1103 23:48:17.870923 30931 net.cpp:399] fire7/concat -> fire7/concat
I1103 23:48:17.871002 30931 net.cpp:141] Setting up fire7/concat
I1103 23:48:17.871047 30931 net.cpp:148] Top shape: 50 384 27 27 (13996800)
I1103 23:48:17.871088 30931 net.cpp:156] Memory required for data: 2206156600
I1103 23:48:17.871136 30931 layer_factory.hpp:77] Creating layer fire8/conv1x1_1
I1103 23:48:17.871194 30931 net.cpp:91] Creating Layer fire8/conv1x1_1
I1103 23:48:17.871229 30931 net.cpp:425] fire8/conv1x1_1 <- fire7/concat
I1103 23:48:17.871275 30931 net.cpp:399] fire8/conv1x1_1 -> fire8/conv1x1_1
I1103 23:48:17.872715 30931 net.cpp:141] Setting up fire8/conv1x1_1
I1103 23:48:17.872784 30931 net.cpp:148] Top shape: 50 64 27 27 (2332800)
I1103 23:48:17.872834 30931 net.cpp:156] Memory required for data: 2215487800
I1103 23:48:17.872876 30931 layer_factory.hpp:77] Creating layer fire8/relu_conv1x1_1
I1103 23:48:17.872925 30931 net.cpp:91] Creating Layer fire8/relu_conv1x1_1
I1103 23:48:17.872972 30931 net.cpp:425] fire8/relu_conv1x1_1 <- fire8/conv1x1_1
I1103 23:48:17.873021 30931 net.cpp:386] fire8/relu_conv1x1_1 -> fire8/conv1x1_1 (in-place)
I1103 23:48:17.873229 30931 net.cpp:141] Setting up fire8/relu_conv1x1_1
I1103 23:48:17.873278 30931 net.cpp:148] Top shape: 50 64 27 27 (2332800)
I1103 23:48:17.873322 30931 net.cpp:156] Memory required for data: 2224819000
I1103 23:48:17.873368 30931 layer_factory.hpp:77] Creating layer fire8/conv1x1_1_fire8/relu_conv1x1_1_0_split
I1103 23:48:17.873419 30931 net.cpp:91] Creating Layer fire8/conv1x1_1_fire8/relu_conv1x1_1_0_split
I1103 23:48:17.873466 30931 net.cpp:425] fire8/conv1x1_1_fire8/relu_conv1x1_1_0_split <- fire8/conv1x1_1
I1103 23:48:17.873545 30931 net.cpp:399] fire8/conv1x1_1_fire8/relu_conv1x1_1_0_split -> fire8/conv1x1_1_fire8/relu_conv1x1_1_0_split_0
I1103 23:48:17.873603 30931 net.cpp:399] fire8/conv1x1_1_fire8/relu_conv1x1_1_0_split -> fire8/conv1x1_1_fire8/relu_conv1x1_1_0_split_1
I1103 23:48:17.873693 30931 net.cpp:141] Setting up fire8/conv1x1_1_fire8/relu_conv1x1_1_0_split
I1103 23:48:17.873746 30931 net.cpp:148] Top shape: 50 64 27 27 (2332800)
I1103 23:48:17.873793 30931 net.cpp:148] Top shape: 50 64 27 27 (2332800)
I1103 23:48:17.873829 30931 net.cpp:156] Memory required for data: 2243481400
I1103 23:48:17.873865 30931 layer_factory.hpp:77] Creating layer fire8/conv1x1_2
I1103 23:48:17.873913 30931 net.cpp:91] Creating Layer fire8/conv1x1_2
I1103 23:48:17.873953 30931 net.cpp:425] fire8/conv1x1_2 <- fire8/conv1x1_1_fire8/relu_conv1x1_1_0_split_0
I1103 23:48:17.873996 30931 net.cpp:399] fire8/conv1x1_2 -> fire8/conv1x1_2
I1103 23:48:17.875193 30931 net.cpp:141] Setting up fire8/conv1x1_2
I1103 23:48:17.875257 30931 net.cpp:148] Top shape: 50 256 27 27 (9331200)
I1103 23:48:17.875299 30931 net.cpp:156] Memory required for data: 2280806200
I1103 23:48:17.875355 30931 layer_factory.hpp:77] Creating layer fire8/relu_conv1x1_2
I1103 23:48:17.875406 30931 net.cpp:91] Creating Layer fire8/relu_conv1x1_2
I1103 23:48:17.875453 30931 net.cpp:425] fire8/relu_conv1x1_2 <- fire8/conv1x1_2
I1103 23:48:17.875491 30931 net.cpp:386] fire8/relu_conv1x1_2 -> fire8/conv1x1_2 (in-place)
I1103 23:48:17.875697 30931 net.cpp:141] Setting up fire8/relu_conv1x1_2
I1103 23:48:17.875746 30931 net.cpp:148] Top shape: 50 256 27 27 (9331200)
I1103 23:48:17.875785 30931 net.cpp:156] Memory required for data: 2318131000
I1103 23:48:17.875831 30931 layer_factory.hpp:77] Creating layer fire8/conv3x3_2
I1103 23:48:17.875900 30931 net.cpp:91] Creating Layer fire8/conv3x3_2
I1103 23:48:17.875957 30931 net.cpp:425] fire8/conv3x3_2 <- fire8/conv1x1_1_fire8/relu_conv1x1_1_0_split_1
I1103 23:48:17.876003 30931 net.cpp:399] fire8/conv3x3_2 -> fire8/conv3x3_2
I1103 23:48:17.878523 30931 net.cpp:141] Setting up fire8/conv3x3_2
I1103 23:48:17.878571 30931 net.cpp:148] Top shape: 50 256 27 27 (9331200)
I1103 23:48:17.878615 30931 net.cpp:156] Memory required for data: 2355455800
I1103 23:48:17.878669 30931 layer_factory.hpp:77] Creating layer fire8/relu_conv3x3_2
I1103 23:48:17.878715 30931 net.cpp:91] Creating Layer fire8/relu_conv3x3_2
I1103 23:48:17.878760 30931 net.cpp:425] fire8/relu_conv3x3_2 <- fire8/conv3x3_2
I1103 23:48:17.878810 30931 net.cpp:386] fire8/relu_conv3x3_2 -> fire8/conv3x3_2 (in-place)
I1103 23:48:17.879226 30931 net.cpp:141] Setting up fire8/relu_conv3x3_2
I1103 23:48:17.879312 30931 net.cpp:148] Top shape: 50 256 27 27 (9331200)
I1103 23:48:17.879354 30931 net.cpp:156] Memory required for data: 2392780600
I1103 23:48:17.879400 30931 layer_factory.hpp:77] Creating layer fire8/concat
I1103 23:48:17.879449 30931 net.cpp:91] Creating Layer fire8/concat
I1103 23:48:17.879511 30931 net.cpp:425] fire8/concat <- fire8/conv1x1_2
I1103 23:48:17.879571 30931 net.cpp:425] fire8/concat <- fire8/conv3x3_2
I1103 23:48:17.879626 30931 net.cpp:399] fire8/concat -> fire8/concat
I1103 23:48:17.879703 30931 net.cpp:141] Setting up fire8/concat
I1103 23:48:17.879745 30931 net.cpp:148] Top shape: 50 512 27 27 (18662400)
I1103 23:48:17.879786 30931 net.cpp:156] Memory required for data: 2467430200
I1103 23:48:17.879834 30931 layer_factory.hpp:77] Creating layer pool8
I1103 23:48:17.879914 30931 net.cpp:91] Creating Layer pool8
I1103 23:48:17.879961 30931 net.cpp:425] pool8 <- fire8/concat
I1103 23:48:17.880012 30931 net.cpp:399] pool8 -> pool8
I1103 23:48:17.880103 30931 net.cpp:141] Setting up pool8
I1103 23:48:17.880151 30931 net.cpp:148] Top shape: 50 512 13 13 (4326400)
I1103 23:48:17.880193 30931 net.cpp:156] Memory required for data: 2484735800
I1103 23:48:17.880231 30931 layer_factory.hpp:77] Creating layer fire9/conv1x1_1
I1103 23:48:17.880281 30931 net.cpp:91] Creating Layer fire9/conv1x1_1
I1103 23:48:17.880326 30931 net.cpp:425] fire9/conv1x1_1 <- pool8
I1103 23:48:17.880414 30931 net.cpp:399] fire9/conv1x1_1 -> fire9/conv1x1_1
I1103 23:48:17.881745 30931 net.cpp:141] Setting up fire9/conv1x1_1
I1103 23:48:17.881789 30931 net.cpp:148] Top shape: 50 64 13 13 (540800)
I1103 23:48:17.881849 30931 net.cpp:156] Memory required for data: 2486899000
I1103 23:48:17.881907 30931 layer_factory.hpp:77] Creating layer fire9/relu_conv1x1_1
I1103 23:48:17.881965 30931 net.cpp:91] Creating Layer fire9/relu_conv1x1_1
I1103 23:48:17.882006 30931 net.cpp:425] fire9/relu_conv1x1_1 <- fire9/conv1x1_1
I1103 23:48:17.882050 30931 net.cpp:386] fire9/relu_conv1x1_1 -> fire9/conv1x1_1 (in-place)
I1103 23:48:17.882254 30931 net.cpp:141] Setting up fire9/relu_conv1x1_1
I1103 23:48:17.882304 30931 net.cpp:148] Top shape: 50 64 13 13 (540800)
I1103 23:48:17.882351 30931 net.cpp:156] Memory required for data: 2489062200
I1103 23:48:17.882396 30931 layer_factory.hpp:77] Creating layer fire9/conv1x1_1_fire9/relu_conv1x1_1_0_split
I1103 23:48:17.882443 30931 net.cpp:91] Creating Layer fire9/conv1x1_1_fire9/relu_conv1x1_1_0_split
I1103 23:48:17.882480 30931 net.cpp:425] fire9/conv1x1_1_fire9/relu_conv1x1_1_0_split <- fire9/conv1x1_1
I1103 23:48:17.882532 30931 net.cpp:399] fire9/conv1x1_1_fire9/relu_conv1x1_1_0_split -> fire9/conv1x1_1_fire9/relu_conv1x1_1_0_split_0
I1103 23:48:17.882580 30931 net.cpp:399] fire9/conv1x1_1_fire9/relu_conv1x1_1_0_split -> fire9/conv1x1_1_fire9/relu_conv1x1_1_0_split_1
I1103 23:48:17.882664 30931 net.cpp:141] Setting up fire9/conv1x1_1_fire9/relu_conv1x1_1_0_split
I1103 23:48:17.882714 30931 net.cpp:148] Top shape: 50 64 13 13 (540800)
I1103 23:48:17.882762 30931 net.cpp:148] Top shape: 50 64 13 13 (540800)
I1103 23:48:17.882802 30931 net.cpp:156] Memory required for data: 2493388600
I1103 23:48:17.882839 30931 layer_factory.hpp:77] Creating layer fire9/conv1x1_2
I1103 23:48:17.882887 30931 net.cpp:91] Creating Layer fire9/conv1x1_2
I1103 23:48:17.882927 30931 net.cpp:425] fire9/conv1x1_2 <- fire9/conv1x1_1_fire9/relu_conv1x1_1_0_split_0
I1103 23:48:17.882972 30931 net.cpp:399] fire9/conv1x1_2 -> fire9/conv1x1_2
I1103 23:48:17.884198 30931 net.cpp:141] Setting up fire9/conv1x1_2
I1103 23:48:17.884248 30931 net.cpp:148] Top shape: 50 256 13 13 (2163200)
I1103 23:48:17.884305 30931 net.cpp:156] Memory required for data: 2502041400
I1103 23:48:17.884348 30931 layer_factory.hpp:77] Creating layer fire9/relu_conv1x1_2
I1103 23:48:17.884399 30931 net.cpp:91] Creating Layer fire9/relu_conv1x1_2
I1103 23:48:17.884449 30931 net.cpp:425] fire9/relu_conv1x1_2 <- fire9/conv1x1_2
I1103 23:48:17.884505 30931 net.cpp:386] fire9/relu_conv1x1_2 -> fire9/conv1x1_2 (in-place)
I1103 23:48:17.884708 30931 net.cpp:141] Setting up fire9/relu_conv1x1_2
I1103 23:48:17.884749 30931 net.cpp:148] Top shape: 50 256 13 13 (2163200)
I1103 23:48:17.884786 30931 net.cpp:156] Memory required for data: 2510694200
I1103 23:48:17.884834 30931 layer_factory.hpp:77] Creating layer fire9/conv3x3_2
I1103 23:48:17.884879 30931 net.cpp:91] Creating Layer fire9/conv3x3_2
I1103 23:48:17.884923 30931 net.cpp:425] fire9/conv3x3_2 <- fire9/conv1x1_1_fire9/relu_conv1x1_1_0_split_1
I1103 23:48:17.884964 30931 net.cpp:399] fire9/conv3x3_2 -> fire9/conv3x3_2
I1103 23:48:17.887482 30931 net.cpp:141] Setting up fire9/conv3x3_2
I1103 23:48:17.887550 30931 net.cpp:148] Top shape: 50 256 13 13 (2163200)
I1103 23:48:17.887598 30931 net.cpp:156] Memory required for data: 2519347000
I1103 23:48:17.887651 30931 layer_factory.hpp:77] Creating layer fire9/relu_conv3x3_2
I1103 23:48:17.887703 30931 net.cpp:91] Creating Layer fire9/relu_conv3x3_2
I1103 23:48:17.887753 30931 net.cpp:425] fire9/relu_conv3x3_2 <- fire9/conv3x3_2
I1103 23:48:17.887799 30931 net.cpp:386] fire9/relu_conv3x3_2 -> fire9/conv3x3_2 (in-place)
I1103 23:48:17.888242 30931 net.cpp:141] Setting up fire9/relu_conv3x3_2
I1103 23:48:17.888332 30931 net.cpp:148] Top shape: 50 256 13 13 (2163200)
I1103 23:48:17.888370 30931 net.cpp:156] Memory required for data: 2527999800
I1103 23:48:17.888419 30931 layer_factory.hpp:77] Creating layer fire9/concat
I1103 23:48:17.888499 30931 net.cpp:91] Creating Layer fire9/concat
I1103 23:48:17.888552 30931 net.cpp:425] fire9/concat <- fire9/conv1x1_2
I1103 23:48:17.888600 30931 net.cpp:425] fire9/concat <- fire9/conv3x3_2
I1103 23:48:17.888649 30931 net.cpp:399] fire9/concat -> fire9/concat
I1103 23:48:17.888717 30931 net.cpp:141] Setting up fire9/concat
I1103 23:48:17.888754 30931 net.cpp:148] Top shape: 50 512 13 13 (4326400)
I1103 23:48:17.888794 30931 net.cpp:156] Memory required for data: 2545305400
I1103 23:48:17.888839 30931 layer_factory.hpp:77] Creating layer drop9
I1103 23:48:17.888887 30931 net.cpp:91] Creating Layer drop9
I1103 23:48:17.888922 30931 net.cpp:425] drop9 <- fire9/concat
I1103 23:48:17.888970 30931 net.cpp:386] drop9 -> fire9/concat (in-place)
I1103 23:48:17.889031 30931 net.cpp:141] Setting up drop9
I1103 23:48:17.889077 30931 net.cpp:148] Top shape: 50 512 13 13 (4326400)
I1103 23:48:17.889118 30931 net.cpp:156] Memory required for data: 2562611000
I1103 23:48:17.889158 30931 layer_factory.hpp:77] Creating layer conv_final
I1103 23:48:17.889206 30931 net.cpp:91] Creating Layer conv_final
I1103 23:48:17.889250 30931 net.cpp:425] conv_final <- fire9/concat
I1103 23:48:17.889292 30931 net.cpp:399] conv_final -> conv_final
I1103 23:48:17.903934 30931 net.cpp:141] Setting up conv_final
I1103 23:48:17.904023 30931 net.cpp:148] Top shape: 50 1000 15 15 (11250000)
I1103 23:48:17.904072 30931 net.cpp:156] Memory required for data: 2607611000
I1103 23:48:17.904120 30931 layer_factory.hpp:77] Creating layer relu_conv_final
I1103 23:48:17.904175 30931 net.cpp:91] Creating Layer relu_conv_final
I1103 23:48:17.904227 30931 net.cpp:425] relu_conv_final <- conv_final
I1103 23:48:17.904283 30931 net.cpp:386] relu_conv_final -> conv_final (in-place)
I1103 23:48:17.904495 30931 net.cpp:141] Setting up relu_conv_final
I1103 23:48:17.904541 30931 net.cpp:148] Top shape: 50 1000 15 15 (11250000)
I1103 23:48:17.904583 30931 net.cpp:156] Memory required for data: 2652611000
I1103 23:48:17.904628 30931 layer_factory.hpp:77] Creating layer pool_final
I1103 23:48:17.904680 30931 net.cpp:91] Creating Layer pool_final
I1103 23:48:17.904724 30931 net.cpp:425] pool_final <- conv_final
I1103 23:48:17.904770 30931 net.cpp:399] pool_final -> pool_final
I1103 23:48:17.905220 30931 net.cpp:141] Setting up pool_final
I1103 23:48:17.905306 30931 net.cpp:148] Top shape: 50 1000 1 1 (50000)
I1103 23:48:17.905362 30931 net.cpp:156] Memory required for data: 2652811000
I1103 23:48:17.905408 30931 layer_factory.hpp:77] Creating layer pool_final_pool_final_0_split
I1103 23:48:17.905455 30931 net.cpp:91] Creating Layer pool_final_pool_final_0_split
I1103 23:48:17.905498 30931 net.cpp:425] pool_final_pool_final_0_split <- pool_final
I1103 23:48:17.905545 30931 net.cpp:399] pool_final_pool_final_0_split -> pool_final_pool_final_0_split_0
I1103 23:48:17.905596 30931 net.cpp:399] pool_final_pool_final_0_split -> pool_final_pool_final_0_split_1
I1103 23:48:17.905637 30931 net.cpp:399] pool_final_pool_final_0_split -> pool_final_pool_final_0_split_2
I1103 23:48:17.905741 30931 net.cpp:141] Setting up pool_final_pool_final_0_split
I1103 23:48:17.905789 30931 net.cpp:148] Top shape: 50 1000 1 1 (50000)
I1103 23:48:17.905833 30931 net.cpp:148] Top shape: 50 1000 1 1 (50000)
I1103 23:48:17.905886 30931 net.cpp:148] Top shape: 50 1000 1 1 (50000)
I1103 23:48:17.905925 30931 net.cpp:156] Memory required for data: 2653411000
I1103 23:48:17.905961 30931 layer_factory.hpp:77] Creating layer loss
I1103 23:48:17.906015 30931 net.cpp:91] Creating Layer loss
I1103 23:48:17.906059 30931 net.cpp:425] loss <- pool_final_pool_final_0_split_0
I1103 23:48:17.906105 30931 net.cpp:425] loss <- label_data_1_split_0
I1103 23:48:17.906162 30931 net.cpp:399] loss -> loss
…
