…
I1103 23:16:47.104499 30166 net.cpp:313] The NetState phase (1) differed from the phase (0) specified by a rule in layer data
I1103 23:16:47.104712 30166 net.cpp:49] Initializing net from parameters: 
name: "AlexNet"
state {
  phase: TEST
}
layer {
  name: "data"
  type: "Data"
  top: "data"
  top: "label"
  include {
    phase: TEST
  }
  transform_param {
    mirror: false
    crop_size: 227
    mean_file: "/ssd/dataset/imagenet_mean.binaryproto"
  }
  data_param {
    source: "/ssd/dataset/ilsvrc12_val_lmdb"
    batch_size: 50
    backend: LMDB
  }
}
layer {
  name: "conv1"
  type: "Convolution"
  bottom: "data"
  top: "conv1"
  param {
    lr_mult: 1
    decay_mult: 1
  }
  param {
    lr_mult: 2
    decay_mult: 0
  }
  convolution_param {
    num_output: 96
    kernel_size: 11
    stride: 4
    weight_filler {
      type: "gaussian"
      std: 0.01
    }
    bias_filler {
      type: "constant"
      value: 0
    }
  }
}
layer {
  name: "relu1"
  type: "ReLU"
  bottom: "conv1"
  top: "conv1"
}
layer {
  name: "norm1"
  type: "LRN"
  bottom: "conv1"
  top: "norm1"
  lrn_param {
    local_size: 5
    alpha: 0.0001
    beta: 0.75
  }
}
layer {
  name: "pool1"
  type: "Pooling"
  bottom: "norm1"
  top: "pool1"
  pooling_param {
    pool: MAX
    kernel_size: 3
    stride: 2
  }
}
layer {
  name: "conv2"
  type: "Convolution"
  bottom: "pool1"
  top: "conv2"
  param {
    lr_mult: 1
    decay_mult: 1
  }
  param {
    lr_mult: 2
    decay_mult: 0
  }
  convolution_param {
    num_output: 256
    pad: 2
    kernel_size: 5
    group: 2
    weight_filler {
      type: "gaussian"
      std: 0.01
    }
    bias_filler {
      type: "constant"
      value: 0.1
    }
  }
}
layer {
  name: "relu2"
  type: "ReLU"
  bottom: "conv2"
  top: "conv2"
}
layer {
  name: "norm2"
  type: "LRN"
  bottom: "conv2"
  top: "norm2"
  lrn_param {
    local_size: 5
    alpha: 0.0001
    beta: 0.75
  }
}
layer {
  name: "pool2"
  type: "Pooling"
  bottom: "norm2"
  top: "pool2"
  pooling_param {
    pool: MAX
    kernel_size: 3
    stride: 2
  }
}
layer {
  name: "conv3"
  type: "Convolution"
  bottom: "pool2"
  top: "conv3"
  param {
    lr_mult: 1
    decay_mult: 1
  }
  param {
    lr_mult: 2
    decay_mult: 0
  }
  convolution_param {
    num_output: 384
    pad: 1
    kernel_size: 3
    weight_filler {
      type: "gaussian"
      std: 0.01
    }
    bias_filler {
      type: "constant"
      value: 0
    }
  }
}
layer {
  name: "relu3"
  type: "ReLU"
  bottom: "conv3"
  top: "conv3"
}
layer {
  name: "conv4"
  type: "Convolution"
  bottom: "conv3"
  top: "conv4"
  param {
    lr_mult: 1
    decay_mult: 1
  }
  param {
    lr_mult: 2
    decay_mult: 0
  }
  convolution_param {
    num_output: 384
    pad: 1
    kernel_size: 3
    group: 2
    weight_filler {
      type: "gaussian"
      std: 0.01
    }
    bias_filler {
      type: "constant"
      value: 0.1
    }
  }
}
layer {
  name: "relu4"
  type: "ReLU"
  bottom: "conv4"
  top: "conv4"
}
layer {
  name: "conv5"
  type: "Convolution"
  bottom: "conv4"
  top: "conv5"
  param {
    lr_mult: 1
    decay_mult: 1
  }
  param {
    lr_mult: 2
    decay_mult: 0
  }
  convolution_param {
    num_output: 256
    pad: 1
    kernel_size: 3
    group: 2
    weight_filler {
      type: "gaussian"
      std: 0.01
    }
    bias_filler {
      type: "constant"
      value: 0.1
    }
  }
}
layer {
  name: "relu5"
  type: "ReLU"
  bottom: "conv5"
  top: "conv5"
}
layer {
  name: "pool5"
  type: "Pooling"
  bottom: "conv5"
  top: "pool5"
  pooling_param {
    pool: MAX
    kernel_size: 3
    stride: 2
  }
}
layer {
  name: "fc6"
  type: "InnerProduct"
  bottom: "pool5"
  top: "fc6"
  param {
    lr_mult: 1
    decay_mult: 1
  }
  param {
    lr_mult: 2
    decay_mult: 0
  }
  inner_product_param {
    num_output: 4096
    weight_filler {
      type: "gaussian"
      std: 0.005
    }
    bias_filler {
      type: "constant"
      value: 0.1
    }
  }
}
layer {
  name: "relu6"
  type: "ReLU"
  bottom: "fc6"
  top: "fc6"
}
layer {
  name: "drop6"
  type: "Dropout"
  bottom: "fc6"
  top: "fc6"
  dropout_param {
    dropout_ratio: 0.5
  }
}
layer {
  name: "fc7"
  type: "InnerProduct"
  bottom: "fc6"
  top: "fc7"
  param {
    lr_mult: 1
    decay_mult: 1
  }
  param {
    lr_mult: 2
    decay_mult: 0
  }
  inner_product_param {
    num_output: 4096
    weight_filler {
      type: "gaussian"
      std: 0.005
    }
    bias_filler {
      type: "constant"
      value: 0.1
    }
  }
}
layer {
  name: "relu7"
  type: "ReLU"
  bottom: "fc7"
  top: "fc7"
}
layer {
  name: "drop7"
  type: "Dropout"
  bottom: "fc7"
  top: "fc7"
  dropout_param {
    dropout_ratio: 0.5
  }
}
layer {
  name: "fc8"
  type: "InnerProduct"
  bottom: "fc7"
  top: "fc8"
  param {
    lr_mult: 1
    decay_mult: 1
  }
  param {
    lr_mult: 2
    decay_mult: 0
  }
  inner_product_param {
    num_output: 1000
    weight_filler {
      type: "gaussian"
      std: 0.01
    }
    bias_filler {
      type: "constant"
      value: 0
    }
  }
}
layer {
  name: "accuracy_top1"
  type: "Accuracy"
  bottom: "fc8"
  bottom: "label"
  top: "accuracy_top1"
}
layer {
  name: "accuracy_top5"
  type: "Accuracy"
  bottom: "fc8"
  bottom: "label"
  top: "accuracy_top5"
  accuracy_param {
    top_k: 5
  }
}
layer {
  name: "loss"
  type: "SoftmaxWithLoss"
  bottom: "fc8"
  bottom: "label"
  top: "loss"
}
I1103 23:16:47.104943 30166 layer_factory.hpp:77] Creating layer data
I1103 23:16:47.105433 30166 net.cpp:91] Creating Layer data
I1103 23:16:47.105492 30166 net.cpp:399] data -> data
I1103 23:16:47.105558 30166 net.cpp:399] data -> label
I1103 23:16:47.105628 30166 data_transformer.cpp:25] Loading mean file from: /ssd/dataset/imagenet_mean.binaryproto
I1103 23:16:47.106618 30171 db_lmdb.cpp:35] Opened lmdb /ssd/dataset/ilsvrc12_val_lmdb
I1103 23:16:47.115499 30166 data_layer.cpp:41] output data size: 50,3,227,227
I1103 23:16:47.259485 30166 net.cpp:141] Setting up data
I1103 23:16:47.259644 30166 net.cpp:148] Top shape: 50 3 227 227 (7729350)
I1103 23:16:47.259727 30166 net.cpp:148] Top shape: 50 (50)
I1103 23:16:47.259791 30166 net.cpp:156] Memory required for data: 30917600
I1103 23:16:47.259904 30166 layer_factory.hpp:77] Creating layer label_data_1_split
I1103 23:16:47.260004 30166 net.cpp:91] Creating Layer label_data_1_split
I1103 23:16:47.260078 30166 net.cpp:425] label_data_1_split <- label
I1103 23:16:47.260157 30166 net.cpp:399] label_data_1_split -> label_data_1_split_0
I1103 23:16:47.260236 30166 net.cpp:399] label_data_1_split -> label_data_1_split_1
I1103 23:16:47.260319 30166 net.cpp:399] label_data_1_split -> label_data_1_split_2
I1103 23:16:47.260470 30166 net.cpp:141] Setting up label_data_1_split
I1103 23:16:47.260562 30166 net.cpp:148] Top shape: 50 (50)
I1103 23:16:47.260649 30166 net.cpp:148] Top shape: 50 (50)
I1103 23:16:47.260715 30166 net.cpp:148] Top shape: 50 (50)
I1103 23:16:47.260794 30166 net.cpp:156] Memory required for data: 30918200
I1103 23:16:47.260876 30166 layer_factory.hpp:77] Creating layer conv1
I1103 23:16:47.260995 30166 net.cpp:91] Creating Layer conv1
I1103 23:16:47.261093 30166 net.cpp:425] conv1 <- data
I1103 23:16:47.261190 30166 net.cpp:399] conv1 -> conv1
I1103 23:16:47.998520 30166 net.cpp:141] Setting up conv1
I1103 23:16:47.998615 30166 net.cpp:148] Top shape: 50 96 55 55 (14520000)
I1103 23:16:47.998661 30166 net.cpp:156] Memory required for data: 88998200
I1103 23:16:47.998754 30166 layer_factory.hpp:77] Creating layer relu1
I1103 23:16:47.998805 30166 net.cpp:91] Creating Layer relu1
I1103 23:16:47.998848 30166 net.cpp:425] relu1 <- conv1
I1103 23:16:47.998894 30166 net.cpp:386] relu1 -> conv1 (in-place)
I1103 23:16:47.999387 30166 net.cpp:141] Setting up relu1
I1103 23:16:47.999460 30166 net.cpp:148] Top shape: 50 96 55 55 (14520000)
I1103 23:16:47.999511 30166 net.cpp:156] Memory required for data: 147078200
I1103 23:16:47.999559 30166 layer_factory.hpp:77] Creating layer norm1
I1103 23:16:47.999617 30166 net.cpp:91] Creating Layer norm1
I1103 23:16:47.999657 30166 net.cpp:425] norm1 <- conv1
I1103 23:16:47.999737 30166 net.cpp:399] norm1 -> norm1
I1103 23:16:48.000058 30166 net.cpp:141] Setting up norm1
I1103 23:16:48.000135 30166 net.cpp:148] Top shape: 50 96 55 55 (14520000)
I1103 23:16:48.000186 30166 net.cpp:156] Memory required for data: 205158200
I1103 23:16:48.000231 30166 layer_factory.hpp:77] Creating layer pool1
I1103 23:16:48.000283 30166 net.cpp:91] Creating Layer pool1
I1103 23:16:48.000334 30166 net.cpp:425] pool1 <- norm1
I1103 23:16:48.000381 30166 net.cpp:399] pool1 -> pool1
I1103 23:16:48.000463 30166 net.cpp:141] Setting up pool1
I1103 23:16:48.000509 30166 net.cpp:148] Top shape: 50 96 27 27 (3499200)
I1103 23:16:48.000552 30166 net.cpp:156] Memory required for data: 219155000
I1103 23:16:48.000593 30166 layer_factory.hpp:77] Creating layer conv2
I1103 23:16:48.000659 30166 net.cpp:91] Creating Layer conv2
I1103 23:16:48.000702 30166 net.cpp:425] conv2 <- pool1
I1103 23:16:48.000751 30166 net.cpp:399] conv2 -> conv2
I1103 23:16:48.015250 30166 net.cpp:141] Setting up conv2
I1103 23:16:48.015355 30166 net.cpp:148] Top shape: 50 256 27 27 (9331200)
I1103 23:16:48.015421 30166 net.cpp:156] Memory required for data: 256479800
I1103 23:16:48.015492 30166 layer_factory.hpp:77] Creating layer relu2
I1103 23:16:48.015588 30166 net.cpp:91] Creating Layer relu2
I1103 23:16:48.015653 30166 net.cpp:425] relu2 <- conv2
I1103 23:16:48.015720 30166 net.cpp:386] relu2 -> conv2 (in-place)
I1103 23:16:48.016048 30166 net.cpp:141] Setting up relu2
I1103 23:16:48.016119 30166 net.cpp:148] Top shape: 50 256 27 27 (9331200)
I1103 23:16:48.016172 30166 net.cpp:156] Memory required for data: 293804600
I1103 23:16:48.016225 30166 layer_factory.hpp:77] Creating layer norm2
I1103 23:16:48.016304 30166 net.cpp:91] Creating Layer norm2
I1103 23:16:48.016358 30166 net.cpp:425] norm2 <- conv2
I1103 23:16:48.016438 30166 net.cpp:399] norm2 -> norm2
I1103 23:16:48.017009 30166 net.cpp:141] Setting up norm2
I1103 23:16:48.017078 30166 net.cpp:148] Top shape: 50 256 27 27 (9331200)
I1103 23:16:48.017128 30166 net.cpp:156] Memory required for data: 331129400
I1103 23:16:48.017190 30166 layer_factory.hpp:77] Creating layer pool2
I1103 23:16:48.017257 30166 net.cpp:91] Creating Layer pool2
I1103 23:16:48.017318 30166 net.cpp:425] pool2 <- norm2
I1103 23:16:48.017377 30166 net.cpp:399] pool2 -> pool2
I1103 23:16:48.017464 30166 net.cpp:141] Setting up pool2
I1103 23:16:48.017526 30166 net.cpp:148] Top shape: 50 256 13 13 (2163200)
I1103 23:16:48.017587 30166 net.cpp:156] Memory required for data: 339782200
I1103 23:16:48.017657 30166 layer_factory.hpp:77] Creating layer conv3
I1103 23:16:48.017727 30166 net.cpp:91] Creating Layer conv3
I1103 23:16:48.017796 30166 net.cpp:425] conv3 <- pool2
I1103 23:16:48.017860 30166 net.cpp:399] conv3 -> conv3
I1103 23:16:48.044962 30166 net.cpp:141] Setting up conv3
I1103 23:16:48.045047 30166 net.cpp:148] Top shape: 50 384 13 13 (3244800)
I1103 23:16:48.045104 30166 net.cpp:156] Memory required for data: 352761400
I1103 23:16:48.045156 30166 layer_factory.hpp:77] Creating layer relu3
I1103 23:16:48.045218 30166 net.cpp:91] Creating Layer relu3
I1103 23:16:48.045260 30166 net.cpp:425] relu3 <- conv3
I1103 23:16:48.045300 30166 net.cpp:386] relu3 -> conv3 (in-place)
I1103 23:16:48.045486 30166 net.cpp:141] Setting up relu3
I1103 23:16:48.045552 30166 net.cpp:148] Top shape: 50 384 13 13 (3244800)
I1103 23:16:48.045605 30166 net.cpp:156] Memory required for data: 365740600
I1103 23:16:48.045661 30166 layer_factory.hpp:77] Creating layer conv4
I1103 23:16:48.045718 30166 net.cpp:91] Creating Layer conv4
I1103 23:16:48.045766 30166 net.cpp:425] conv4 <- conv3
I1103 23:16:48.045814 30166 net.cpp:399] conv4 -> conv4
I1103 23:16:48.065690 30166 net.cpp:141] Setting up conv4
I1103 23:16:48.065779 30166 net.cpp:148] Top shape: 50 384 13 13 (3244800)
I1103 23:16:48.065834 30166 net.cpp:156] Memory required for data: 378719800
I1103 23:16:48.065888 30166 layer_factory.hpp:77] Creating layer relu4
I1103 23:16:48.065938 30166 net.cpp:91] Creating Layer relu4
I1103 23:16:48.065984 30166 net.cpp:425] relu4 <- conv4
I1103 23:16:48.066082 30166 net.cpp:386] relu4 -> conv4 (in-place)
I1103 23:16:48.066326 30166 net.cpp:141] Setting up relu4
I1103 23:16:48.066378 30166 net.cpp:148] Top shape: 50 384 13 13 (3244800)
I1103 23:16:48.066419 30166 net.cpp:156] Memory required for data: 391699000
I1103 23:16:48.066459 30166 layer_factory.hpp:77] Creating layer conv5
I1103 23:16:48.066509 30166 net.cpp:91] Creating Layer conv5
I1103 23:16:48.066545 30166 net.cpp:425] conv5 <- conv4
I1103 23:16:48.066604 30166 net.cpp:399] conv5 -> conv5
I1103 23:16:48.082177 30166 net.cpp:141] Setting up conv5
I1103 23:16:48.082263 30166 net.cpp:148] Top shape: 50 256 13 13 (2163200)
I1103 23:16:48.082316 30166 net.cpp:156] Memory required for data: 400351800
I1103 23:16:48.082371 30166 layer_factory.hpp:77] Creating layer relu5
I1103 23:16:48.082429 30166 net.cpp:91] Creating Layer relu5
I1103 23:16:48.082482 30166 net.cpp:425] relu5 <- conv5
I1103 23:16:48.082546 30166 net.cpp:386] relu5 -> conv5 (in-place)
I1103 23:16:48.082960 30166 net.cpp:141] Setting up relu5
I1103 23:16:48.083039 30166 net.cpp:148] Top shape: 50 256 13 13 (2163200)
I1103 23:16:48.083103 30166 net.cpp:156] Memory required for data: 409004600
I1103 23:16:48.083140 30166 layer_factory.hpp:77] Creating layer pool5
I1103 23:16:48.083187 30166 net.cpp:91] Creating Layer pool5
I1103 23:16:48.083227 30166 net.cpp:425] pool5 <- conv5
I1103 23:16:48.083271 30166 net.cpp:399] pool5 -> pool5
I1103 23:16:48.083355 30166 net.cpp:141] Setting up pool5
I1103 23:16:48.083400 30166 net.cpp:148] Top shape: 50 256 6 6 (460800)
I1103 23:16:48.083443 30166 net.cpp:156] Memory required for data: 410847800
I1103 23:16:48.083482 30166 layer_factory.hpp:77] Creating layer fc6
I1103 23:16:48.083529 30166 net.cpp:91] Creating Layer fc6
I1103 23:16:48.083569 30166 net.cpp:425] fc6 <- pool5
I1103 23:16:48.083611 30166 net.cpp:399] fc6 -> fc6
I1103 23:16:49.084458 30166 net.cpp:141] Setting up fc6
I1103 23:16:49.084537 30166 net.cpp:148] Top shape: 50 4096 (204800)
I1103 23:16:49.084586 30166 net.cpp:156] Memory required for data: 411667000
I1103 23:16:49.084643 30166 layer_factory.hpp:77] Creating layer relu6
I1103 23:16:49.084702 30166 net.cpp:91] Creating Layer relu6
I1103 23:16:49.084750 30166 net.cpp:425] relu6 <- fc6
I1103 23:16:49.084794 30166 net.cpp:386] relu6 -> fc6 (in-place)
I1103 23:16:49.085017 30166 net.cpp:141] Setting up relu6
I1103 23:16:49.085062 30166 net.cpp:148] Top shape: 50 4096 (204800)
I1103 23:16:49.085111 30166 net.cpp:156] Memory required for data: 412486200
I1103 23:16:49.085161 30166 layer_factory.hpp:77] Creating layer drop6
I1103 23:16:49.085211 30166 net.cpp:91] Creating Layer drop6
I1103 23:16:49.085253 30166 net.cpp:425] drop6 <- fc6
I1103 23:16:49.085286 30166 net.cpp:386] drop6 -> fc6 (in-place)
I1103 23:16:49.085362 30166 net.cpp:141] Setting up drop6
I1103 23:16:49.085402 30166 net.cpp:148] Top shape: 50 4096 (204800)
I1103 23:16:49.085445 30166 net.cpp:156] Memory required for data: 413305400
I1103 23:16:49.085490 30166 layer_factory.hpp:77] Creating layer fc7
I1103 23:16:49.085541 30166 net.cpp:91] Creating Layer fc7
I1103 23:16:49.085580 30166 net.cpp:425] fc7 <- fc6
I1103 23:16:49.085615 30166 net.cpp:399] fc7 -> fc7
I1103 23:16:49.516227 30166 net.cpp:141] Setting up fc7
I1103 23:16:49.516309 30166 net.cpp:148] Top shape: 50 4096 (204800)
I1103 23:16:49.516350 30166 net.cpp:156] Memory required for data: 414124600
I1103 23:16:49.516389 30166 layer_factory.hpp:77] Creating layer relu7
I1103 23:16:49.516435 30166 net.cpp:91] Creating Layer relu7
I1103 23:16:49.516476 30166 net.cpp:425] relu7 <- fc7
I1103 23:16:49.516522 30166 net.cpp:386] relu7 -> fc7 (in-place)
I1103 23:16:49.517041 30166 net.cpp:141] Setting up relu7
I1103 23:16:49.517094 30166 net.cpp:148] Top shape: 50 4096 (204800)
I1103 23:16:49.517129 30166 net.cpp:156] Memory required for data: 414943800
I1103 23:16:49.517170 30166 layer_factory.hpp:77] Creating layer drop7
I1103 23:16:49.517213 30166 net.cpp:91] Creating Layer drop7
I1103 23:16:49.517254 30166 net.cpp:425] drop7 <- fc7
I1103 23:16:49.517325 30166 net.cpp:386] drop7 -> fc7 (in-place)
I1103 23:16:49.517415 30166 net.cpp:141] Setting up drop7
I1103 23:16:49.517455 30166 net.cpp:148] Top shape: 50 4096 (204800)
I1103 23:16:49.517496 30166 net.cpp:156] Memory required for data: 415763000
I1103 23:16:49.517541 30166 layer_factory.hpp:77] Creating layer fc8
I1103 23:16:49.517588 30166 net.cpp:91] Creating Layer fc8
I1103 23:16:49.517622 30166 net.cpp:425] fc8 <- fc7
I1103 23:16:49.517664 30166 net.cpp:399] fc8 -> fc8
I1103 23:16:49.620605 30166 net.cpp:141] Setting up fc8
I1103 23:16:49.620681 30166 net.cpp:148] Top shape: 50 1000 (50000)
I1103 23:16:49.620731 30166 net.cpp:156] Memory required for data: 415963000
I1103 23:16:49.620784 30166 layer_factory.hpp:77] Creating layer fc8_fc8_0_split
I1103 23:16:49.620839 30166 net.cpp:91] Creating Layer fc8_fc8_0_split
I1103 23:16:49.620883 30166 net.cpp:425] fc8_fc8_0_split <- fc8
I1103 23:16:49.620941 30166 net.cpp:399] fc8_fc8_0_split -> fc8_fc8_0_split_0
I1103 23:16:49.620993 30166 net.cpp:399] fc8_fc8_0_split -> fc8_fc8_0_split_1
I1103 23:16:49.621040 30166 net.cpp:399] fc8_fc8_0_split -> fc8_fc8_0_split_2
I1103 23:16:49.621130 30166 net.cpp:141] Setting up fc8_fc8_0_split
I1103 23:16:49.621187 30166 net.cpp:148] Top shape: 50 1000 (50000)
I1103 23:16:49.621237 30166 net.cpp:148] Top shape: 50 1000 (50000)
I1103 23:16:49.621280 30166 net.cpp:148] Top shape: 50 1000 (50000)
I1103 23:16:49.621320 30166 net.cpp:156] Memory required for data: 416563000
I1103 23:16:49.621372 30166 layer_factory.hpp:77] Creating layer accuracy_top1
I1103 23:16:49.621421 30166 net.cpp:91] Creating Layer accuracy_top1
I1103 23:16:49.621462 30166 net.cpp:425] accuracy_top1 <- fc8_fc8_0_split_0
I1103 23:16:49.621500 30166 net.cpp:425] accuracy_top1 <- label_data_1_split_0
I1103 23:16:49.621541 30166 net.cpp:399] accuracy_top1 -> accuracy_top1
…
