…
I1103 23:16:06.725057 30147 net.cpp:313] The NetState phase (1) differed from the phase (0) specified by a rule in layer data
I1103 23:16:06.726001 30147 net.cpp:49] Initializing net from parameters: 
name: "GoogleNet"
state {
  phase: TEST
}
layer {
  name: "data"
  type: "Data"
  top: "data"
  top: "label"
  include {
    phase: TEST
  }
  transform_param {
    mirror: false
    crop_size: 224
    mean_value: 104
    mean_value: 117
    mean_value: 123
  }
  data_param {
    source: "/ssd/dataset/ilsvrc12_val_lmdb"
    batch_size: 50
    backend: LMDB
  }
}
layer {
  name: "conv1/7x7_s2"
  type: "Convolution"
  bottom: "data"
  top: "conv1/7x7_s2"
  param {
    lr_mult: 1
    decay_mult: 1
  }
  param {
    lr_mult: 2
    decay_mult: 0
  }
  convolution_param {
    num_output: 64
    pad: 3
    kernel_size: 7
    stride: 2
    weight_filler {
      type: "xavier"
      std: 0.1
    }
    bias_filler {
      type: "constant"
      value: 0.2
    }
  }
}
layer {
  name: "conv1/relu_7x7"
  type: "ReLU"
  bottom: "conv1/7x7_s2"
  top: "conv1/7x7_s2"
}
layer {
  name: "pool1/3x3_s2"
  type: "Pooling"
  bottom: "conv1/7x7_s2"
  top: "pool1/3x3_s2"
  pooling_param {
    pool: MAX
    kernel_size: 3
    stride: 2
  }
}
layer {
  name: "pool1/norm1"
  type: "LRN"
  bottom: "pool1/3x3_s2"
  top: "pool1/norm1"
  lrn_param {
    local_size: 5
    alpha: 0.0001
    beta: 0.75
  }
}
layer {
  name: "conv2/3x3_reduce"
  type: "Convolution"
  bottom: "pool1/norm1"
  top: "conv2/3x3_reduce"
  param {
    lr_mult: 1
    decay_mult: 1
  }
  param {
    lr_mult: 2
    decay_mult: 0
  }
  convolution_param {
    num_output: 64
    kernel_size: 1
    weight_filler {
      type: "xavier"
      std: 0.1
    }
    bias_filler {
      type: "constant"
      value: 0.2
    }
  }
}
layer {
  name: "conv2/relu_3x3_reduce"
  type: "ReLU"
  bottom: "conv2/3x3_reduce"
  top: "conv2/3x3_reduce"
}
layer {
  name: "conv2/3x3"
  type: "Convolution"
  bottom: "conv2/3x3_reduce"
  top: "conv2/3x3"
  param {
    lr_mult: 1
    decay_mult: 1
  }
  param {
    lr_mult: 2
    decay_mult: 0
  }
  convolution_param {
    num_output: 192
    pad: 1
    kernel_size: 3
    weight_filler {
      type: "xavier"
      std: 0.03
    }
    bias_filler {
      type: "constant"
      value: 0.2
    }
  }
}
layer {
  name: "conv2/relu_3x3"
  type: "ReLU"
  bottom: "conv2/3x3"
  top: "conv2/3x3"
}
layer {
  name: "conv2/norm2"
  type: "LRN"
  bottom: "conv2/3x3"
  top: "conv2/norm2"
  lrn_param {
    local_size: 5
    alpha: 0.0001
    beta: 0.75
  }
}
layer {
  name: "pool2/3x3_s2"
  type: "Pooling"
  bottom: "conv2/norm2"
  top: "pool2/3x3_s2"
  pooling_param {
    pool: MAX
    kernel_size: 3
    stride: 2
  }
}
layer {
  name: "inception_3a/1x1"
  type: "Convolution"
  bottom: "pool2/3x3_s2"
  top: "inception_3a/1x1"
  param {
    lr_mult: 1
    decay_mult: 1
  }
  param {
    lr_mult: 2
    decay_mult: 0
  }
  convolution_param {
    num_output: 64
    kernel_size: 1
    weight_filler {
      type: "xavier"
      std: 0.03
    }
    bias_filler {
      type: "constant"
      value: 0.2
    }
  }
}
layer {
  name: "inception_3a/relu_1x1"
  type: "ReLU"
  bottom: "inception_3a/1x1"
  top: "inception_3a/1x1"
}
layer {
  name: "inception_3a/3x3_reduce"
  type: "Convolution"
  bottom: "pool2/3x3_s2"
  top: "inception_3a/3x3_reduce"
  param {
    lr_mult: 1
    decay_mult: 1
  }
  param {
    lr_mult: 2
    decay_mult: 0
  }
  convolution_param {
    num_output: 96
    kernel_size: 1
    weight_filler {
      type: "xavier"
      std: 0.09
    }
    bias_filler {
      type: "constant"
      value: 0.2
    }
  }
}
layer {
  name: "inception_3a/relu_3x3_reduce"
  type: "ReLU"
  bottom: "inception_3a/3x3_reduce"
  top: "inception_3a/3x3_reduce"
}
layer {
  name: "inception_3a/3x3"
  type: "Convolution"
  bottom: "inception_3a/3x3_reduce"
  top: "inception_3a/3x3"
  param {
    lr_mult: 1
    decay_mult: 1
  }
  param {
    lr_mult: 2
    decay_mult: 0
  }
  convolution_param {
    num_output: 128
    pad: 1
    kernel_size: 3
    weight_filler {
      type: "xavier"
      std: 0.03
    }
    bias_filler {
      type: "constant"
      value: 0.2
    }
  }
}
layer {
  name: "inception_3a/relu_3x3"
  type: "ReLU"
  bottom: "inception_3a/3x3"
  top: "inception_3a/3x3"
}
layer {
  name: "inception_3a/5x5_reduce"
  type: "Convolution"
  bottom: "pool2/3x3_s2"
  top: "inception_3a/5x5_reduce"
  param {
    lr_mult: 1
    decay_mult: 1
  }
  param {
    lr_mult: 2
    decay_mult: 0
  }
  convolution_param {
    num_output: 16
    kernel_size: 1
    weight_filler {
      type: "xavier"
      std: 0.2
    }
    bias_filler {
      type: "constant"
      value: 0.2
    }
  }
}
layer {
  name: "inception_3a/relu_5x5_reduce"
  type: "ReLU"
  bottom: "inception_3a/5x5_reduce"
  top: "inception_3a/5x5_reduce"
}
layer {
  name: "inception_3a/5x5"
  type: "Convolution"
  bottom: "inception_3a/5x5_reduce"
  top: "inception_3a/5x5"
  param {
    lr_mult: 1
    decay_mult: 1
  }
  param {
    lr_mult: 2
    decay_mult: 0
  }
  convolution_param {
    num_output: 32
    pad: 2
    kernel_size: 5
    weight_filler {
      type: "xavier"
      std: 0.03
    }
    bias_filler {
      type: "constant"
      value: 0.2
    }
  }
}
layer {
  name: "inception_3a/relu_5x5"
  type: "ReLU"
  bottom: "inception_3a/5x5"
  top: "inception_3a/5x5"
}
layer {
  name: "inception_3a/pool"
  type: "Pooling"
  bottom: "pool2/3x3_s2"
  top: "inception_3a/pool"
  pooling_param {
    pool: MAX
    kernel_size: 3
    stride: 1
    pad: 1
  }
}
layer {
  name: "inception_3a/pool_proj"
  type: "Convolution"
  bottom: "inception_3a/pool"
  top: "inception_3a/pool_proj"
  param {
    lr_mult: 1
    decay_mult: 1
  }
  param {
    lr_mult: 2
    decay_mult: 0
  }
  convolution_param {
    num_output: 32
    kernel_size: 1
    weight_filler {
      type: "xavier"
      std: 0.1
    }
    bias_filler {
      type: "constant"
      value: 0.2
    }
  }
}
layer {
  name: "inception_3a/relu_pool_proj"
  type: "ReLU"
  bottom: "inception_3a/pool_proj"
  top: "inception_3a/pool_proj"
}
layer {
  name: "inception_3a/output"
  type: "Concat"
  bottom: "inception_3a/1x1"
  bottom: "inception_3a/3x3"
  bottom: "inception_3a/5x5"
  bottom: "inception_3a/pool_proj"
  top: "inception_3a/output"
}
layer {
  name: "inception_3b/1x1"
  type: "Convolution"
  bottom: "inception_3a/output"
  top: "inception_3b/1x1"
  param {
    lr_mult: 1
    decay_mult: 1
  }
  param {
    lr_mult: 2
    decay_mult: 0
  }
  convolution_param {
    num_output: 128
    kernel_size: 1
    weight_filler {
      type: "xavier"
      std: 0.03
    }
    bias_filler {
      type: "constant"
      value: 0.2
    }
  }
}
layer {
  name: "inception_3b/relu_1x1"
  type: "ReLU"
  bottom: "inception_3b/1x1"
  top: "inception_3b/1x1"
}
layer {
  name: "inception_3b/3x3_reduce"
  type: "Convolution"
  bottom: "inception_3a/output"
  top: "inception_3b/3x3_reduce"
  param {
    lr_mult: 1
    decay_mult: 1
  }
  param {
    lr_mult: 2
    decay_mult: 0
  }
  convolution_param {
    num_output: 128
    kernel_size: 1
    weight_filler {
      type: "xavier"
      std: 0.09
    }
    bias_filler {
      type: "constant"
      value: 0.2
    }
  }
}
layer {
  name: "inception_3b/relu_3x3_reduce"
  type: "ReLU"
  bottom: "inception_3b/3x3_reduce"
  top: "inception_3b/3x3_reduce"
}
layer {
  name: "inception_3b/3x3"
  type: "Convolution"
  bottom: "inception_3b/3x3_reduce"
  top: "inception_3b/3x3"
  param {
    lr_mult: 1
    decay_mult: 1
  }
  param {
    lr_mult: 2
    decay_mult: 0
  }
  convolution_param {
    num_output: 192
    pad: 1
    kernel_size: 3
    weight_filler {
      type: "xavier"
      std: 0.03
    }
    bias_filler {
      type: "constant"
      value: 0.2
    }
  }
}
layer {
  name: "inception_3b/relu_3x3"
  type: "ReLU"
  bottom: "inception_3b/3x3"
  top: "inception_3b/3x3"
}
layer {
  name: "inception_3b/5x5_reduce"
  type: "Convolution"
  bottom: "inception_3a/output"
  top: "inception_3b/5x5_reduce"
  param {
    lr_mult: 1
    decay_mult: 1
  }
  param {
    lr_mult: 2
    decay_mult: 0
  }
  convolution_param {
    num_output: 32
    kernel_size: 1
    weight_filler {
      type: "xavier"
      std: 0.2
    }
    bias_filler {
      type: "constant"
      value: 0.2
    }
  }
}
layer {
  name: "inception_3b/relu_5x5_reduce"
  type: "ReLU"
  bottom: "inception_3b/5x5_reduce"
  top: "inception_3b/5x5_reduce"
}
layer {
  name: "inception_3b/5x5"
  type: "Convolution"
  bottom: "inception_3b/5x5_reduce"
  top: "inception_3b/5x5"
  param {
    lr_mult: 1
    decay_mult: 1
  }
  param {
    lr_mult: 2
    decay_mult: 0
  }
  convolution_param {
    num_output: 96
    pad: 2
    kernel_size: 5
    weight_filler {
      type: "xavier"
      std: 0.03
    }
    bias_filler {
      type: "constant"
      value: 0.2
    }
  }
}
layer {
  name: "inception_3b/relu_5x5"
  type: "ReLU"
  bottom: "inception_3b/5x5"
  top: "inception_3b/5x5"
}
layer {
  name: "inception_3b/pool"
  type: "Pooling"
  bottom: "inception_3a/output"
  top: "inception_3b/pool"
  pooling_param {
    pool: MAX
    kernel_size: 3
    stride: 1
    pad: 1
  }
}
layer {
  name: "inception_3b/pool_proj"
  type: "Convolution"
  bottom: "inception_3b/pool"
  top: "inception_3b/pool_proj"
  param {
    lr_mult: 1
    decay_mult: 1
  }
  param {
    lr_mult: 2
    decay_mult: 0
  }
  convolution_param {
    num_output: 64
    kernel_size: 1
    weight_filler {
      type: "xavier"
      std: 0.1
    }
    bias_filler {
      type: "constant"
      value: 0.2
    }
  }
}
layer {
  name: "inception_3b/relu_pool_proj"
  type: "ReLU"
  bottom: "inception_3b/pool_proj"
  top: "inception_3b/pool_proj"
}
layer {
  name: "inception_3b/output"
  type: "Concat"
  bottom: "inception_3b/1x1"
  bottom: "inception_3b/3x3"
  bottom: "inception_3b/5x5"
  bottom: "inception_3b/pool_proj"
  top: "inception_3b/output"
}
layer {
  name: "pool3/3x3_s2"
  type: "Pooling"
  bottom: "inception_3b/output"
  top: "pool3/3x3_s2"
  pooling_param {
    pool: MAX
    kernel_size: 3
    stride: 2
  }
}
layer {
  name: "inception_4a/1x1"
  type: "Convolution"
  bottom: "pool3/3x3_s2"
  top: "inception_4a/1x1"
  param {
    lr_mult: 1
    decay_mult: 1
  }
  param {
    lr_mult: 2
    decay_mult: 0
  }
  convolution_param {
    num_output: 192
    kernel_size: 1
    weight_filler {
      type: "xavier"
      std: 0.03
    }
    bias_filler {
      type: "constant"
      value: 0.2
    }
  }
}
layer {
  name: "inception_4a/relu_1x1"
  type: "ReLU"
  bottom: "inception_4a/1x1"
  top: "inception_4a/1x1"
}
layer {
  name: "inception_4a/3x3_reduce"
  type: "Convolution"
  bottom: "pool3/3x3_s2"
  top: "inception_4a/3x3_reduce"
  param {
    lr_mult: 1
    decay_mult: 1
  }
  param {
    lr_mult: 2
    decay_mult: 0
  }
  convolution_param {
    num_output: 96
    kernel_size: 1
    weight_filler {
      type: "xavier"
      std: 0.09
    }
    bias_filler {
      type: "constant"
      value: 0.2
    }
  }
}
layer {
  name: "inception_4a/relu_3x3_reduce"
  type: "ReLU"
  bottom: "inception_4a/3x3_reduce"
  top: "inception_4a/3x3_reduce"
}
layer {
  name: "inception_4a/3x3"
  type: "Convolution"
  bottom: "inception_4a/3x3_reduce"
  top: "inception_4a/3x3"
  param {
    lr_mult: 1
    decay_mult: 1
  }
  param {
    lr_mult: 2
    decay_mult: 0
  }
  convolution_param {
    num_output: 208
    pad: 1
    kernel_size: 3
    weight_filler {
      type: "xavier"
      std: 0.03
    }
    bias_filler {
      type: "constant"
      value: 0.2
    }
  }
}
layer {
  name: "inception_4a/relu_3x3"
  type: "ReLU"
  bottom: "inception_4a/3x3"
  top: "inception_4a/3x3"
}
layer {
  name: "inception_4a/5x5_reduce"
  type: "Convolution"
  bottom: "pool3/3x3_s2"
  top: "inception_4a/5x5_reduce"
  param {
    lr_mult: 1
    decay_mult: 1
  }
  param {
    lr_mult: 2
    decay_mult: 0
  }
  convolution_param {
    num_output: 16
    kernel_size: 1
    weight_filler {
      type: "xavier"
      std: 0.2
    }
    bias_filler {
      type: "constant"
      value: 0.2
    }
  }
}
layer {
  name: "inception_4a/relu_5x5_reduce"
  type: "ReLU"
  bottom: "inception_4a/5x5_reduce"
  top: "inception_4a/5x5_reduce"
}
layer {
  name: "inception_4a/5x5"
  type: "Convolution"
  bottom: "inception_4a/5x5_reduce"
  top: "inception_4a/5x5"
  param {
    lr_mult: 1
    decay_mult: 1
  }
  param {
    lr_mult: 2
    decay_mult: 0
  }
  convolution_param {
    num_output: 48
    pad: 2
    kernel_size: 5
    weight_filler {
      type: "xavier"
      std: 0.03
    }
    bias_filler {
      type: "constant"
      value: 0.2
    }
  }
}
layer {
  name: "inception_4a/relu_5x5"
  type: "ReLU"
  bottom: "inception_4a/5x5"
  top: "inception_4a/5x5"
}
layer {
  name: "inception_4a/pool"
  type: "Pooling"
  bottom: "pool3/3x3_s2"
  top: "inception_4a/pool"
  pooling_param {
    pool: MAX
    kernel_size: 3
    stride: 1
    pad: 1
  }
}
layer {
  name: "inception_4a/pool_proj"
  type: "Convolution"
  bottom: "inception_4a/pool"
  top: "inception_4a/pool_proj"
  param {
    lr_mult: 1
    decay_mult: 1
  }
  param {
    lr_mult: 2
    decay_mult: 0
  }
  convolution_param {
    num_output: 64
    kernel_size: 1
    weight_filler {
      type: "xavier"
      std: 0.1
    }
    bias_filler {
      type: "constant"
      value: 0.2
    }
  }
}
layer {
  name: "inception_4a/relu_pool_proj"
  type: "ReLU"
  bottom: "inception_4a/pool_proj"
  top: "inception_4a/pool_proj"
}
layer {
  name: "inception_4a/output"
  type: "Concat"
  bottom: "inception_4a/1x1"
  bottom: "inception_4a/3x3"
  bottom: "inception_4a/5x5"
  bottom: "inception_4a/pool_proj"
  top: "inception_4a/output"
}
layer {
  name: "loss1/ave_pool"
  type: "Pooling"
  bottom: "inception_4a/output"
  top: "loss1/ave_pool"
  pooling_param {
    pool: AVE
    kernel_size: 5
    stride: 3
  }
}
layer {
  name: "loss1/conv"
  type: "Convolution"
  bottom: "loss1/ave_pool"
  top: "loss1/conv"
  param {
    lr_mult: 1
    decay_mult: 1
  }
  param {
    lr_mult: 2
    decay_mult: 0
  }
  convolution_param {
    num_output: 128
    kernel_size: 1
    weight_filler {
      type: "xavier"
      std: 0.08
    }
    bias_filler {
      type: "constant"
      value: 0.2
    }
  }
}
layer {
  name: "loss1/relu_conv"
  type: "ReLU"
  bottom: "loss1/conv"
  top: "loss1/conv"
}
layer {
  name: "loss1/fc"
  type: "InnerProduct"
  bottom: "loss1/conv"
  top: "loss1/fc"
  param {
    lr_mult: 1
    decay_mult: 1
  }
  param {
    lr_mult: 2
    decay_mult: 0
  }
  inner_product_param {
    num_output: 1024
    weight_filler {
      type: "xavier"
      std: 0.02
    }
    bias_filler {
      type: "constant"
      value: 0.2
    }
  }
}
layer {
  name: "loss1/relu_fc"
  type: "ReLU"
  bottom: "loss1/fc"
  top: "loss1/fc"
}
layer {
  name: "loss1/drop_fc"
  type: "Dropout"
  bottom: "loss1/fc"
  top: "loss1/fc"
  dropout_param {
    dropout_ratio: 0.7
  }
}
layer {
  name: "loss1/classifier"
  type: "InnerProduct"
  bottom: "loss1/fc"
  top: "loss1/classifier"
  param {
    lr_mult: 1
    decay_mult: 1
  }
  param {
    lr_mult: 2
    decay_mult: 0
  }
  inner_product_param {
    num_output: 1000
    weight_filler {
      type: "xavier"
      std: 0.0009765625
    }
    bias_filler {
      type: "constant"
      value: 0
    }
  }
}
layer {
  name: "loss1/loss"
  type: "SoftmaxWithLoss"
  bottom: "loss1/classifier"
  bottom: "label"
  top: "loss1/loss1"
  loss_weight: 0.3
}
layer {
  name: "loss1/top-1"
  type: "Accuracy"
  bottom: "loss1/classifier"
  bottom: "label"
  top: "loss1/top-1"
  include {
  }
}
layer {
  name: "loss1/top-5"
  type: "Accuracy"
  bottom: "loss1/classifier"
  bottom: "label"
  top: "loss1/top-5"
  include {
  }
  accuracy_param {
    top_k: 5
  }
}
layer {
  name: "inception_4b/1x1"
  type: "Convolution"
  bottom: "inception_4a/output"
  top: "inception_4b/1x1"
  param {
    lr_mult: 1
    decay_mult: 1
  }
  param {
    lr_mult: 2
    decay_mult: 0
  }
  convolution_param {
    num_output: 160
    kernel_size: 1
    weight_filler {
      type: "xavier"
      std: 0.03
    }
    bias_filler {
      type: "constant"
      value: 0.2
    }
  }
}
layer {
  name: "inception_4b/relu_1x1"
  type: "ReLU"
  bottom: "inception_4b/1x1"
  top: "inception_4b/1x1"
}
layer {
  name: "inception_4b/3x3_reduce"
  type: "Convolution"
  bottom: "inception_4a/output"
  top: "inception_4b/3x3_reduce"
  param {
    lr_mult: 1
    decay_mult: 1
  }
  param {
    lr_mult: 2
    decay_mult: 0
  }
  convolution_param {
    num_output: 112
    kernel_size: 1
    weight_filler {
      type: "xavier"
      std: 0.09
    }
    bias_filler {
      type: "constant"
      value: 0.2
    }
  }
}
layer {
  name: "inception_4b/relu_3x3_reduce"
  type: "ReLU"
  bottom: "inception_4b/3x3_reduce"
  top: "inception_4b/3x3_reduce"
}
layer {
  name: "inception_4b/3x3"
  type: "Convolution"
  bottom: "inception_4b/3x3_reduce"
  top: "inception_4b/3x3"
  param {
    lr_mult: 1
    decay_mult: 1
  }
  param {
    lr_mult: 2
    decay_mult: 0
  }
  convolution_param {
    num_output: 224
    pad: 1
    kernel_size: 3
    weight_filler {
      type: "xavier"
      std: 0.03
    }
    bias_filler {
      type: "constant"
      value: 0.2
    }
  }
}
layer {
  name: "inception_4b/relu_3x3"
  type: "ReLU"
  bottom: "inception_4b/3x3"
  top: "inception_4b/3x3"
}
layer {
  name: "inception_4b/5x5_reduce"
  type: "Convolution"
  bottom: "inception_4a/output"
  top: "inception_4b/5x5_reduce"
  param {
    lr_mult: 1
    decay_mult: 1
  }
  param {
    lr_mult: 2
    decay_mult: 0
  }
  convolution_param {
    num_output: 24
    kernel_size: 1
    weight_filler {
      type: "xavier"
      std: 0.2
    }
    bias_filler {
      type: "constant"
      value: 0.2
    }
  }
}
layer {
  name: "inception_4b/relu_5x5_reduce"
  type: "ReLU"
  bottom: "inception_4b/5x5_reduce"
  top: "inception_4b/5x5_reduce"
}
layer {
  name: "inception_4b/5x5"
  type: "Convolution"
  bottom: "inception_4b/5x5_reduce"
  top: "inception_4b/5x5"
  param {
    lr_mult: 1
    decay_mult: 1
  }
  param {
    lr_mult: 2
    decay_mult: 0
  }
  convolution_param {
    num_output: 64
    pad: 2
    kernel_size: 5
    weight_filler {
      type: "xavier"
      std: 0.03
    }
    bias_filler {
      type: "constant"
      value: 0.2
    }
  }
}
layer {
  name: "inception_4b/relu_5x5"
  type: "ReLU"
  bottom: "inception_4b/5x5"
  top: "inception_4b/5x5"
}
layer {
  name: "inception_4b/pool"
  type: "Pooling"
  bottom: "inception_4a/output"
  top: "inception_4b/pool"
  pooling_param {
    pool: MAX
    kernel_size: 3
    stride: 1
    pad: 1
  }
}
layer {
  name: "inception_4b/pool_proj"
  type: "Convolution"
  bottom: "inception_4b/pool"
  top: "inception_4b/pool_proj"
  param {
    lr_mult: 1
    decay_mult: 1
  }
  param {
    lr_mult: 2
    decay_mult: 0
  }
  convolution_param {
    num_output: 64
    kernel_size: 1
    weight_filler {
      type: "xavier"
      std: 0.1
    }
    bias_filler {
      type: "constant"
      value: 0.2
    }
  }
}
layer {
  name: "inception_4b/relu_pool_proj"
  type: "ReLU"
  bottom: "inception_4b/pool_proj"
  top: "inception_4b/pool_proj"
}
layer {
  name: "inception_4b/output"
  type: "Concat"
  bottom: "inception_4b/1x1"
  bottom: "inception_4b/3x3"
  bottom: "inception_4b/5x5"
  bottom: "inception_4b/pool_proj"
  top: "inception_4b/output"
}
layer {
  name: "inception_4c/1x1"
  type: "Convolution"
  bottom: "inception_4b/output"
  top: "inception_4c/1x1"
  param {
    lr_mult: 1
    decay_mult: 1
  }
  param {
    lr_mult: 2
    decay_mult: 0
  }
  convolution_param {
    num_output: 128
    kernel_size: 1
    weight_filler {
      type: "xavier"
      std: 0.03
    }
    bias_filler {
      type: "constant"
      value: 0.2
    }
  }
}
layer {
  name: "inception_4c/relu_1x1"
  type: "ReLU"
  bottom: "inception_4c/1x1"
  top: "inception_4c/1x1"
}
layer {
  name: "inception_4c/3x3_reduce"
  type: "Convolution"
  bottom: "inception_4b/output"
  top: "inception_4c/3x3_reduce"
  param {
    lr_mult: 1
    decay_mult: 1
  }
  param {
    lr_mult: 2
    decay_mult: 0
  }
  convolution_param {
    num_output: 128
    kernel_size: 1
    weight_filler {
      type: "xavier"
      std: 0.09
    }
    bias_filler {
      type: "constant"
      value: 0.2
    }
  }
}
layer {
  name: "inception_4c/relu_3x3_reduce"
  type: "ReLU"
  bottom: "inception_4c/3x3_reduce"
  top: "inception_4c/3x3_reduce"
}
layer {
  name: "inception_4c/3x3"
  type: "Convolution"
  bottom: "inception_4c/3x3_reduce"
  top: "inception_4c/3x3"
  param {
    lr_mult: 1
    decay_mult: 1
  }
  param {
    lr_mult: 2
    decay_mult: 0
  }
  convolution_param {
    num_output: 256
    pad: 1
    kernel_size: 3
    weight_filler {
      type: "xavier"
      std: 0.03
    }
    bias_filler {
      type: "constant"
      value: 0.2
    }
  }
}
layer {
  name: "inception_4c/relu_3x3"
  type: "ReLU"
  bottom: "inception_4c/3x3"
  top: "inception_4c/3x3"
}
layer {
  name: "inception_4c/5x5_reduce"
  type: "Convolution"
  bottom: "inception_4b/output"
  top: "inception_4c/5x5_reduce"
  param {
    lr_mult: 1
    decay_mult: 1
  }
  param {
    lr_mult: 2
    decay_mult: 0
  }
  convolution_param {
    num_output: 24
    kernel_size: 1
    weight_filler {
      type: "xavier"
      std: 0.2
    }
    bias_filler {
      type: "constant"
      value: 0.2
    }
  }
}
layer {
  name: "inception_4c/relu_5x5_reduce"
  type: "ReLU"
  bottom: "inception_4c/5x5_reduce"
  top: "inception_4c/5x5_reduce"
}
layer {
  name: "inception_4c/5x5"
  type: "Convolution"
  bottom: "inception_4c/5x5_reduce"
  top: "inception_4c/5x5"
  param {
    lr_mult: 1
    decay_mult: 1
  }
  param {
    lr_mult: 2
    decay_mult: 0
  }
  convolution_param {
    num_output: 64
    pad: 2
    kernel_size: 5
    weight_filler {
      type: "xavier"
      std: 0.03
    }
    bias_filler {
      type: "constant"
      value: 0.2
    }
  }
}
layer {
  name: "inception_4c/relu_5x5"
  type: "ReLU"
  bottom: "inception_4c/5x5"
  top: "inception_4c/5x5"
}
layer {
  name: "inception_4c/pool"
  type: "Pooling"
  bottom: "inception_4b/output"
  top: "inception_4c/pool"
  pooling_param {
    pool: MAX
    kernel_size: 3
    stride: 1
    pad: 1
  }
}
layer {
  name: "inception_4c/pool_proj"
  type: "Convolution"
  bottom: "inception_4c/pool"
  top: "inception_4c/pool_proj"
  param {
    lr_mult: 1
    decay_mult: 1
  }
  param {
    lr_mult: 2
    decay_mult: 0
  }
  convolution_param {
    num_output: 64
    kernel_size: 1
    weight_filler {
      type: "xavier"
      std: 0.1
    }
    bias_filler {
      type: "constant"
      value: 0.2
    }
  }
}
layer {
  name: "inception_4c/relu_pool_proj"
  type: "ReLU"
  bottom: "inception_4c/pool_proj"
  top: "inception_4c/pool_proj"
}
layer {
  name: "inception_4c/output"
  type: "Concat"
  bottom: "inception_4c/1x1"
  bottom: "inception_4c/3x3"
  bottom: "inception_4c/5x5"
  bottom: "inception_4c/pool_proj"
  top: "inception_4c/output"
}
layer {
  name: "inception_4d/1x1"
  type: "Convolution"
  bottom: "inception_4c/output"
  top: "inception_4d/1x1"
  param {
    lr_mult: 1
    decay_mult: 1
  }
  param {
    lr_mult: 2
    decay_mult: 0
  }
  convolution_param {
    num_output: 112
    kernel_size: 1
    weight_filler {
      type: "xavier"
      std: 0.03
    }
    bias_filler {
      type: "constant"
      value: 0.2
    }
  }
}
layer {
  name: "inception_4d/relu_1x1"
  type: "ReLU"
  bottom: "inception_4d/1x1"
  top: "inception_4d/1x1"
}
layer {
  name: "inception_4d/3x3_reduce"
  type: "Convolution"
  bottom: "inception_4c/output"
  top: "inception_4d/3x3_reduce"
  param {
    lr_mult: 1
    decay_mult: 1
  }
  param {
    lr_mult: 2
    decay_mult: 0
  }
  convolution_param {
    num_output: 144
    kernel_size: 1
    weight_filler {
      type: "xavier"
      std: 0.09
    }
    bias_filler {
      type: "constant"
      value: 0.2
    }
  }
}
layer {
  name: "inception_4d/relu_3x3_reduce"
  type: "ReLU"
  bottom: "inception_4d/3x3_reduce"
  top: "inception_4d/3x3_reduce"
}
layer {
  name: "inception_4d/3x3"
  type: "Convolution"
  bottom: "inception_4d/3x3_reduce"
  top: "inception_4d/3x3"
  param {
    lr_mult: 1
    decay_mult: 1
  }
  param {
    lr_mult: 2
    decay_mult: 0
  }
  convolution_param {
    num_output: 288
    pad: 1
    kernel_size: 3
    weight_filler {
      type: "xavier"
      std: 0.03
    }
    bias_filler {
      type: "constant"
      value: 0.2
    }
  }
}
layer {
  name: "inception_4d/relu_3x3"
  type: "ReLU"
  bottom: "inception_4d/3x3"
  top: "inception_4d/3x3"
}
layer {
  name: "inception_4d/5x5_reduce"
  type: "Convolution"
  bottom: "inception_4c/output"
  top: "inception_4d/5x5_reduce"
  param {
    lr_mult: 1
    decay_mult: 1
  }
  param {
    lr_mult: 2
    decay_mult: 0
  }
  convolution_param {
    num_output: 32
    kernel_size: 1
    weight_filler {
      type: "xavier"
      std: 0.2
    }
    bias_filler {
      type: "constant"
      value: 0.2
    }
  }
}
layer {
  name: "inception_4d/relu_5x5_reduce"
  type: "ReLU"
  bottom: "inception_4d/5x5_reduce"
  top: "inception_4d/5x5_reduce"
}
layer {
  name: "inception_4d/5x5"
  type: "Convolution"
  bottom: "inception_4d/5x5_reduce"
  top: "inception_4d/5x5"
  param {
    lr_mult: 1
    decay_mult: 1
  }
  param {
    lr_mult: 2
    decay_mult: 0
  }
  convolution_param {
    num_output: 64
    pad: 2
    kernel_size: 5
    weight_filler {
      type: "xavier"
      std: 0.03
    }
    bias_filler {
      type: "constant"
      value: 0.2
    }
  }
}
layer {
  name: "inception_4d/relu_5x5"
  type: "ReLU"
  bottom: "inception_4d/5x5"
  top: "inception_4d/5x5"
}
layer {
  name: "inception_4d/pool"
  type: "Pooling"
  bottom: "inception_4c/output"
  top: "inception_4d/pool"
  pooling_param {
    pool: MAX
    kernel_size: 3
    stride: 1
    pad: 1
  }
}
layer {
  name: "inception_4d/pool_proj"
  type: "Convolution"
  bottom: "inception_4d/pool"
  top: "inception_4d/pool_proj"
  param {
    lr_mult: 1
    decay_mult: 1
  }
  param {
    lr_mult: 2
    decay_mult: 0
  }
  convolution_param {
    num_output: 64
    kernel_size: 1
    weight_filler {
      type: "xavier"
      std: 0.1
    }
    bias_filler {
      type: "constant"
      value: 0.2
    }
  }
}
layer {
  name: "inception_4d/relu_pool_proj"
  type: "ReLU"
  bottom: "inception_4d/pool_proj"
  top: "inception_4d/pool_proj"
}
layer {
  name: "inception_4d/output"
  type: "Concat"
  bottom: "inception_4d/1x1"
  bottom: "inception_4d/3x3"
  bottom: "inception_4d/5x5"
  bottom: "inception_4d/pool_proj"
  top: "inception_4d/output"
}
layer {
  name: "loss2/ave_pool"
  type: "Pooling"
  bottom: "inception_4d/output"
  top: "loss2/ave_pool"
  pooling_param {
    pool: AVE
    kernel_size: 5
    stride: 3
  }
}
layer {
  name: "loss2/conv"
  type: "Convolution"
  bottom: "loss2/ave_pool"
  top: "loss2/conv"
  param {
    lr_mult: 1
    decay_mult: 1
  }
  param {
    lr_mult: 2
    decay_mult: 0
  }
  convolution_param {
    num_output: 128
    kernel_size: 1
    weight_filler {
      type: "xavier"
      std: 0.08
    }
    bias_filler {
      type: "constant"
      value: 0.2
    }
  }
}
layer {
  name: "loss2/relu_conv"
  type: "ReLU"
  bottom: "loss2/conv"
  top: "loss2/conv"
}
layer {
  name: "loss2/fc"
  type: "InnerProduct"
  bottom: "loss2/conv"
  top: "loss2/fc"
  param {
    lr_mult: 1
    decay_mult: 1
  }
  param {
    lr_mult: 2
    decay_mult: 0
  }
  inner_product_param {
    num_output: 1024
    weight_filler {
      type: "xavier"
      std: 0.02
    }
    bias_filler {
      type: "constant"
      value: 0.2
    }
  }
}
layer {
  name: "loss2/relu_fc"
  type: "ReLU"
  bottom: "loss2/fc"
  top: "loss2/fc"
}
layer {
  name: "loss2/drop_fc"
  type: "Dropout"
  bottom: "loss2/fc"
  top: "loss2/fc"
  dropout_param {
    dropout_ratio: 0.7
  }
}
layer {
  name: "loss2/classifier"
  type: "InnerProduct"
  bottom: "loss2/fc"
  top: "loss2/classifier"
  param {
    lr_mult: 1
    decay_mult: 1
  }
  param {
    lr_mult: 2
    decay_mult: 0
  }
  inner_product_param {
    num_output: 1000
    weight_filler {
      type: "xavier"
      std: 0.0009765625
    }
    bias_filler {
      type: "constant"
      value: 0
    }
  }
}
layer {
  name: "loss2/loss"
  type: "SoftmaxWithLoss"
  bottom: "loss2/classifier"
  bottom: "label"
  top: "loss2/loss1"
  loss_weight: 0.3
}
layer {
  name: "loss2/top-1"
  type: "Accuracy"
  bottom: "loss2/classifier"
  bottom: "label"
  top: "loss2/top-1"
  include {
  }
}
layer {
  name: "loss2/top-5"
  type: "Accuracy"
  bottom: "loss2/classifier"
  bottom: "label"
  top: "loss2/top-5"
  include {
  }
  accuracy_param {
    top_k: 5
  }
}
layer {
  name: "inception_4e/1x1"
  type: "Convolution"
  bottom: "inception_4d/output"
  top: "inception_4e/1x1"
  param {
    lr_mult: 1
    decay_mult: 1
  }
  param {
    lr_mult: 2
    decay_mult: 0
  }
  convolution_param {
    num_output: 256
    kernel_size: 1
    weight_filler {
      type: "xavier"
      std: 0.03
    }
    bias_filler {
      type: "constant"
      value: 0.2
    }
  }
}
layer {
  name: "inception_4e/relu_1x1"
  type: "ReLU"
  bottom: "inception_4e/1x1"
  top: "inception_4e/1x1"
}
layer {
  name: "inception_4e/3x3_reduce"
  type: "Convolution"
  bottom: "inception_4d/output"
  top: "inception_4e/3x3_reduce"
  param {
    lr_mult: 1
    decay_mult: 1
  }
  param {
    lr_mult: 2
    decay_mult: 0
  }
  convolution_param {
    num_output: 160
    kernel_size: 1
    weight_filler {
      type: "xavier"
      std: 0.09
    }
    bias_filler {
      type: "constant"
      value: 0.2
    }
  }
}
layer {
  name: "inception_4e/relu_3x3_reduce"
  type: "ReLU"
  bottom: "inception_4e/3x3_reduce"
  top: "inception_4e/3x3_reduce"
}
layer {
  name: "inception_4e/3x3"
  type: "Convolution"
  bottom: "inception_4e/3x3_reduce"
  top: "inception_4e/3x3"
  param {
    lr_mult: 1
    decay_mult: 1
  }
  param {
    lr_mult: 2
    decay_mult: 0
  }
  convolution_param {
    num_output: 320
    pad: 1
    kernel_size: 3
    weight_filler {
      type: "xavier"
      std: 0.03
    }
    bias_filler {
      type: "co
I1103 23:16:06.726789 30147 layer_factory.hpp:77] Creating layer data
I1103 23:16:06.727238 30147 net.cpp:91] Creating Layer data
I1103 23:16:06.727270 30147 net.cpp:399] data -> data
I1103 23:16:06.727314 30147 net.cpp:399] data -> label
I1103 23:16:06.728698 30152 db_lmdb.cpp:35] Opened lmdb /ssd/dataset/ilsvrc12_val_lmdb
I1103 23:16:06.747285 30147 data_layer.cpp:41] output data size: 50,3,224,224
I1103 23:16:06.816721 30147 net.cpp:141] Setting up data
I1103 23:16:06.816835 30147 net.cpp:148] Top shape: 50 3 224 224 (7526400)
I1103 23:16:06.816876 30147 net.cpp:148] Top shape: 50 (50)
I1103 23:16:06.816937 30147 net.cpp:156] Memory required for data: 30105800
I1103 23:16:06.816987 30147 layer_factory.hpp:77] Creating layer label_data_1_split
I1103 23:16:06.817046 30147 net.cpp:91] Creating Layer label_data_1_split
I1103 23:16:06.817087 30147 net.cpp:425] label_data_1_split <- label
I1103 23:16:06.817169 30147 net.cpp:399] label_data_1_split -> label_data_1_split_0
I1103 23:16:06.817219 30147 net.cpp:399] label_data_1_split -> label_data_1_split_1
I1103 23:16:06.817257 30147 net.cpp:399] label_data_1_split -> label_data_1_split_2
I1103 23:16:06.817294 30147 net.cpp:399] label_data_1_split -> label_data_1_split_3
I1103 23:16:06.817342 30147 net.cpp:399] label_data_1_split -> label_data_1_split_4
I1103 23:16:06.817384 30147 net.cpp:399] label_data_1_split -> label_data_1_split_5
I1103 23:16:06.817421 30147 net.cpp:399] label_data_1_split -> label_data_1_split_6
I1103 23:16:06.817461 30147 net.cpp:399] label_data_1_split -> label_data_1_split_7
I1103 23:16:06.817510 30147 net.cpp:399] label_data_1_split -> label_data_1_split_8
I1103 23:16:06.817713 30147 net.cpp:141] Setting up label_data_1_split
I1103 23:16:06.817759 30147 net.cpp:148] Top shape: 50 (50)
I1103 23:16:06.817800 30147 net.cpp:148] Top shape: 50 (50)
I1103 23:16:06.817843 30147 net.cpp:148] Top shape: 50 (50)
I1103 23:16:06.817893 30147 net.cpp:148] Top shape: 50 (50)
I1103 23:16:06.817929 30147 net.cpp:148] Top shape: 50 (50)
I1103 23:16:06.817984 30147 net.cpp:148] Top shape: 50 (50)
I1103 23:16:06.818050 30147 net.cpp:148] Top shape: 50 (50)
I1103 23:16:06.818099 30147 net.cpp:148] Top shape: 50 (50)
I1103 23:16:06.818143 30147 net.cpp:148] Top shape: 50 (50)
I1103 23:16:06.818184 30147 net.cpp:156] Memory required for data: 30107600
I1103 23:16:06.818238 30147 layer_factory.hpp:77] Creating layer conv1/7x7_s2
I1103 23:16:06.818325 30147 net.cpp:91] Creating Layer conv1/7x7_s2
I1103 23:16:06.818373 30147 net.cpp:425] conv1/7x7_s2 <- data
I1103 23:16:06.818493 30147 net.cpp:399] conv1/7x7_s2 -> conv1/7x7_s2
I1103 23:16:07.237727 30147 net.cpp:141] Setting up conv1/7x7_s2
I1103 23:16:07.237843 30147 net.cpp:148] Top shape: 50 64 112 112 (40140800)
I1103 23:16:07.237881 30147 net.cpp:156] Memory required for data: 190670800
I1103 23:16:07.237936 30147 layer_factory.hpp:77] Creating layer conv1/relu_7x7
I1103 23:16:07.237977 30147 net.cpp:91] Creating Layer conv1/relu_7x7
I1103 23:16:07.238029 30147 net.cpp:425] conv1/relu_7x7 <- conv1/7x7_s2
I1103 23:16:07.238066 30147 net.cpp:386] conv1/relu_7x7 -> conv1/7x7_s2 (in-place)
I1103 23:16:07.238468 30147 net.cpp:141] Setting up conv1/relu_7x7
I1103 23:16:07.238504 30147 net.cpp:148] Top shape: 50 64 112 112 (40140800)
I1103 23:16:07.238579 30147 net.cpp:156] Memory required for data: 351234000
I1103 23:16:07.238620 30147 layer_factory.hpp:77] Creating layer pool1/3x3_s2
I1103 23:16:07.238661 30147 net.cpp:91] Creating Layer pool1/3x3_s2
I1103 23:16:07.238694 30147 net.cpp:425] pool1/3x3_s2 <- conv1/7x7_s2
I1103 23:16:07.238742 30147 net.cpp:399] pool1/3x3_s2 -> pool1/3x3_s2
I1103 23:16:07.238822 30147 net.cpp:141] Setting up pool1/3x3_s2
I1103 23:16:07.238862 30147 net.cpp:148] Top shape: 50 64 56 56 (10035200)
I1103 23:16:07.238896 30147 net.cpp:156] Memory required for data: 391374800
I1103 23:16:07.238934 30147 layer_factory.hpp:77] Creating layer pool1/norm1
I1103 23:16:07.238973 30147 net.cpp:91] Creating Layer pool1/norm1
I1103 23:16:07.239006 30147 net.cpp:425] pool1/norm1 <- pool1/3x3_s2
I1103 23:16:07.239038 30147 net.cpp:399] pool1/norm1 -> pool1/norm1
I1103 23:16:07.239244 30147 net.cpp:141] Setting up pool1/norm1
I1103 23:16:07.239279 30147 net.cpp:148] Top shape: 50 64 56 56 (10035200)
I1103 23:16:07.239310 30147 net.cpp:156] Memory required for data: 431515600
I1103 23:16:07.239347 30147 layer_factory.hpp:77] Creating layer conv2/3x3_reduce
I1103 23:16:07.239413 30147 net.cpp:91] Creating Layer conv2/3x3_reduce
I1103 23:16:07.239444 30147 net.cpp:425] conv2/3x3_reduce <- pool1/norm1
I1103 23:16:07.239477 30147 net.cpp:399] conv2/3x3_reduce -> conv2/3x3_reduce
I1103 23:16:07.240965 30147 net.cpp:141] Setting up conv2/3x3_reduce
I1103 23:16:07.241040 30147 net.cpp:148] Top shape: 50 64 56 56 (10035200)
I1103 23:16:07.241080 30147 net.cpp:156] Memory required for data: 471656400
I1103 23:16:07.241118 30147 layer_factory.hpp:77] Creating layer conv2/relu_3x3_reduce
I1103 23:16:07.241155 30147 net.cpp:91] Creating Layer conv2/relu_3x3_reduce
I1103 23:16:07.241207 30147 net.cpp:425] conv2/relu_3x3_reduce <- conv2/3x3_reduce
I1103 23:16:07.241255 30147 net.cpp:386] conv2/relu_3x3_reduce -> conv2/3x3_reduce (in-place)
I1103 23:16:07.241632 30147 net.cpp:141] Setting up conv2/relu_3x3_reduce
I1103 23:16:07.241667 30147 net.cpp:148] Top shape: 50 64 56 56 (10035200)
I1103 23:16:07.241713 30147 net.cpp:156] Memory required for data: 511797200
I1103 23:16:07.241744 30147 layer_factory.hpp:77] Creating layer conv2/3x3
I1103 23:16:07.241781 30147 net.cpp:91] Creating Layer conv2/3x3
I1103 23:16:07.241817 30147 net.cpp:425] conv2/3x3 <- conv2/3x3_reduce
I1103 23:16:07.241857 30147 net.cpp:399] conv2/3x3 -> conv2/3x3
I1103 23:16:07.243912 30147 net.cpp:141] Setting up conv2/3x3
I1103 23:16:07.243953 30147 net.cpp:148] Top shape: 50 192 56 56 (30105600)
I1103 23:16:07.243983 30147 net.cpp:156] Memory required for data: 632219600
I1103 23:16:07.244072 30147 layer_factory.hpp:77] Creating layer conv2/relu_3x3
I1103 23:16:07.244109 30147 net.cpp:91] Creating Layer conv2/relu_3x3
I1103 23:16:07.244139 30147 net.cpp:425] conv2/relu_3x3 <- conv2/3x3
I1103 23:16:07.244174 30147 net.cpp:386] conv2/relu_3x3 -> conv2/3x3 (in-place)
I1103 23:16:07.244580 30147 net.cpp:141] Setting up conv2/relu_3x3
I1103 23:16:07.244618 30147 net.cpp:148] Top shape: 50 192 56 56 (30105600)
I1103 23:16:07.244652 30147 net.cpp:156] Memory required for data: 752642000
I1103 23:16:07.244685 30147 layer_factory.hpp:77] Creating layer conv2/norm2
I1103 23:16:07.244735 30147 net.cpp:91] Creating Layer conv2/norm2
I1103 23:16:07.244797 30147 net.cpp:425] conv2/norm2 <- conv2/3x3
I1103 23:16:07.244851 30147 net.cpp:399] conv2/norm2 -> conv2/norm2
I1103 23:16:07.245265 30147 net.cpp:141] Setting up conv2/norm2
I1103 23:16:07.245303 30147 net.cpp:148] Top shape: 50 192 56 56 (30105600)
I1103 23:16:07.245337 30147 net.cpp:156] Memory required for data: 873064400
I1103 23:16:07.245373 30147 layer_factory.hpp:77] Creating layer pool2/3x3_s2
I1103 23:16:07.245419 30147 net.cpp:91] Creating Layer pool2/3x3_s2
I1103 23:16:07.245457 30147 net.cpp:425] pool2/3x3_s2 <- conv2/norm2
I1103 23:16:07.245496 30147 net.cpp:399] pool2/3x3_s2 -> pool2/3x3_s2
I1103 23:16:07.245563 30147 net.cpp:141] Setting up pool2/3x3_s2
I1103 23:16:07.245612 30147 net.cpp:148] Top shape: 50 192 28 28 (7526400)
I1103 23:16:07.245642 30147 net.cpp:156] Memory required for data: 903170000
I1103 23:16:07.245676 30147 layer_factory.hpp:77] Creating layer pool2/3x3_s2_pool2/3x3_s2_0_split
I1103 23:16:07.245707 30147 net.cpp:91] Creating Layer pool2/3x3_s2_pool2/3x3_s2_0_split
I1103 23:16:07.245753 30147 net.cpp:425] pool2/3x3_s2_pool2/3x3_s2_0_split <- pool2/3x3_s2
I1103 23:16:07.245787 30147 net.cpp:399] pool2/3x3_s2_pool2/3x3_s2_0_split -> pool2/3x3_s2_pool2/3x3_s2_0_split_0
I1103 23:16:07.245823 30147 net.cpp:399] pool2/3x3_s2_pool2/3x3_s2_0_split -> pool2/3x3_s2_pool2/3x3_s2_0_split_1
I1103 23:16:07.245862 30147 net.cpp:399] pool2/3x3_s2_pool2/3x3_s2_0_split -> pool2/3x3_s2_pool2/3x3_s2_0_split_2
I1103 23:16:07.245905 30147 net.cpp:399] pool2/3x3_s2_pool2/3x3_s2_0_split -> pool2/3x3_s2_pool2/3x3_s2_0_split_3
I1103 23:16:07.245981 30147 net.cpp:141] Setting up pool2/3x3_s2_pool2/3x3_s2_0_split
I1103 23:16:07.246019 30147 net.cpp:148] Top shape: 50 192 28 28 (7526400)
I1103 23:16:07.246049 30147 net.cpp:148] Top shape: 50 192 28 28 (7526400)
I1103 23:16:07.246093 30147 net.cpp:148] Top shape: 50 192 28 28 (7526400)
I1103 23:16:07.246134 30147 net.cpp:148] Top shape: 50 192 28 28 (7526400)
I1103 23:16:07.246170 30147 net.cpp:156] Memory required for data: 1023592400
I1103 23:16:07.246201 30147 layer_factory.hpp:77] Creating layer inception_3a/1x1
I1103 23:16:07.246253 30147 net.cpp:91] Creating Layer inception_3a/1x1
I1103 23:16:07.246284 30147 net.cpp:425] inception_3a/1x1 <- pool2/3x3_s2_pool2/3x3_s2_0_split_0
I1103 23:16:07.246322 30147 net.cpp:399] inception_3a/1x1 -> inception_3a/1x1
I1103 23:16:07.247663 30147 net.cpp:141] Setting up inception_3a/1x1
I1103 23:16:07.247707 30147 net.cpp:148] Top shape: 50 64 28 28 (2508800)
I1103 23:16:07.247743 30147 net.cpp:156] Memory required for data: 1033627600
I1103 23:16:07.247781 30147 layer_factory.hpp:77] Creating layer inception_3a/relu_1x1
I1103 23:16:07.247823 30147 net.cpp:91] Creating Layer inception_3a/relu_1x1
I1103 23:16:07.247876 30147 net.cpp:425] inception_3a/relu_1x1 <- inception_3a/1x1
I1103 23:16:07.247916 30147 net.cpp:386] inception_3a/relu_1x1 -> inception_3a/1x1 (in-place)
I1103 23:16:07.248297 30147 net.cpp:141] Setting up inception_3a/relu_1x1
I1103 23:16:07.248335 30147 net.cpp:148] Top shape: 50 64 28 28 (2508800)
I1103 23:16:07.248384 30147 net.cpp:156] Memory required for data: 1043662800
I1103 23:16:07.248420 30147 layer_factory.hpp:77] Creating layer inception_3a/3x3_reduce
I1103 23:16:07.248459 30147 net.cpp:91] Creating Layer inception_3a/3x3_reduce
I1103 23:16:07.248491 30147 net.cpp:425] inception_3a/3x3_reduce <- pool2/3x3_s2_pool2/3x3_s2_0_split_1
I1103 23:16:07.248545 30147 net.cpp:399] inception_3a/3x3_reduce -> inception_3a/3x3_reduce
I1103 23:16:07.250098 30147 net.cpp:141] Setting up inception_3a/3x3_reduce
I1103 23:16:07.250138 30147 net.cpp:148] Top shape: 50 96 28 28 (3763200)
I1103 23:16:07.250171 30147 net.cpp:156] Memory required for data: 1058715600
I1103 23:16:07.250229 30147 layer_factory.hpp:77] Creating layer inception_3a/relu_3x3_reduce
I1103 23:16:07.250265 30147 net.cpp:91] Creating Layer inception_3a/relu_3x3_reduce
I1103 23:16:07.250300 30147 net.cpp:425] inception_3a/relu_3x3_reduce <- inception_3a/3x3_reduce
I1103 23:16:07.250331 30147 net.cpp:386] inception_3a/relu_3x3_reduce -> inception_3a/3x3_reduce (in-place)
I1103 23:16:07.250566 30147 net.cpp:141] Setting up inception_3a/relu_3x3_reduce
I1103 23:16:07.250620 30147 net.cpp:148] Top shape: 50 96 28 28 (3763200)
I1103 23:16:07.250649 30147 net.cpp:156] Memory required for data: 1073768400
I1103 23:16:07.250704 30147 layer_factory.hpp:77] Creating layer inception_3a/3x3
I1103 23:16:07.250751 30147 net.cpp:91] Creating Layer inception_3a/3x3
I1103 23:16:07.250787 30147 net.cpp:425] inception_3a/3x3 <- inception_3a/3x3_reduce
I1103 23:16:07.250818 30147 net.cpp:399] inception_3a/3x3 -> inception_3a/3x3
I1103 23:16:07.252673 30147 net.cpp:141] Setting up inception_3a/3x3
I1103 23:16:07.252710 30147 net.cpp:148] Top shape: 50 128 28 28 (5017600)
I1103 23:16:07.252743 30147 net.cpp:156] Memory required for data: 1093838800
I1103 23:16:07.252779 30147 layer_factory.hpp:77] Creating layer inception_3a/relu_3x3
I1103 23:16:07.252830 30147 net.cpp:91] Creating Layer inception_3a/relu_3x3
I1103 23:16:07.252866 30147 net.cpp:425] inception_3a/relu_3x3 <- inception_3a/3x3
I1103 23:16:07.252898 30147 net.cpp:386] inception_3a/relu_3x3 -> inception_3a/3x3 (in-place)
I1103 23:16:07.253463 30147 net.cpp:141] Setting up inception_3a/relu_3x3
I1103 23:16:07.253511 30147 net.cpp:148] Top shape: 50 128 28 28 (5017600)
I1103 23:16:07.253541 30147 net.cpp:156] Memory required for data: 1113909200
I1103 23:16:07.253574 30147 layer_factory.hpp:77] Creating layer inception_3a/5x5_reduce
I1103 23:16:07.253615 30147 net.cpp:91] Creating Layer inception_3a/5x5_reduce
I1103 23:16:07.253664 30147 net.cpp:425] inception_3a/5x5_reduce <- pool2/3x3_s2_pool2/3x3_s2_0_split_2
I1103 23:16:07.253701 30147 net.cpp:399] inception_3a/5x5_reduce -> inception_3a/5x5_reduce
I1103 23:16:07.254593 30147 net.cpp:141] Setting up inception_3a/5x5_reduce
I1103 23:16:07.254626 30147 net.cpp:148] Top shape: 50 16 28 28 (627200)
I1103 23:16:07.254673 30147 net.cpp:156] Memory required for data: 1116418000
I1103 23:16:07.254714 30147 layer_factory.hpp:77] Creating layer inception_3a/relu_5x5_reduce
I1103 23:16:07.254747 30147 net.cpp:91] Creating Layer inception_3a/relu_5x5_reduce
I1103 23:16:07.254782 30147 net.cpp:425] inception_3a/relu_5x5_reduce <- inception_3a/5x5_reduce
I1103 23:16:07.254827 30147 net.cpp:386] inception_3a/relu_5x5_reduce -> inception_3a/5x5_reduce (in-place)
I1103 23:16:07.255213 30147 net.cpp:141] Setting up inception_3a/relu_5x5_reduce
I1103 23:16:07.255247 30147 net.cpp:148] Top shape: 50 16 28 28 (627200)
I1103 23:16:07.255278 30147 net.cpp:156] Memory required for data: 1118926800
I1103 23:16:07.255329 30147 layer_factory.hpp:77] Creating layer inception_3a/5x5
I1103 23:16:07.255368 30147 net.cpp:91] Creating Layer inception_3a/5x5
I1103 23:16:07.255406 30147 net.cpp:425] inception_3a/5x5 <- inception_3a/5x5_reduce
I1103 23:16:07.255440 30147 net.cpp:399] inception_3a/5x5 -> inception_3a/5x5
I1103 23:16:07.256578 30147 net.cpp:141] Setting up inception_3a/5x5
I1103 23:16:07.256616 30147 net.cpp:148] Top shape: 50 32 28 28 (1254400)
I1103 23:16:07.256649 30147 net.cpp:156] Memory required for data: 1123944400
I1103 23:16:07.256685 30147 layer_factory.hpp:77] Creating layer inception_3a/relu_5x5
I1103 23:16:07.256734 30147 net.cpp:91] Creating Layer inception_3a/relu_5x5
I1103 23:16:07.256769 30147 net.cpp:425] inception_3a/relu_5x5 <- inception_3a/5x5
I1103 23:16:07.256796 30147 net.cpp:386] inception_3a/relu_5x5 -> inception_3a/5x5 (in-place)
I1103 23:16:07.256976 30147 net.cpp:141] Setting up inception_3a/relu_5x5
I1103 23:16:07.257020 30147 net.cpp:148] Top shape: 50 32 28 28 (1254400)
I1103 23:16:07.257051 30147 net.cpp:156] Memory required for data: 1128962000
I1103 23:16:07.257079 30147 layer_factory.hpp:77] Creating layer inception_3a/pool
I1103 23:16:07.257110 30147 net.cpp:91] Creating Layer inception_3a/pool
I1103 23:16:07.257158 30147 net.cpp:425] inception_3a/pool <- pool2/3x3_s2_pool2/3x3_s2_0_split_3
I1103 23:16:07.257192 30147 net.cpp:399] inception_3a/pool -> inception_3a/pool
I1103 23:16:07.257266 30147 net.cpp:141] Setting up inception_3a/pool
I1103 23:16:07.257340 30147 net.cpp:148] Top shape: 50 192 28 28 (7526400)
I1103 23:16:07.257380 30147 net.cpp:156] Memory required for data: 1159067600
I1103 23:16:07.257416 30147 layer_factory.hpp:77] Creating layer inception_3a/pool_proj
I1103 23:16:07.257452 30147 net.cpp:91] Creating Layer inception_3a/pool_proj
I1103 23:16:07.257500 30147 net.cpp:425] inception_3a/pool_proj <- inception_3a/pool
I1103 23:16:07.257531 30147 net.cpp:399] inception_3a/pool_proj -> inception_3a/pool_proj
I1103 23:16:07.258594 30147 net.cpp:141] Setting up inception_3a/pool_proj
I1103 23:16:07.258630 30147 net.cpp:148] Top shape: 50 32 28 28 (1254400)
I1103 23:16:07.258682 30147 net.cpp:156] Memory required for data: 1164085200
I1103 23:16:07.258720 30147 layer_factory.hpp:77] Creating layer inception_3a/relu_pool_proj
I1103 23:16:07.258752 30147 net.cpp:91] Creating Layer inception_3a/relu_pool_proj
I1103 23:16:07.258781 30147 net.cpp:425] inception_3a/relu_pool_proj <- inception_3a/pool_proj
I1103 23:16:07.258831 30147 net.cpp:386] inception_3a/relu_pool_proj -> inception_3a/pool_proj (in-place)
I1103 23:16:07.259218 30147 net.cpp:141] Setting up inception_3a/relu_pool_proj
I1103 23:16:07.259253 30147 net.cpp:148] Top shape: 50 32 28 28 (1254400)
I1103 23:16:07.259286 30147 net.cpp:156] Memory required for data: 1169102800
I1103 23:16:07.259335 30147 layer_factory.hpp:77] Creating layer inception_3a/output
I1103 23:16:07.259373 30147 net.cpp:91] Creating Layer inception_3a/output
I1103 23:16:07.259409 30147 net.cpp:425] inception_3a/output <- inception_3a/1x1
I1103 23:16:07.259441 30147 net.cpp:425] inception_3a/output <- inception_3a/3x3
I1103 23:16:07.259491 30147 net.cpp:425] inception_3a/output <- inception_3a/5x5
I1103 23:16:07.259526 30147 net.cpp:425] inception_3a/output <- inception_3a/pool_proj
I1103 23:16:07.259558 30147 net.cpp:399] inception_3a/output -> inception_3a/output
I1103 23:16:07.259621 30147 net.cpp:141] Setting up inception_3a/output
I1103 23:16:07.259665 30147 net.cpp:148] Top shape: 50 256 28 28 (10035200)
I1103 23:16:07.259696 30147 net.cpp:156] Memory required for data: 1209243600
I1103 23:16:07.259722 30147 layer_factory.hpp:77] Creating layer inception_3a/output_inception_3a/output_0_split
I1103 23:16:07.259754 30147 net.cpp:91] Creating Layer inception_3a/output_inception_3a/output_0_split
I1103 23:16:07.259804 30147 net.cpp:425] inception_3a/output_inception_3a/output_0_split <- inception_3a/output
I1103 23:16:07.259850 30147 net.cpp:399] inception_3a/output_inception_3a/output_0_split -> inception_3a/output_inception_3a/output_0_split_0
I1103 23:16:07.259889 30147 net.cpp:399] inception_3a/output_inception_3a/output_0_split -> inception_3a/output_inception_3a/output_0_split_1
I1103 23:16:07.259922 30147 net.cpp:399] inception_3a/output_inception_3a/output_0_split -> inception_3a/output_inception_3a/output_0_split_2
I1103 23:16:07.259982 30147 net.cpp:399] inception_3a/output_inception_3a/output_0_split -> inception_3a/output_inception_3a/output_0_split_3
I1103 23:16:07.260073 30147 net.cpp:141] Setting up inception_3a/output_inception_3a/output_0_split
I1103 23:16:07.260110 30147 net.cpp:148] Top shape: 50 256 28 28 (10035200)
I1103 23:16:07.260144 30147 net.cpp:148] Top shape: 50 256 28 28 (10035200)
I1103 23:16:07.260195 30147 net.cpp:148] Top shape: 50 256 28 28 (10035200)
I1103 23:16:07.260224 30147 net.cpp:148] Top shape: 50 256 28 28 (10035200)
I1103 23:16:07.260254 30147 net.cpp:156] Memory required for data: 1369806800
I1103 23:16:07.260288 30147 layer_factory.hpp:77] Creating layer inception_3b/1x1
I1103 23:16:07.260335 30147 net.cpp:91] Creating Layer inception_3b/1x1
I1103 23:16:07.260362 30147 net.cpp:425] inception_3b/1x1 <- inception_3a/output_inception_3a/output_0_split_0
I1103 23:16:07.260397 30147 net.cpp:399] inception_3b/1x1 -> inception_3b/1x1
I1103 23:16:07.261418 30147 net.cpp:141] Setting up inception_3b/1x1
I1103 23:16:07.261466 30147 net.cpp:148] Top shape: 50 128 28 28 (5017600)
I1103 23:16:07.261500 30147 net.cpp:156] Memory required for data: 1389877200
I1103 23:16:07.261561 30147 layer_factory.hpp:77] Creating layer inception_3b/relu_1x1
I1103 23:16:07.261621 30147 net.cpp:91] Creating Layer inception_3b/relu_1x1
I1103 23:16:07.261656 30147 net.cpp:425] inception_3b/relu_1x1 <- inception_3b/1x1
I1103 23:16:07.261689 30147 net.cpp:386] inception_3b/relu_1x1 -> inception_3b/1x1 (in-place)
I1103 23:16:07.262064 30147 net.cpp:141] Setting up inception_3b/relu_1x1
I1103 23:16:07.262110 30147 net.cpp:148] Top shape: 50 128 28 28 (5017600)
I1103 23:16:07.262140 30147 net.cpp:156] Memory required for data: 1409947600
I1103 23:16:07.262171 30147 layer_factory.hpp:77] Creating layer inception_3b/3x3_reduce
I1103 23:16:07.262208 30147 net.cpp:91] Creating Layer inception_3b/3x3_reduce
I1103 23:16:07.262254 30147 net.cpp:425] inception_3b/3x3_reduce <- inception_3a/output_inception_3a/output_0_split_1
I1103 23:16:07.262289 30147 net.cpp:399] inception_3b/3x3_reduce -> inception_3b/3x3_reduce
I1103 23:16:07.263489 30147 net.cpp:141] Setting up inception_3b/3x3_reduce
I1103 23:16:07.263537 30147 net.cpp:148] Top shape: 50 128 28 28 (5017600)
I1103 23:16:07.263586 30147 net.cpp:156] Memory required for data: 1430018000
I1103 23:16:07.263624 30147 layer_factory.hpp:77] Creating layer inception_3b/relu_3x3_reduce
I1103 23:16:07.263660 30147 net.cpp:91] Creating Layer inception_3b/relu_3x3_reduce
I1103 23:16:07.263695 30147 net.cpp:425] inception_3b/relu_3x3_reduce <- inception_3b/3x3_reduce
I1103 23:16:07.263747 30147 net.cpp:386] inception_3b/relu_3x3_reduce -> inception_3b/3x3_reduce (in-place)
I1103 23:16:07.263942 30147 net.cpp:141] Setting up inception_3b/relu_3x3_reduce
I1103 23:16:07.263977 30147 net.cpp:148] Top shape: 50 128 28 28 (5017600)
I1103 23:16:07.264008 30147 net.cpp:156] Memory required for data: 1450088400
I1103 23:16:07.264057 30147 layer_factory.hpp:77] Creating layer inception_3b/3x3
I1103 23:16:07.264097 30147 net.cpp:91] Creating Layer inception_3b/3x3
I1103 23:16:07.264128 30147 net.cpp:425] inception_3b/3x3 <- inception_3b/3x3_reduce
I1103 23:16:07.264158 30147 net.cpp:399] inception_3b/3x3 -> inception_3b/3x3
I1103 23:16:07.267025 30147 net.cpp:141] Setting up inception_3b/3x3
I1103 23:16:07.267060 30147 net.cpp:148] Top shape: 50 192 28 28 (7526400)
I1103 23:16:07.267087 30147 net.cpp:156] Memory required for data: 1480194000
I1103 23:16:07.267124 30147 layer_factory.hpp:77] Creating layer inception_3b/relu_3x3
I1103 23:16:07.267174 30147 net.cpp:91] Creating Layer inception_3b/relu_3x3
I1103 23:16:07.267205 30147 net.cpp:425] inception_3b/relu_3x3 <- inception_3b/3x3
I1103 23:16:07.267244 30147 net.cpp:386] inception_3b/relu_3x3 -> inception_3b/3x3 (in-place)
I1103 23:16:07.267630 30147 net.cpp:141] Setting up inception_3b/relu_3x3
I1103 23:16:07.267679 30147 net.cpp:148] Top shape: 50 192 28 28 (7526400)
I1103 23:16:07.267709 30147 net.cpp:156] Memory required for data: 1510299600
I1103 23:16:07.267741 30147 layer_factory.hpp:77] Creating layer inception_3b/5x5_reduce
I1103 23:16:07.267776 30147 net.cpp:91] Creating Layer inception_3b/5x5_reduce
I1103 23:16:07.267822 30147 net.cpp:425] inception_3b/5x5_reduce <- inception_3a/output_inception_3a/output_0_split_2
I1103 23:16:07.267874 30147 net.cpp:399] inception_3b/5x5_reduce -> inception_3b/5x5_reduce
I1103 23:16:07.268805 30147 net.cpp:141] Setting up inception_3b/5x5_reduce
I1103 23:16:07.268843 30147 net.cpp:148] Top shape: 50 32 28 28 (1254400)
I1103 23:16:07.268894 30147 net.cpp:156] Memory required for data: 1515317200
I1103 23:16:07.268936 30147 layer_factory.hpp:77] Creating layer inception_3b/relu_5x5_reduce
I1103 23:16:07.268971 30147 net.cpp:91] Creating Layer inception_3b/relu_5x5_reduce
I1103 23:16:07.269006 30147 net.cpp:425] inception_3b/relu_5x5_reduce <- inception_3b/5x5_reduce
I1103 23:16:07.269058 30147 net.cpp:386] inception_3b/relu_5x5_reduce -> inception_3b/5x5_reduce (in-place)
I1103 23:16:07.269620 30147 net.cpp:141] Setting up inception_3b/relu_5x5_reduce
I1103 23:16:07.269678 30147 net.cpp:148] Top shape: 50 32 28 28 (1254400)
I1103 23:16:07.269716 30147 net.cpp:156] Memory required for data: 1520334800
I1103 23:16:07.269794 30147 layer_factory.hpp:77] Creating layer inception_3b/5x5
I1103 23:16:07.269843 30147 net.cpp:91] Creating Layer inception_3b/5x5
I1103 23:16:07.269877 30147 net.cpp:425] inception_3b/5x5 <- inception_3b/5x5_reduce
I1103 23:16:07.269930 30147 net.cpp:399] inception_3b/5x5 -> inception_3b/5x5
I1103 23:16:07.271832 30147 net.cpp:141] Setting up inception_3b/5x5
I1103 23:16:07.271883 30147 net.cpp:148] Top shape: 50 96 28 28 (3763200)
I1103 23:16:07.271919 30147 net.cpp:156] Memory required for data: 1535387600
I1103 23:16:07.271975 30147 layer_factory.hpp:77] Creating layer inception_3b/relu_5x5
I1103 23:16:07.272014 30147 net.cpp:91] Creating Layer inception_3b/relu_5x5
I1103 23:16:07.272049 30147 net.cpp:425] inception_3b/relu_5x5 <- inception_3b/5x5
I1103 23:16:07.272083 30147 net.cpp:386] inception_3b/relu_5x5 -> inception_3b/5x5 (in-place)
I1103 23:16:07.272300 30147 net.cpp:141] Setting up inception_3b/relu_5x5
I1103 23:16:07.272332 30147 net.cpp:148] Top shape: 50 96 28 28 (3763200)
I1103 23:16:07.272372 30147 net.cpp:156] Memory required for data: 1550440400
I1103 23:16:07.272410 30147 layer_factory.hpp:77] Creating layer inception_3b/pool
I1103 23:16:07.272462 30147 net.cpp:91] Creating Layer inception_3b/pool
I1103 23:16:07.272497 30147 net.cpp:425] inception_3b/pool <- inception_3a/output_inception_3a/output_0_split_3
I1103 23:16:07.272531 30147 net.cpp:399] inception_3b/pool -> inception_3b/pool
I1103 23:16:07.272605 30147 net.cpp:141] Setting up inception_3b/pool
I1103 23:16:07.272655 30147 net.cpp:148] Top shape: 50 256 28 28 (10035200)
I1103 23:16:07.272689 30147 net.cpp:156] Memory required for data: 1590581200
I1103 23:16:07.272725 30147 layer_factory.hpp:77] Creating layer inception_3b/pool_proj
I1103 23:16:07.272760 30147 net.cpp:91] Creating Layer inception_3b/pool_proj
I1103 23:16:07.272810 30147 net.cpp:425] inception_3b/pool_proj <- inception_3b/pool
I1103 23:16:07.272850 30147 net.cpp:399] inception_3b/pool_proj -> inception_3b/pool_proj
I1103 23:16:07.274004 30147 net.cpp:141] Setting up inception_3b/pool_proj
I1103 23:16:07.274044 30147 net.cpp:148] Top shape: 50 64 28 28 (2508800)
I1103 23:16:07.274096 30147 net.cpp:156] Memory required for data: 1600616400
I1103 23:16:07.274137 30147 layer_factory.hpp:77] Creating layer inception_3b/relu_pool_proj
I1103 23:16:07.274178 30147 net.cpp:91] Creating Layer inception_3b/relu_pool_proj
I1103 23:16:07.274219 30147 net.cpp:425] inception_3b/relu_pool_proj <- inception_3b/pool_proj
I1103 23:16:07.274271 30147 net.cpp:386] inception_3b/relu_pool_proj -> inception_3b/pool_proj (in-place)
I1103 23:16:07.276584 30147 net.cpp:141] Setting up inception_3b/relu_pool_proj
I1103 23:16:07.276625 30147 net.cpp:148] Top shape: 50 64 28 28 (2508800)
I1103 23:16:07.276659 30147 net.cpp:156] Memory required for data: 1610651600
I1103 23:16:07.276707 30147 layer_factory.hpp:77] Creating layer inception_3b/output
I1103 23:16:07.276747 30147 net.cpp:91] Creating Layer inception_3b/output
I1103 23:16:07.276785 30147 net.cpp:425] inception_3b/output <- inception_3b/1x1
I1103 23:16:07.276821 30147 net.cpp:425] inception_3b/output <- inception_3b/3x3
I1103 23:16:07.276873 30147 net.cpp:425] inception_3b/output <- inception_3b/5x5
I1103 23:16:07.276909 30147 net.cpp:425] inception_3b/output <- inception_3b/pool_proj
I1103 23:16:07.276938 30147 net.cpp:399] inception_3b/output -> inception_3b/output
I1103 23:16:07.276998 30147 net.cpp:141] Setting up inception_3b/output
I1103 23:16:07.277045 30147 net.cpp:148] Top shape: 50 480 28 28 (18816000)
I1103 23:16:07.277082 30147 net.cpp:156] Memory required for data: 1685915600
I1103 23:16:07.277117 30147 layer_factory.hpp:77] Creating layer pool3/3x3_s2
I1103 23:16:07.277151 30147 net.cpp:91] Creating Layer pool3/3x3_s2
I1103 23:16:07.277195 30147 net.cpp:425] pool3/3x3_s2 <- inception_3b/output
I1103 23:16:07.277230 30147 net.cpp:399] pool3/3x3_s2 -> pool3/3x3_s2
I1103 23:16:07.277304 30147 net.cpp:141] Setting up pool3/3x3_s2
I1103 23:16:07.277336 30147 net.cpp:148] Top shape: 50 480 14 14 (4704000)
I1103 23:16:07.277412 30147 net.cpp:156] Memory required for data: 1704731600
I1103 23:16:07.277456 30147 layer_factory.hpp:77] Creating layer pool3/3x3_s2_pool3/3x3_s2_0_split
I1103 23:16:07.277496 30147 net.cpp:91] Creating Layer pool3/3x3_s2_pool3/3x3_s2_0_split
I1103 23:16:07.277546 30147 net.cpp:425] pool3/3x3_s2_pool3/3x3_s2_0_split <- pool3/3x3_s2
I1103 23:16:07.277580 30147 net.cpp:399] pool3/3x3_s2_pool3/3x3_s2_0_split -> pool3/3x3_s2_pool3/3x3_s2_0_split_0
I1103 23:16:07.277621 30147 net.cpp:399] pool3/3x3_s2_pool3/3x3_s2_0_split -> pool3/3x3_s2_pool3/3x3_s2_0_split_1
I1103 23:16:07.277653 30147 net.cpp:399] pool3/3x3_s2_pool3/3x3_s2_0_split -> pool3/3x3_s2_pool3/3x3_s2_0_split_2
I1103 23:16:07.277699 30147 net.cpp:399] pool3/3x3_s2_pool3/3x3_s2_0_split -> pool3/3x3_s2_pool3/3x3_s2_0_split_3
I1103 23:16:07.277801 30147 net.cpp:141] Setting up pool3/3x3_s2_pool3/3x3_s2_0_split
I1103 23:16:07.277837 30147 net.cpp:148] Top shape: 50 480 14 14 (4704000)
I1103 23:16:07.277873 30147 net.cpp:148] Top shape: 50 480 14 14 (4704000)
I1103 23:16:07.277921 30147 net.cpp:148] Top shape: 50 480 14 14 (4704000)
I1103 23:16:07.277961 30147 net.cpp:148] Top shape: 50 480 14 14 (4704000)
I1103 23:16:07.277998 30147 net.cpp:156] Memory required for data: 1779995600
I1103 23:16:07.278033 30147 layer_factory.hpp:77] Creating layer inception_4a/1x1
I1103 23:16:07.278085 30147 net.cpp:91] Creating Layer inception_4a/1x1
I1103 23:16:07.278120 30147 net.cpp:425] inception_4a/1x1 <- pool3/3x3_s2_pool3/3x3_s2_0_split_0
I1103 23:16:07.278157 30147 net.cpp:399] inception_4a/1x1 -> inception_4a/1x1
I1103 23:16:07.279700 30147 net.cpp:141] Setting up inception_4a/1x1
I1103 23:16:07.279747 30147 net.cpp:148] Top shape: 50 192 14 14 (1881600)
I1103 23:16:07.279785 30147 net.cpp:156] Memory required for data: 1787522000
I1103 23:16:07.279825 30147 layer_factory.hpp:77] Creating layer inception_4a/relu_1x1
I1103 23:16:07.279872 30147 net.cpp:91] Creating Layer inception_4a/relu_1x1
I1103 23:16:07.279917 30147 net.cpp:425] inception_4a/relu_1x1 <- inception_4a/1x1
I1103 23:16:07.279948 30147 net.cpp:386] inception_4a/relu_1x1 -> inception_4a/1x1 (in-place)
I1103 23:16:07.280334 30147 net.cpp:141] Setting up inception_4a/relu_1x1
I1103 23:16:07.280375 30147 net.cpp:148] Top shape: 50 192 14 14 (1881600)
I1103 23:16:07.280423 30147 net.cpp:156] Memory required for data: 1795048400
I1103 23:16:07.280459 30147 layer_factory.hpp:77] Creating layer inception_4a/3x3_reduce
I1103 23:16:07.280505 30147 net.cpp:91] Creating Layer inception_4a/3x3_reduce
I1103 23:16:07.280542 30147 net.cpp:425] inception_4a/3x3_reduce <- pool3/3x3_s2_pool3/3x3_s2_0_split_1
I1103 23:16:07.280591 30147 net.cpp:399] inception_4a/3x3_reduce -> inception_4a/3x3_reduce
I1103 23:16:07.281921 30147 net.cpp:141] Setting up inception_4a/3x3_reduce
I1103 23:16:07.281958 30147 net.cpp:148] Top shape: 50 96 14 14 (940800)
I1103 23:16:07.281993 30147 net.cpp:156] Memory required for data: 1798811600
I1103 23:16:07.282050 30147 layer_factory.hpp:77] Creating layer inception_4a/relu_3x3_reduce
I1103 23:16:07.282089 30147 net.cpp:91] Creating Layer inception_4a/relu_3x3_reduce
I1103 23:16:07.282124 30147 net.cpp:425] inception_4a/relu_3x3_reduce <- inception_4a/3x3_reduce
I1103 23:16:07.282162 30147 net.cpp:386] inception_4a/relu_3x3_reduce -> inception_4a/3x3_reduce (in-place)
I1103 23:16:07.282366 30147 net.cpp:141] Setting up inception_4a/relu_3x3_reduce
I1103 23:16:07.282400 30147 net.cpp:148] Top shape: 50 96 14 14 (940800)
I1103 23:16:07.282436 30147 net.cpp:156] Memory required for data: 1802574800
I1103 23:16:07.282469 30147 layer_factory.hpp:77] Creating layer inception_4a/3x3
I1103 23:16:07.282522 30147 net.cpp:91] Creating Layer inception_4a/3x3
I1103 23:16:07.282557 30147 net.cpp:425] inception_4a/3x3 <- inception_4a/3x3_reduce
I1103 23:16:07.282593 30147 net.cpp:399] inception_4a/3x3 -> inception_4a/3x3
I1103 23:16:07.285241 30147 net.cpp:141] Setting up inception_4a/3x3
I1103 23:16:07.285290 30147 net.cpp:148] Top shape: 50 208 14 14 (2038400)
I1103 23:16:07.285322 30147 net.cpp:156] Memory required for data: 1810728400
I1103 23:16:07.285398 30147 layer_factory.hpp:77] Creating layer inception_4a/relu_3x3
I1103 23:16:07.285451 30147 net.cpp:91] Creating Layer inception_4a/relu_3x3
I1103 23:16:07.285488 30147 net.cpp:425] inception_4a/relu_3x3 <- inception_4a/3x3
I1103 23:16:07.285523 30147 net.cpp:386] inception_4a/relu_3x3 -> inception_4a/3x3 (in-place)
I1103 23:16:07.285928 30147 net.cpp:141] Setting up inception_4a/relu_3x3
I1103 23:16:07.285976 30147 net.cpp:148] Top shape: 50 208 14 14 (2038400)
I1103 23:16:07.286013 30147 net.cpp:156] Memory required for data: 1818882000
I1103 23:16:07.286052 30147 layer_factory.hpp:77] Creating layer inception_4a/5x5_reduce
I1103 23:16:07.286095 30147 net.cpp:91] Creating Layer inception_4a/5x5_reduce
I1103 23:16:07.286140 30147 net.cpp:425] inception_4a/5x5_reduce <- pool3/3x3_s2_pool3/3x3_s2_0_split_2
I1103 23:16:07.286183 30147 net.cpp:399] inception_4a/5x5_reduce -> inception_4a/5x5_reduce
I1103 23:16:07.287117 30147 net.cpp:141] Setting up inception_4a/5x5_reduce
I1103 23:16:07.287166 30147 net.cpp:148] Top shape: 50 16 14 14 (156800)
I1103 23:16:07.287212 30147 net.cpp:156] Memory required for data: 1819509200
I1103 23:16:07.287250 30147 layer_factory.hpp:77] Creating layer inception_4a/relu_5x5_reduce
I1103 23:16:07.287293 30147 net.cpp:91] Creating Layer inception_4a/relu_5x5_reduce
I1103 23:16:07.287329 30147 net.cpp:425] inception_4a/relu_5x5_reduce <- inception_4a/5x5_reduce
I1103 23:16:07.287379 30147 net.cpp:386] inception_4a/relu_5x5_reduce -> inception_4a/5x5_reduce (in-place)
I1103 23:16:07.287772 30147 net.cpp:141] Setting up inception_4a/relu_5x5_reduce
I1103 23:16:07.287811 30147 net.cpp:148] Top shape: 50 16 14 14 (156800)
I1103 23:16:07.287869 30147 net.cpp:156] Memory required for data: 1820136400
I1103 23:16:07.287916 30147 layer_factory.hpp:77] Creating layer inception_4a/5x5
I1103 23:16:07.287964 30147 net.cpp:91] Creating Layer inception_4a/5x5
I1103 23:16:07.287998 30147 net.cpp:425] inception_4a/5x5 <- inception_4a/5x5_reduce
I1103 23:16:07.288039 30147 net.cpp:399] inception_4a/5x5 -> inception_4a/5x5
I1103 23:16:07.289235 30147 net.cpp:141] Setting up inception_4a/5x5
I1103 23:16:07.289268 30147 net.cpp:148] Top shape: 50 48 14 14 (470400)
I1103 23:16:07.289302 30147 net.cpp:156] Memory required for data: 1822018000
I1103 23:16:07.289338 30147 layer_factory.hpp:77] Creating layer inception_4a/relu_5x5
I1103 23:16:07.289391 30147 net.cpp:91] Creating Layer inception_4a/relu_5x5
I1103 23:16:07.289427 30147 net.cpp:425] inception_4a/relu_5x5 <- inception_4a/5x5
I1103 23:16:07.289463 30147 net.cpp:386] inception_4a/relu_5x5 -> inception_4a/5x5 (in-place)
I1103 23:16:07.289649 30147 net.cpp:141] Setting up inception_4a/relu_5x5
I1103 23:16:07.289695 30147 net.cpp:148] Top shape: 50 48 14 14 (470400)
I1103 23:16:07.289727 30147 net.cpp:156] Memory required for data: 1823899600
I1103 23:16:07.289758 30147 layer_factory.hpp:77] Creating layer inception_4a/pool
I1103 23:16:07.289793 30147 net.cpp:91] Creating Layer inception_4a/pool
I1103 23:16:07.289836 30147 net.cpp:425] inception_4a/pool <- pool3/3x3_s2_pool3/3x3_s2_0_split_3
I1103 23:16:07.289872 30147 net.cpp:399] inception_4a/pool -> inception_4a/pool
I1103 23:16:07.289949 30147 net.cpp:141] Setting up inception_4a/pool
I1103 23:16:07.289990 30147 net.cpp:148] Top shape: 50 480 14 14 (4704000)
I1103 23:16:07.290040 30147 net.cpp:156] Memory required for data: 1842715600
I1103 23:16:07.290076 30147 layer_factory.hpp:77] Creating layer inception_4a/pool_proj
I1103 23:16:07.290113 30147 net.cpp:91] Creating Layer inception_4a/pool_proj
I1103 23:16:07.290149 30147 net.cpp:425] inception_4a/pool_proj <- inception_4a/pool
I1103 23:16:07.290204 30147 net.cpp:399] inception_4a/pool_proj -> inception_4a/pool_proj
I1103 23:16:07.291625 30147 net.cpp:141] Setting up inception_4a/pool_proj
I1103 23:16:07.291663 30147 net.cpp:148] Top shape: 50 64 14 14 (627200)
I1103 23:16:07.291697 30147 net.cpp:156] Memory required for data: 1845224400
I1103 23:16:07.291754 30147 layer_factory.hpp:77] Creating layer inception_4a/relu_pool_proj
I1103 23:16:07.291815 30147 net.cpp:91] Creating Layer inception_4a/relu_pool_proj
I1103 23:16:07.291867 30147 net.cpp:425] inception_4a/relu_pool_proj <- inception_4a/pool_proj
I1103 23:16:07.291930 30147 net.cpp:386] inception_4a/relu_pool_proj -> inception_4a/pool_proj (in-place)
I1103 23:16:07.292313 30147 net.cpp:141] Setting up inception_4a/relu_pool_proj
I1103 23:16:07.292351 30147 net.cpp:148] Top shape: 50 64 14 14 (627200)
I1103 23:16:07.292384 30147 net.cpp:156] Memory required for data: 1847733200
I1103 23:16:07.292433 30147 layer_factory.hpp:77] Creating layer inception_4a/output
I1103 23:16:07.292474 30147 net.cpp:91] Creating Layer inception_4a/output
I1103 23:16:07.292507 30147 net.cpp:425] inception_4a/output <- inception_4a/1x1
I1103 23:16:07.292539 30147 net.cpp:425] inception_4a/output <- inception_4a/3x3
I1103 23:16:07.292587 30147 net.cpp:425] inception_4a/output <- inception_4a/5x5
I1103 23:16:07.292618 30147 net.cpp:425] inception_4a/output <- inception_4a/pool_proj
I1103 23:16:07.292652 30147 net.cpp:399] inception_4a/output -> inception_4a/output
I1103 23:16:07.292714 30147 net.cpp:141] Setting up inception_4a/output
I1103 23:16:07.292759 30147 net.cpp:148] Top shape: 50 512 14 14 (5017600)
I1103 23:16:07.292793 30147 net.cpp:156] Memory required for data: 1867803600
I1103 23:16:07.292824 30147 layer_factory.hpp:77] Creating layer inception_4a/output_inception_4a/output_0_split
I1103 23:16:07.292865 30147 net.cpp:91] Creating Layer inception_4a/output_inception_4a/output_0_split
I1103 23:16:07.292908 30147 net.cpp:425] inception_4a/output_inception_4a/output_0_split <- inception_4a/output
I1103 23:16:07.292939 30147 net.cpp:399] inception_4a/output_inception_4a/output_0_split -> inception_4a/output_inception_4a/output_0_split_0
I1103 23:16:07.292979 30147 net.cpp:399] inception_4a/output_inception_4a/output_0_split -> inception_4a/output_inception_4a/output_0_split_1
I1103 23:16:07.293011 30147 net.cpp:399] inception_4a/output_inception_4a/output_0_split -> inception_4a/output_inception_4a/output_0_split_2
I1103 23:16:07.293059 30147 net.cpp:399] inception_4a/output_inception_4a/output_0_split -> inception_4a/output_inception_4a/output_0_split_3
I1103 23:16:07.293093 30147 net.cpp:399] inception_4a/output_inception_4a/output_0_split -> inception_4a/output_inception_4a/output_0_split_4
I1103 23:16:07.293197 30147 net.cpp:141] Setting up inception_4a/output_inception_4a/output_0_split
I1103 23:16:07.293232 30147 net.cpp:148] Top shape: 50 512 14 14 (5017600)
I1103 23:16:07.293279 30147 net.cpp:148] Top shape: 50 512 14 14 (5017600)
I1103 23:16:07.293313 30147 net.cpp:148] Top shape: 50 512 14 14 (5017600)
I1103 23:16:07.293344 30147 net.cpp:148] Top shape: 50 512 14 14 (5017600)
I1103 23:16:07.293378 30147 net.cpp:148] Top shape: 50 512 14 14 (5017600)
I1103 23:16:07.293422 30147 net.cpp:156] Memory required for data: 1968155600
I1103 23:16:07.293459 30147 layer_factory.hpp:77] Creating layer loss1/ave_pool
I1103 23:16:07.293493 30147 net.cpp:91] Creating Layer loss1/ave_pool
I1103 23:16:07.293529 30147 net.cpp:425] loss1/ave_pool <- inception_4a/output_inception_4a/output_0_split_0
I1103 23:16:07.293576 30147 net.cpp:399] loss1/ave_pool -> loss1/ave_pool
I1103 23:16:07.293782 30147 net.cpp:141] Setting up loss1/ave_pool
I1103 23:16:07.293818 30147 net.cpp:148] Top shape: 50 512 4 4 (409600)
I1103 23:16:07.293853 30147 net.cpp:156] Memory required for data: 1969794000
I1103 23:16:07.293897 30147 layer_factory.hpp:77] Creating layer loss1/conv
I1103 23:16:07.293948 30147 net.cpp:91] Creating Layer loss1/conv
I1103 23:16:07.293985 30147 net.cpp:425] loss1/conv <- loss1/ave_pool
I1103 23:16:07.294020 30147 net.cpp:399] loss1/conv -> loss1/conv
I1103 23:16:07.295482 30147 net.cpp:141] Setting up loss1/conv
I1103 23:16:07.295519 30147 net.cpp:148] Top shape: 50 128 4 4 (102400)
I1103 23:16:07.295553 30147 net.cpp:156] Memory required for data: 1970203600
I1103 23:16:07.295586 30147 layer_factory.hpp:77] Creating layer loss1/relu_conv
I1103 23:16:07.295637 30147 net.cpp:91] Creating Layer loss1/relu_conv
I1103 23:16:07.295697 30147 net.cpp:425] loss1/relu_conv <- loss1/conv
I1103 23:16:07.295738 30147 net.cpp:386] loss1/relu_conv -> loss1/conv (in-place)
I1103 23:16:07.295953 30147 net.cpp:141] Setting up loss1/relu_conv
I1103 23:16:07.295996 30147 net.cpp:148] Top shape: 50 128 4 4 (102400)
I1103 23:16:07.296035 30147 net.cpp:156] Memory required for data: 1970613200
I1103 23:16:07.296066 30147 layer_factory.hpp:77] Creating layer loss1/fc
I1103 23:16:07.296128 30147 net.cpp:91] Creating Layer loss1/fc
I1103 23:16:07.296159 30147 net.cpp:425] loss1/fc <- loss1/conv
I1103 23:16:07.296193 30147 net.cpp:399] loss1/fc -> loss1/fc
I1103 23:16:07.309833 30147 net.cpp:141] Setting up loss1/fc
I1103 23:16:07.309880 30147 net.cpp:148] Top shape: 50 1024 (51200)
I1103 23:16:07.309908 30147 net.cpp:156] Memory required for data: 1970818000
I1103 23:16:07.309945 30147 layer_factory.hpp:77] Creating layer loss1/relu_fc
I1103 23:16:07.309983 30147 net.cpp:91] Creating Layer loss1/relu_fc
I1103 23:16:07.310019 30147 net.cpp:425] loss1/relu_fc <- loss1/fc
I1103 23:16:07.310055 30147 net.cpp:386] loss1/relu_fc -> loss1/fc (in-place)
I1103 23:16:07.310494 30147 net.cpp:141] Setting up loss1/relu_fc
I1103 23:16:07.310533 30147 net.cpp:148] Top shape: 50 1024 (51200)
I1103 23:16:07.310564 30147 net.cpp:156] Memory required for data: 1971022800
I1103 23:16:07.310595 30147 layer_factory.hpp:77] Creating layer loss1/drop_fc
I1103 23:16:07.310650 30147 net.cpp:91] Creating Layer loss1/drop_fc
I1103 23:16:07.310683 30147 net.cpp:425] loss1/drop_fc <- loss1/fc
I1103 23:16:07.310719 30147 net.cpp:386] loss1/drop_fc -> loss1/fc (in-place)
I1103 23:16:07.310781 30147 net.cpp:141] Setting up loss1/drop_fc
I1103 23:16:07.310812 30147 net.cpp:148] Top shape: 50 1024 (51200)
I1103 23:16:07.310848 30147 net.cpp:156] Memory required for data: 1971227600
I1103 23:16:07.310880 30147 layer_factory.hpp:77] Creating layer loss1/classifier
I1103 23:16:07.310916 30147 net.cpp:91] Creating Layer loss1/classifier
I1103 23:16:07.310947 30147 net.cpp:425] loss1/classifier <- loss1/fc
I1103 23:16:07.310981 30147 net.cpp:399] loss1/classifier -> loss1/classifier
I1103 23:16:07.317715 30147 net.cpp:141] Setting up loss1/classifier
I1103 23:16:07.317764 30147 net.cpp:148] Top shape: 50 1000 (50000)
I1103 23:16:07.317798 30147 net.cpp:156] Memory required for data: 1971427600
I1103 23:16:07.317845 30147 layer_factory.hpp:77] Creating layer loss1/classifier_loss1/classifier_0_split
I1103 23:16:07.317891 30147 net.cpp:91] Creating Layer loss1/classifier_loss1/classifier_0_split
I1103 23:16:07.317930 30147 net.cpp:425] loss1/classifier_loss1/classifier_0_split <- loss1/classifier
I1103 23:16:07.317973 30147 net.cpp:399] loss1/classifier_loss1/classifier_0_split -> loss1/classifier_loss1/classifier_0_split_0
I1103 23:16:07.318034 30147 net.cpp:399] loss1/classifier_loss1/classifier_0_split -> loss1/classifier_loss1/classifier_0_split_1
I1103 23:16:07.318073 30147 net.cpp:399] loss1/classifier_loss1/classifier_0_split -> loss1/classifier_loss1/classifier_0_split_2
I1103 23:16:07.318163 30147 net.cpp:141] Setting up loss1/classifier_loss1/classifier_0_split
I1103 23:16:07.318202 30147 net.cpp:148] Top shape: 50 1000 (50000)
I1103 23:16:07.318244 30147 net.cpp:148] Top shape: 50 1000 (50000)
I1103 23:16:07.318292 30147 net.cpp:148] Top shape: 50 1000 (50000)
I1103 23:16:07.318330 30147 net.cpp:156] Memory required for data: 1972027600
I1103 23:16:07.318372 30147 layer_factory.hpp:77] Creating layer loss1/loss
I1103 23:16:07.318421 30147 net.cpp:91] Creating Layer loss1/loss
I1103 23:16:07.318469 30147 net.cpp:425] loss1/loss <- loss1/classifier_loss1/classifier_0_split_0
I1103 23:16:07.318516 30147 net.cpp:425] loss1/loss <- label_data_1_split_0
…
I1103 23:16:07.320214 30147 net.cpp:141] Setting up loss1/top-5
I1103 23:16:07.320257 30147 net.cpp:148] Top shape: (1)
I1103 23:16:07.320292 30147 net.cpp:156] Memory required for data: 1972027612
I1103 23:16:07.320325 30147 layer_factory.hpp:77] Creating layer inception_4b/1x1
I1103 23:16:07.320377 30147 net.cpp:91] Creating Layer inception_4b/1x1
I1103 23:16:07.320418 30147 net.cpp:425] inception_4b/1x1 <- inception_4a/output_inception_4a/output_0_split_1
I1103 23:16:07.320458 30147 net.cpp:399] inception_4b/1x1 -> inception_4b/1x1
I1103 23:16:07.322044 30147 net.cpp:141] Setting up inception_4b/1x1
I1103 23:16:07.322087 30147 net.cpp:148] Top shape: 50 160 14 14 (1568000)
I1103 23:16:07.322125 30147 net.cpp:156] Memory required for data: 1978299612
I1103 23:16:07.322170 30147 layer_factory.hpp:77] Creating layer inception_4b/relu_1x1
I1103 23:16:07.322211 30147 net.cpp:91] Creating Layer inception_4b/relu_1x1
I1103 23:16:07.322254 30147 net.cpp:425] inception_4b/relu_1x1 <- inception_4b/1x1
I1103 23:16:07.322302 30147 net.cpp:386] inception_4b/relu_1x1 -> inception_4b/1x1 (in-place)
I1103 23:16:07.322716 30147 net.cpp:141] Setting up inception_4b/relu_1x1
I1103 23:16:07.322762 30147 net.cpp:148] Top shape: 50 160 14 14 (1568000)
I1103 23:16:07.322808 30147 net.cpp:156] Memory required for data: 1984571612
I1103 23:16:07.322852 30147 layer_factory.hpp:77] Creating layer inception_4b/3x3_reduce
I1103 23:16:07.322899 30147 net.cpp:91] Creating Layer inception_4b/3x3_reduce
I1103 23:16:07.322942 30147 net.cpp:425] inception_4b/3x3_reduce <- inception_4a/output_inception_4a/output_0_split_2
I1103 23:16:07.322985 30147 net.cpp:399] inception_4b/3x3_reduce -> inception_4b/3x3_reduce
I1103 23:16:07.324451 30147 net.cpp:141] Setting up inception_4b/3x3_reduce
I1103 23:16:07.324494 30147 net.cpp:148] Top shape: 50 112 14 14 (1097600)
I1103 23:16:07.324537 30147 net.cpp:156] Memory required for data: 1988962012
I1103 23:16:07.324584 30147 layer_factory.hpp:77] Creating layer inception_4b/relu_3x3_reduce
I1103 23:16:07.324630 30147 net.cpp:91] Creating Layer inception_4b/relu_3x3_reduce
I1103 23:16:07.324666 30147 net.cpp:425] inception_4b/relu_3x3_reduce <- inception_4b/3x3_reduce
I1103 23:16:07.324703 30147 net.cpp:386] inception_4b/relu_3x3_reduce -> inception_4b/3x3_reduce (in-place)
I1103 23:16:07.324910 30147 net.cpp:141] Setting up inception_4b/relu_3x3_reduce
I1103 23:16:07.324950 30147 net.cpp:148] Top shape: 50 112 14 14 (1097600)
I1103 23:16:07.324993 30147 net.cpp:156] Memory required for data: 1993352412
I1103 23:16:07.325037 30147 layer_factory.hpp:77] Creating layer inception_4b/3x3
I1103 23:16:07.325084 30147 net.cpp:91] Creating Layer inception_4b/3x3
I1103 23:16:07.325124 30147 net.cpp:425] inception_4b/3x3 <- inception_4b/3x3_reduce
I1103 23:16:07.325166 30147 net.cpp:399] inception_4b/3x3 -> inception_4b/3x3
I1103 23:16:07.328153 30147 net.cpp:141] Setting up inception_4b/3x3
I1103 23:16:07.328197 30147 net.cpp:148] Top shape: 50 224 14 14 (2195200)
I1103 23:16:07.328274 30147 net.cpp:156] Memory required for data: 2002133212
I1103 23:16:07.328325 30147 layer_factory.hpp:77] Creating layer inception_4b/relu_3x3
I1103 23:16:07.328372 30147 net.cpp:91] Creating Layer inception_4b/relu_3x3
I1103 23:16:07.328413 30147 net.cpp:425] inception_4b/relu_3x3 <- inception_4b/3x3
I1103 23:16:07.328461 30147 net.cpp:386] inception_4b/relu_3x3 -> inception_4b/3x3 (in-place)
I1103 23:16:07.328670 30147 net.cpp:141] Setting up inception_4b/relu_3x3
I1103 23:16:07.328708 30147 net.cpp:148] Top shape: 50 224 14 14 (2195200)
I1103 23:16:07.328747 30147 net.cpp:156] Memory required for data: 2010914012
I1103 23:16:07.328783 30147 layer_factory.hpp:77] Creating layer inception_4b/5x5_reduce
I1103 23:16:07.328824 30147 net.cpp:91] Creating Layer inception_4b/5x5_reduce
I1103 23:16:07.328852 30147 net.cpp:425] inception_4b/5x5_reduce <- inception_4a/output_inception_4a/output_0_split_3
I1103 23:16:07.328882 30147 net.cpp:399] inception_4b/5x5_reduce -> inception_4b/5x5_reduce
I1103 23:16:07.330049 30147 net.cpp:141] Setting up inception_4b/5x5_reduce
I1103 23:16:07.330085 30147 net.cpp:148] Top shape: 50 24 14 14 (235200)
I1103 23:16:07.330116 30147 net.cpp:156] Memory required for data: 2011854812
I1103 23:16:07.330149 30147 layer_factory.hpp:77] Creating layer inception_4b/relu_5x5_reduce
I1103 23:16:07.330183 30147 net.cpp:91] Creating Layer inception_4b/relu_5x5_reduce
I1103 23:16:07.330215 30147 net.cpp:425] inception_4b/relu_5x5_reduce <- inception_4b/5x5_reduce
I1103 23:16:07.330255 30147 net.cpp:386] inception_4b/relu_5x5_reduce -> inception_4b/5x5_reduce (in-place)
I1103 23:16:07.330641 30147 net.cpp:141] Setting up inception_4b/relu_5x5_reduce
I1103 23:16:07.330673 30147 net.cpp:148] Top shape: 50 24 14 14 (235200)
I1103 23:16:07.330706 30147 net.cpp:156] Memory required for data: 2012795612
I1103 23:16:07.330735 30147 layer_factory.hpp:77] Creating layer inception_4b/5x5
I1103 23:16:07.330776 30147 net.cpp:91] Creating Layer inception_4b/5x5
I1103 23:16:07.330808 30147 net.cpp:425] inception_4b/5x5 <- inception_4b/5x5_reduce
I1103 23:16:07.330842 30147 net.cpp:399] inception_4b/5x5 -> inception_4b/5x5
I1103 23:16:07.332180 30147 net.cpp:141] Setting up inception_4b/5x5
I1103 23:16:07.332217 30147 net.cpp:148] Top shape: 50 64 14 14 (627200)
I1103 23:16:07.332244 30147 net.cpp:156] Memory required for data: 2015304412
I1103 23:16:07.332279 30147 layer_factory.hpp:77] Creating layer inception_4b/relu_5x5
I1103 23:16:07.332311 30147 net.cpp:91] Creating Layer inception_4b/relu_5x5
I1103 23:16:07.332342 30147 net.cpp:425] inception_4b/relu_5x5 <- inception_4b/5x5
I1103 23:16:07.332381 30147 net.cpp:386] inception_4b/relu_5x5 -> inception_4b/5x5 (in-place)
I1103 23:16:07.332574 30147 net.cpp:141] Setting up inception_4b/relu_5x5
I1103 23:16:07.332607 30147 net.cpp:148] Top shape: 50 64 14 14 (627200)
I1103 23:16:07.332635 30147 net.cpp:156] Memory required for data: 2017813212
I1103 23:16:07.332666 30147 layer_factory.hpp:77] Creating layer inception_4b/pool
I1103 23:16:07.332703 30147 net.cpp:91] Creating Layer inception_4b/pool
I1103 23:16:07.332732 30147 net.cpp:425] inception_4b/pool <- inception_4a/output_inception_4a/output_0_split_4
I1103 23:16:07.332767 30147 net.cpp:399] inception_4b/pool -> inception_4b/pool
I1103 23:16:07.332840 30147 net.cpp:141] Setting up inception_4b/pool
I1103 23:16:07.332875 30147 net.cpp:148] Top shape: 50 512 14 14 (5017600)
I1103 23:16:07.332903 30147 net.cpp:156] Memory required for data: 2037883612
I1103 23:16:07.332931 30147 layer_factory.hpp:77] Creating layer inception_4b/pool_proj
I1103 23:16:07.332965 30147 net.cpp:91] Creating Layer inception_4b/pool_proj
I1103 23:16:07.332996 30147 net.cpp:425] inception_4b/pool_proj <- inception_4b/pool
I1103 23:16:07.333031 30147 net.cpp:399] inception_4b/pool_proj -> inception_4b/pool_proj
I1103 23:16:07.334501 30147 net.cpp:141] Setting up inception_4b/pool_proj
I1103 23:16:07.334535 30147 net.cpp:148] Top shape: 50 64 14 14 (627200)
I1103 23:16:07.334568 30147 net.cpp:156] Memory required for data: 2040392412
I1103 23:16:07.334630 30147 layer_factory.hpp:77] Creating layer inception_4b/relu_pool_proj
I1103 23:16:07.334671 30147 net.cpp:91] Creating Layer inception_4b/relu_pool_proj
I1103 23:16:07.334705 30147 net.cpp:425] inception_4b/relu_pool_proj <- inception_4b/pool_proj
I1103 23:16:07.334738 30147 net.cpp:386] inception_4b/relu_pool_proj -> inception_4b/pool_proj (in-place)
I1103 23:16:07.334965 30147 net.cpp:141] Setting up inception_4b/relu_pool_proj
I1103 23:16:07.335000 30147 net.cpp:148] Top shape: 50 64 14 14 (627200)
I1103 23:16:07.335032 30147 net.cpp:156] Memory required for data: 2042901212
I1103 23:16:07.335063 30147 layer_factory.hpp:77] Creating layer inception_4b/output
I1103 23:16:07.335100 30147 net.cpp:91] Creating Layer inception_4b/output
I1103 23:16:07.335134 30147 net.cpp:425] inception_4b/output <- inception_4b/1x1
I1103 23:16:07.335168 30147 net.cpp:425] inception_4b/output <- inception_4b/3x3
I1103 23:16:07.335203 30147 net.cpp:425] inception_4b/output <- inception_4b/5x5
I1103 23:16:07.335237 30147 net.cpp:425] inception_4b/output <- inception_4b/pool_proj
I1103 23:16:07.335271 30147 net.cpp:399] inception_4b/output -> inception_4b/output
I1103 23:16:07.335333 30147 net.cpp:141] Setting up inception_4b/output
I1103 23:16:07.335363 30147 net.cpp:148] Top shape: 50 512 14 14 (5017600)
I1103 23:16:07.335396 30147 net.cpp:156] Memory required for data: 2062971612
I1103 23:16:07.335427 30147 layer_factory.hpp:77] Creating layer inception_4b/output_inception_4b/output_0_split
I1103 23:16:07.335464 30147 net.cpp:91] Creating Layer inception_4b/output_inception_4b/output_0_split
I1103 23:16:07.335495 30147 net.cpp:425] inception_4b/output_inception_4b/output_0_split <- inception_4b/output
I1103 23:16:07.335532 30147 net.cpp:399] inception_4b/output_inception_4b/output_0_split -> inception_4b/output_inception_4b/output_0_split_0
I1103 23:16:07.335561 30147 net.cpp:399] inception_4b/output_inception_4b/output_0_split -> inception_4b/output_inception_4b/output_0_split_1
I1103 23:16:07.335597 30147 net.cpp:399] inception_4b/output_inception_4b/output_0_split -> inception_4b/output_inception_4b/output_0_split_2
I1103 23:16:07.335633 30147 net.cpp:399] inception_4b/output_inception_4b/output_0_split -> inception_4b/output_inception_4b/output_0_split_3
I1103 23:16:07.335721 30147 net.cpp:141] Setting up inception_4b/output_inception_4b/output_0_split
I1103 23:16:07.335757 30147 net.cpp:148] Top shape: 50 512 14 14 (5017600)
I1103 23:16:07.335789 30147 net.cpp:148] Top shape: 50 512 14 14 (5017600)
I1103 23:16:07.335816 30147 net.cpp:148] Top shape: 50 512 14 14 (5017600)
I1103 23:16:07.335866 30147 net.cpp:148] Top shape: 50 512 14 14 (5017600)
I1103 23:16:07.335898 30147 net.cpp:156] Memory required for data: 2143253212
I1103 23:16:07.335927 30147 layer_factory.hpp:77] Creating layer inception_4c/1x1
I1103 23:16:07.335958 30147 net.cpp:91] Creating Layer inception_4c/1x1
I1103 23:16:07.335989 30147 net.cpp:425] inception_4c/1x1 <- inception_4b/output_inception_4b/output_0_split_0
I1103 23:16:07.336020 30147 net.cpp:399] inception_4c/1x1 -> inception_4c/1x1
I1103 23:16:07.337482 30147 net.cpp:141] Setting up inception_4c/1x1
I1103 23:16:07.337518 30147 net.cpp:148] Top shape: 50 128 14 14 (1254400)
I1103 23:16:07.337548 30147 net.cpp:156] Memory required for data: 2148270812
I1103 23:16:07.337584 30147 layer_factory.hpp:77] Creating layer inception_4c/relu_1x1
I1103 23:16:07.337618 30147 net.cpp:91] Creating Layer inception_4c/relu_1x1
I1103 23:16:07.337652 30147 net.cpp:425] inception_4c/relu_1x1 <- inception_4c/1x1
I1103 23:16:07.337684 30147 net.cpp:386] inception_4c/relu_1x1 -> inception_4c/1x1 (in-place)
I1103 23:16:07.338076 30147 net.cpp:141] Setting up inception_4c/relu_1x1
I1103 23:16:07.338114 30147 net.cpp:148] Top shape: 50 128 14 14 (1254400)
I1103 23:16:07.338142 30147 net.cpp:156] Memory required for data: 2153288412
I1103 23:16:07.338177 30147 layer_factory.hpp:77] Creating layer inception_4c/3x3_reduce
I1103 23:16:07.338217 30147 net.cpp:91] Creating Layer inception_4c/3x3_reduce
I1103 23:16:07.338273 30147 net.cpp:425] inception_4c/3x3_reduce <- inception_4b/output_inception_4b/output_0_split_1
I1103 23:16:07.338313 30147 net.cpp:399] inception_4c/3x3_reduce -> inception_4c/3x3_reduce
I1103 23:16:07.340246 30147 net.cpp:141] Setting up inception_4c/3x3_reduce
I1103 23:16:07.340284 30147 net.cpp:148] Top shape: 50 128 14 14 (1254400)
I1103 23:16:07.340315 30147 net.cpp:156] Memory required for data: 2158306012
I1103 23:16:07.340359 30147 layer_factory.hpp:77] Creating layer inception_4c/relu_3x3_reduce
I1103 23:16:07.340394 30147 net.cpp:91] Creating Layer inception_4c/relu_3x3_reduce
I1103 23:16:07.340427 30147 net.cpp:425] inception_4c/relu_3x3_reduce <- inception_4c/3x3_reduce
I1103 23:16:07.340464 30147 net.cpp:386] inception_4c/relu_3x3_reduce -> inception_4c/3x3_reduce (in-place)
I1103 23:16:07.340658 30147 net.cpp:141] Setting up inception_4c/relu_3x3_reduce
I1103 23:16:07.340694 30147 net.cpp:148] Top shape: 50 128 14 14 (1254400)
I1103 23:16:07.340724 30147 net.cpp:156] Memory required for data: 2163323612
I1103 23:16:07.340757 30147 layer_factory.hpp:77] Creating layer inception_4c/3x3
I1103 23:16:07.340796 30147 net.cpp:91] Creating Layer inception_4c/3x3
I1103 23:16:07.340828 30147 net.cpp:425] inception_4c/3x3 <- inception_4c/3x3_reduce
I1103 23:16:07.340865 30147 net.cpp:399] inception_4c/3x3 -> inception_4c/3x3
I1103 23:16:07.344230 30147 net.cpp:141] Setting up inception_4c/3x3
I1103 23:16:07.344270 30147 net.cpp:148] Top shape: 50 256 14 14 (2508800)
I1103 23:16:07.344300 30147 net.cpp:156] Memory required for data: 2173358812
I1103 23:16:07.344349 30147 layer_factory.hpp:77] Creating layer inception_4c/relu_3x3
I1103 23:16:07.344383 30147 net.cpp:91] Creating Layer inception_4c/relu_3x3
I1103 23:16:07.344415 30147 net.cpp:425] inception_4c/relu_3x3 <- inception_4c/3x3
I1103 23:16:07.344449 30147 net.cpp:386] inception_4c/relu_3x3 -> inception_4c/3x3 (in-place)
I1103 23:16:07.344645 30147 net.cpp:141] Setting up inception_4c/relu_3x3
I1103 23:16:07.344678 30147 net.cpp:148] Top shape: 50 256 14 14 (2508800)
I1103 23:16:07.344709 30147 net.cpp:156] Memory required for data: 2183394012
I1103 23:16:07.344743 30147 layer_factory.hpp:77] Creating layer inception_4c/5x5_reduce
I1103 23:16:07.344784 30147 net.cpp:91] Creating Layer inception_4c/5x5_reduce
I1103 23:16:07.344815 30147 net.cpp:425] inception_4c/5x5_reduce <- inception_4b/output_inception_4b/output_0_split_2
I1103 23:16:07.344848 30147 net.cpp:399] inception_4c/5x5_reduce -> inception_4c/5x5_reduce
I1103 23:16:07.346035 30147 net.cpp:141] Setting up inception_4c/5x5_reduce
I1103 23:16:07.346072 30147 net.cpp:148] Top shape: 50 24 14 14 (235200)
I1103 23:16:07.346108 30147 net.cpp:156] Memory required for data: 2184334812
I1103 23:16:07.346143 30147 layer_factory.hpp:77] Creating layer inception_4c/relu_5x5_reduce
I1103 23:16:07.346176 30147 net.cpp:91] Creating Layer inception_4c/relu_5x5_reduce
I1103 23:16:07.346213 30147 net.cpp:425] inception_4c/relu_5x5_reduce <- inception_4c/5x5_reduce
I1103 23:16:07.346246 30147 net.cpp:386] inception_4c/relu_5x5_reduce -> inception_4c/5x5_reduce (in-place)
I1103 23:16:07.346640 30147 net.cpp:141] Setting up inception_4c/relu_5x5_reduce
I1103 23:16:07.346676 30147 net.cpp:148] Top shape: 50 24 14 14 (235200)
I1103 23:16:07.346709 30147 net.cpp:156] Memory required for data: 2185275612
I1103 23:16:07.346740 30147 layer_factory.hpp:77] Creating layer inception_4c/5x5
I1103 23:16:07.346782 30147 net.cpp:91] Creating Layer inception_4c/5x5
I1103 23:16:07.346813 30147 net.cpp:425] inception_4c/5x5 <- inception_4c/5x5_reduce
I1103 23:16:07.346850 30147 net.cpp:399] inception_4c/5x5 -> inception_4c/5x5
I1103 23:16:07.348208 30147 net.cpp:141] Setting up inception_4c/5x5
I1103 23:16:07.348243 30147 net.cpp:148] Top shape: 50 64 14 14 (627200)
I1103 23:16:07.348275 30147 net.cpp:156] Memory required for data: 2187784412
I1103 23:16:07.348312 30147 layer_factory.hpp:77] Creating layer inception_4c/relu_5x5
I1103 23:16:07.348352 30147 net.cpp:91] Creating Layer inception_4c/relu_5x5
I1103 23:16:07.348412 30147 net.cpp:425] inception_4c/relu_5x5 <- inception_4c/5x5
I1103 23:16:07.348462 30147 net.cpp:386] inception_4c/relu_5x5 -> inception_4c/5x5 (in-place)
I1103 23:16:07.348669 30147 net.cpp:141] Setting up inception_4c/relu_5x5
I1103 23:16:07.348706 30147 net.cpp:148] Top shape: 50 64 14 14 (627200)
I1103 23:16:07.348740 30147 net.cpp:156] Memory required for data: 2190293212
I1103 23:16:07.348772 30147 layer_factory.hpp:77] Creating layer inception_4c/pool
I1103 23:16:07.348810 30147 net.cpp:91] Creating Layer inception_4c/pool
I1103 23:16:07.348847 30147 net.cpp:425] inception_4c/pool <- inception_4b/output_inception_4b/output_0_split_3
I1103 23:16:07.348881 30147 net.cpp:399] inception_4c/pool -> inception_4c/pool
I1103 23:16:07.348966 30147 net.cpp:141] Setting up inception_4c/pool
I1103 23:16:07.348999 30147 net.cpp:148] Top shape: 50 512 14 14 (5017600)
I1103 23:16:07.349031 30147 net.cpp:156] Memory required for data: 2210363612
I1103 23:16:07.349064 30147 layer_factory.hpp:77] Creating layer inception_4c/pool_proj
I1103 23:16:07.349103 30147 net.cpp:91] Creating Layer inception_4c/pool_proj
I1103 23:16:07.349134 30147 net.cpp:425] inception_4c/pool_proj <- inception_4c/pool
I1103 23:16:07.349169 30147 net.cpp:399] inception_4c/pool_proj -> inception_4c/pool_proj
I1103 23:16:07.350464 30147 net.cpp:141] Setting up inception_4c/pool_proj
I1103 23:16:07.350498 30147 net.cpp:148] Top shape: 50 64 14 14 (627200)
I1103 23:16:07.350528 30147 net.cpp:156] Memory required for data: 2212872412
I1103 23:16:07.350564 30147 layer_factory.hpp:77] Creating layer inception_4c/relu_pool_proj
I1103 23:16:07.350597 30147 net.cpp:91] Creating Layer inception_4c/relu_pool_proj
I1103 23:16:07.350628 30147 net.cpp:425] inception_4c/relu_pool_proj <- inception_4c/pool_proj
I1103 23:16:07.350661 30147 net.cpp:386] inception_4c/relu_pool_proj -> inception_4c/pool_proj (in-place)
I1103 23:16:07.350855 30147 net.cpp:141] Setting up inception_4c/relu_pool_proj
I1103 23:16:07.350893 30147 net.cpp:148] Top shape: 50 64 14 14 (627200)
I1103 23:16:07.350931 30147 net.cpp:156] Memory required for data: 2215381212
I1103 23:16:07.350965 30147 layer_factory.hpp:77] Creating layer inception_4c/output
I1103 23:16:07.351002 30147 net.cpp:91] Creating Layer inception_4c/output
I1103 23:16:07.351034 30147 net.cpp:425] inception_4c/output <- inception_4c/1x1
I1103 23:16:07.351069 30147 net.cpp:425] inception_4c/output <- inception_4c/3x3
I1103 23:16:07.351104 30147 net.cpp:425] inception_4c/output <- inception_4c/5x5
I1103 23:16:07.351137 30147 net.cpp:425] inception_4c/output <- inception_4c/pool_proj
I1103 23:16:07.351171 30147 net.cpp:399] inception_4c/output -> inception_4c/output
I1103 23:16:07.351240 30147 net.cpp:141] Setting up inception_4c/output
I1103 23:16:07.351274 30147 net.cpp:148] Top shape: 50 512 14 14 (5017600)
I1103 23:16:07.351307 30147 net.cpp:156] Memory required for data: 2235451612
I1103 23:16:07.351339 30147 layer_factory.hpp:77] Creating layer inception_4c/output_inception_4c/output_0_split
I1103 23:16:07.351378 30147 net.cpp:91] Creating Layer inception_4c/output_inception_4c/output_0_split
I1103 23:16:07.351410 30147 net.cpp:425] inception_4c/output_inception_4c/output_0_split <- inception_4c/output
I1103 23:16:07.351449 30147 net.cpp:399] inception_4c/output_inception_4c/output_0_split -> inception_4c/output_inception_4c/output_0_split_0
I1103 23:16:07.351481 30147 net.cpp:399] inception_4c/output_inception_4c/output_0_split -> inception_4c/output_inception_4c/output_0_split_1
I1103 23:16:07.351517 30147 net.cpp:399] inception_4c/output_inception_4c/output_0_split -> inception_4c/output_inception_4c/output_0_split_2
I1103 23:16:07.351552 30147 net.cpp:399] inception_4c/output_inception_4c/output_0_split -> inception_4c/output_inception_4c/output_0_split_3
I1103 23:16:07.351649 30147 net.cpp:141] Setting up inception_4c/output_inception_4c/output_0_split
I1103 23:16:07.351682 30147 net.cpp:148] Top shape: 50 512 14 14 (5017600)
I1103 23:16:07.351716 30147 net.cpp:148] Top shape: 50 512 14 14 (5017600)
I1103 23:16:07.351775 30147 net.cpp:148] Top shape: 50 512 14 14 (5017600)
I1103 23:16:07.351817 30147 net.cpp:148] Top shape: 50 512 14 14 (5017600)
I1103 23:16:07.351860 30147 net.cpp:156] Memory required for data: 2315733212
I1103 23:16:07.351889 30147 layer_factory.hpp:77] Creating layer inception_4d/1x1
I1103 23:16:07.351927 30147 net.cpp:91] Creating Layer inception_4d/1x1
I1103 23:16:07.351958 30147 net.cpp:425] inception_4d/1x1 <- inception_4c/output_inception_4c/output_0_split_0
I1103 23:16:07.351992 30147 net.cpp:399] inception_4d/1x1 -> inception_4d/1x1
I1103 23:16:07.353430 30147 net.cpp:141] Setting up inception_4d/1x1
I1103 23:16:07.353463 30147 net.cpp:148] Top shape: 50 112 14 14 (1097600)
I1103 23:16:07.353493 30147 net.cpp:156] Memory required for data: 2320123612
I1103 23:16:07.353528 30147 layer_factory.hpp:77] Creating layer inception_4d/relu_1x1
I1103 23:16:07.353564 30147 net.cpp:91] Creating Layer inception_4d/relu_1x1
I1103 23:16:07.353593 30147 net.cpp:425] inception_4d/relu_1x1 <- inception_4d/1x1
I1103 23:16:07.353627 30147 net.cpp:386] inception_4d/relu_1x1 -> inception_4d/1x1 (in-place)
I1103 23:16:07.354030 30147 net.cpp:141] Setting up inception_4d/relu_1x1
I1103 23:16:07.354068 30147 net.cpp:148] Top shape: 50 112 14 14 (1097600)
I1103 23:16:07.354095 30147 net.cpp:156] Memory required for data: 2324514012
I1103 23:16:07.354131 30147 layer_factory.hpp:77] Creating layer inception_4d/3x3_reduce
I1103 23:16:07.354167 30147 net.cpp:91] Creating Layer inception_4d/3x3_reduce
I1103 23:16:07.354198 30147 net.cpp:425] inception_4d/3x3_reduce <- inception_4c/output_inception_4c/output_0_split_1
I1103 23:16:07.354226 30147 net.cpp:399] inception_4d/3x3_reduce -> inception_4d/3x3_reduce
I1103 23:16:07.355967 30147 net.cpp:141] Setting up inception_4d/3x3_reduce
I1103 23:16:07.355998 30147 net.cpp:148] Top shape: 50 144 14 14 (1411200)
I1103 23:16:07.356034 30147 net.cpp:156] Memory required for data: 2330158812
I1103 23:16:07.356062 30147 layer_factory.hpp:77] Creating layer inception_4d/relu_3x3_reduce
I1103 23:16:07.356094 30147 net.cpp:91] Creating Layer inception_4d/relu_3x3_reduce
I1103 23:16:07.356119 30147 net.cpp:425] inception_4d/relu_3x3_reduce <- inception_4d/3x3_reduce
I1103 23:16:07.356149 30147 net.cpp:386] inception_4d/relu_3x3_reduce -> inception_4d/3x3_reduce (in-place)
I1103 23:16:07.356339 30147 net.cpp:141] Setting up inception_4d/relu_3x3_reduce
I1103 23:16:07.356375 30147 net.cpp:148] Top shape: 50 144 14 14 (1411200)
I1103 23:16:07.356405 30147 net.cpp:156] Memory required for data: 2335803612
I1103 23:16:07.356434 30147 layer_factory.hpp:77] Creating layer inception_4d/3x3
I1103 23:16:07.356472 30147 net.cpp:91] Creating Layer inception_4d/3x3
I1103 23:16:07.356503 30147 net.cpp:425] inception_4d/3x3 <- inception_4d/3x3_reduce
I1103 23:16:07.356537 30147 net.cpp:399] inception_4d/3x3 -> inception_4d/3x3
I1103 23:16:07.360376 30147 net.cpp:141] Setting up inception_4d/3x3
I1103 23:16:07.360414 30147 net.cpp:148] Top shape: 50 288 14 14 (2822400)
I1103 23:16:07.360450 30147 net.cpp:156] Memory required for data: 2347093212
I1103 23:16:07.360483 30147 layer_factory.hpp:77] Creating layer inception_4d/relu_3x3
I1103 23:16:07.360518 30147 net.cpp:91] Creating Layer inception_4d/relu_3x3
I1103 23:16:07.360551 30147 net.cpp:425] inception_4d/relu_3x3 <- inception_4d/3x3
I1103 23:16:07.360584 30147 net.cpp:386] inception_4d/relu_3x3 -> inception_4d/3x3 (in-place)
I1103 23:16:07.360790 30147 net.cpp:141] Setting up inception_4d/relu_3x3
I1103 23:16:07.360823 30147 net.cpp:148] Top shape: 50 288 14 14 (2822400)
I1103 23:16:07.360857 30147 net.cpp:156] Memory required for data: 2358382812
I1103 23:16:07.360890 30147 layer_factory.hpp:77] Creating layer inception_4d/5x5_reduce
I1103 23:16:07.360925 30147 net.cpp:91] Creating Layer inception_4d/5x5_reduce
I1103 23:16:07.360955 30147 net.cpp:425] inception_4d/5x5_reduce <- inception_4c/output_inception_4c/output_0_split_2
I1103 23:16:07.360994 30147 net.cpp:399] inception_4d/5x5_reduce -> inception_4d/5x5_reduce
I1103 23:16:07.362236 30147 net.cpp:141] Setting up inception_4d/5x5_reduce
I1103 23:16:07.362296 30147 net.cpp:148] Top shape: 50 32 14 14 (313600)
I1103 23:16:07.362332 30147 net.cpp:156] Memory required for data: 2359637212
I1103 23:16:07.362370 30147 layer_factory.hpp:77] Creating layer inception_4d/relu_5x5_reduce
I1103 23:16:07.362404 30147 net.cpp:91] Creating Layer inception_4d/relu_5x5_reduce
I1103 23:16:07.362434 30147 net.cpp:425] inception_4d/relu_5x5_reduce <- inception_4d/5x5_reduce
I1103 23:16:07.362471 30147 net.cpp:386] inception_4d/relu_5x5_reduce -> inception_4d/5x5_reduce (in-place)
I1103 23:16:07.362855 30147 net.cpp:141] Setting up inception_4d/relu_5x5_reduce
I1103 23:16:07.362891 30147 net.cpp:148] Top shape: 50 32 14 14 (313600)
I1103 23:16:07.362923 30147 net.cpp:156] Memory required for data: 2360891612
I1103 23:16:07.362958 30147 layer_factory.hpp:77] Creating layer inception_4d/5x5
I1103 23:16:07.362993 30147 net.cpp:91] Creating Layer inception_4d/5x5
I1103 23:16:07.363024 30147 net.cpp:425] inception_4d/5x5 <- inception_4d/5x5_reduce
I1103 23:16:07.363062 30147 net.cpp:399] inception_4d/5x5 -> inception_4d/5x5
I1103 23:16:07.364516 30147 net.cpp:141] Setting up inception_4d/5x5
I1103 23:16:07.364552 30147 net.cpp:148] Top shape: 50 64 14 14 (627200)
I1103 23:16:07.364581 30147 net.cpp:156] Memory required for data: 2363400412
I1103 23:16:07.364616 30147 layer_factory.hpp:77] Creating layer inception_4d/relu_5x5
I1103 23:16:07.364650 30147 net.cpp:91] Creating Layer inception_4d/relu_5x5
I1103 23:16:07.364681 30147 net.cpp:425] inception_4d/relu_5x5 <- inception_4d/5x5
I1103 23:16:07.364711 30147 net.cpp:386] inception_4d/relu_5x5 -> inception_4d/5x5 (in-place)
I1103 23:16:07.364905 30147 net.cpp:141] Setting up inception_4d/relu_5x5
I1103 23:16:07.364938 30147 net.cpp:148] Top shape: 50 64 14 14 (627200)
I1103 23:16:07.364969 30147 net.cpp:156] Memory required for data: 2365909212
I1103 23:16:07.365005 30147 layer_factory.hpp:77] Creating layer inception_4d/pool
I1103 23:16:07.365042 30147 net.cpp:91] Creating Layer inception_4d/pool
I1103 23:16:07.365080 30147 net.cpp:425] inception_4d/pool <- inception_4c/output_inception_4c/output_0_split_3
I1103 23:16:07.365113 30147 net.cpp:399] inception_4d/pool -> inception_4d/pool
I1103 23:16:07.365198 30147 net.cpp:141] Setting up inception_4d/pool
I1103 23:16:07.365234 30147 net.cpp:148] Top shape: 50 512 14 14 (5017600)
I1103 23:16:07.365264 30147 net.cpp:156] Memory required for data: 2385979612
I1103 23:16:07.365299 30147 layer_factory.hpp:77] Creating layer inception_4d/pool_proj
I1103 23:16:07.365339 30147 net.cpp:91] Creating Layer inception_4d/pool_proj
I1103 23:16:07.365370 30147 net.cpp:425] inception_4d/pool_proj <- inception_4d/pool
I1103 23:16:07.365404 30147 net.cpp:399] inception_4d/pool_proj -> inception_4d/pool_proj
I1103 23:16:07.367162 30147 net.cpp:141] Setting up inception_4d/pool_proj
I1103 23:16:07.367239 30147 net.cpp:148] Top shape: 50 64 14 14 (627200)
I1103 23:16:07.367276 30147 net.cpp:156] Memory required for data: 2388488412
I1103 23:16:07.367319 30147 layer_factory.hpp:77] Creating layer inception_4d/relu_pool_proj
I1103 23:16:07.367360 30147 net.cpp:91] Creating Layer inception_4d/relu_pool_proj
I1103 23:16:07.367394 30147 net.cpp:425] inception_4d/relu_pool_proj <- inception_4d/pool_proj
I1103 23:16:07.367429 30147 net.cpp:386] inception_4d/relu_pool_proj -> inception_4d/pool_proj (in-place)
I1103 23:16:07.367636 30147 net.cpp:141] Setting up inception_4d/relu_pool_proj
I1103 23:16:07.367674 30147 net.cpp:148] Top shape: 50 64 14 14 (627200)
I1103 23:16:07.367720 30147 net.cpp:156] Memory required for data: 2390997212
I1103 23:16:07.367759 30147 layer_factory.hpp:77] Creating layer inception_4d/output
I1103 23:16:07.367799 30147 net.cpp:91] Creating Layer inception_4d/output
I1103 23:16:07.367861 30147 net.cpp:425] inception_4d/output <- inception_4d/1x1
I1103 23:16:07.367899 30147 net.cpp:425] inception_4d/output <- inception_4d/3x3
I1103 23:16:07.367931 30147 net.cpp:425] inception_4d/output <- inception_4d/5x5
I1103 23:16:07.367970 30147 net.cpp:425] inception_4d/output <- inception_4d/pool_proj
I1103 23:16:07.368049 30147 net.cpp:399] inception_4d/output -> inception_4d/output
I1103 23:16:07.368119 30147 net.cpp:141] Setting up inception_4d/output
I1103 23:16:07.368161 30147 net.cpp:148] Top shape: 50 528 14 14 (5174400)
I1103 23:16:07.368201 30147 net.cpp:156] Memory required for data: 2411694812
I1103 23:16:07.368239 30147 layer_factory.hpp:77] Creating layer inception_4d/output_inception_4d/output_0_split
I1103 23:16:07.368283 30147 net.cpp:91] Creating Layer inception_4d/output_inception_4d/output_0_split
I1103 23:16:07.368324 30147 net.cpp:425] inception_4d/output_inception_4d/output_0_split <- inception_4d/output
I1103 23:16:07.368360 30147 net.cpp:399] inception_4d/output_inception_4d/output_0_split -> inception_4d/output_inception_4d/output_0_split_0
I1103 23:16:07.368401 30147 net.cpp:399] inception_4d/output_inception_4d/output_0_split -> inception_4d/output_inception_4d/output_0_split_1
I1103 23:16:07.368443 30147 net.cpp:399] inception_4d/output_inception_4d/output_0_split -> inception_4d/output_inception_4d/output_0_split_2
I1103 23:16:07.368484 30147 net.cpp:399] inception_4d/output_inception_4d/output_0_split -> inception_4d/output_inception_4d/output_0_split_3
I1103 23:16:07.368527 30147 net.cpp:399] inception_4d/output_inception_4d/output_0_split -> inception_4d/output_inception_4d/output_0_split_4
I1103 23:16:07.368662 30147 net.cpp:141] Setting up inception_4d/output_inception_4d/output_0_split
I1103 23:16:07.368700 30147 net.cpp:148] Top shape: 50 528 14 14 (5174400)
I1103 23:16:07.368744 30147 net.cpp:148] Top shape: 50 528 14 14 (5174400)
I1103 23:16:07.368779 30147 net.cpp:148] Top shape: 50 528 14 14 (5174400)
I1103 23:16:07.368813 30147 net.cpp:148] Top shape: 50 528 14 14 (5174400)
I1103 23:16:07.368849 30147 net.cpp:148] Top shape: 50 528 14 14 (5174400)
I1103 23:16:07.368882 30147 net.cpp:156] Memory required for data: 2515182812
I1103 23:16:07.368917 30147 layer_factory.hpp:77] Creating layer loss2/ave_pool
I1103 23:16:07.368957 30147 net.cpp:91] Creating Layer loss2/ave_pool
I1103 23:16:07.368995 30147 net.cpp:425] loss2/ave_pool <- inception_4d/output_inception_4d/output_0_split_0
I1103 23:16:07.369027 30147 net.cpp:399] loss2/ave_pool -> loss2/ave_pool
I1103 23:16:07.369432 30147 net.cpp:141] Setting up loss2/ave_pool
I1103 23:16:07.369472 30147 net.cpp:148] Top shape: 50 528 4 4 (422400)
I1103 23:16:07.369504 30147 net.cpp:156] Memory required for data: 2516872412
I1103 23:16:07.369544 30147 layer_factory.hpp:77] Creating layer loss2/conv
I1103 23:16:07.369585 30147 net.cpp:91] Creating Layer loss2/conv
I1103 23:16:07.369621 30147 net.cpp:425] loss2/conv <- loss2/ave_pool
I1103 23:16:07.369660 30147 net.cpp:399] loss2/conv -> loss2/conv
I1103 23:16:07.371582 30147 net.cpp:141] Setting up loss2/conv
I1103 23:16:07.371620 30147 net.cpp:148] Top shape: 50 128 4 4 (102400)
I1103 23:16:07.371655 30147 net.cpp:156] Memory required for data: 2517282012
I1103 23:16:07.371698 30147 layer_factory.hpp:77] Creating layer loss2/relu_conv
I1103 23:16:07.371738 30147 net.cpp:91] Creating Layer loss2/relu_conv
I1103 23:16:07.371783 30147 net.cpp:425] loss2/relu_conv <- loss2/conv
I1103 23:16:07.371824 30147 net.cpp:386] loss2/relu_conv -> loss2/conv (in-place)
I1103 23:16:07.372020 30147 net.cpp:141] Setting up loss2/relu_conv
I1103 23:16:07.372056 30147 net.cpp:148] Top shape: 50 128 4 4 (102400)
I1103 23:16:07.372090 30147 net.cpp:156] Memory required for data: 2517691612
I1103 23:16:07.372133 30147 layer_factory.hpp:77] Creating layer loss2/fc
I1103 23:16:07.372174 30147 net.cpp:91] Creating Layer loss2/fc
I1103 23:16:07.372211 30147 net.cpp:425] loss2/fc <- loss2/conv
I1103 23:16:07.372247 30147 net.cpp:399] loss2/fc -> loss2/fc
I1103 23:16:07.385720 30147 net.cpp:141] Setting up loss2/fc
I1103 23:16:07.385771 30147 net.cpp:148] Top shape: 50 1024 (51200)
I1103 23:16:07.385809 30147 net.cpp:156] Memory required for data: 2517896412
I1103 23:16:07.385850 30147 layer_factory.hpp:77] Creating layer loss2/relu_fc
I1103 23:16:07.385887 30147 net.cpp:91] Creating Layer loss2/relu_fc
I1103 23:16:07.385946 30147 net.cpp:425] loss2/relu_fc <- loss2/fc
I1103 23:16:07.385993 30147 net.cpp:386] loss2/relu_fc -> loss2/fc (in-place)
I1103 23:16:07.386411 30147 net.cpp:141] Setting up loss2/relu_fc
I1103 23:16:07.386451 30147 net.cpp:148] Top shape: 50 1024 (51200)
I1103 23:16:07.386487 30147 net.cpp:156] Memory required for data: 2518101212
I1103 23:16:07.386521 30147 layer_factory.hpp:77] Creating layer loss2/drop_fc
I1103 23:16:07.386560 30147 net.cpp:91] Creating Layer loss2/drop_fc
I1103 23:16:07.386598 30147 net.cpp:425] loss2/drop_fc <- loss2/fc
I1103 23:16:07.386636 30147 net.cpp:386] loss2/drop_fc -> loss2/fc (in-place)
I1103 23:16:07.386699 30147 net.cpp:141] Setting up loss2/drop_fc
I1103 23:16:07.386735 30147 net.cpp:148] Top shape: 50 1024 (51200)
I1103 23:16:07.386765 30147 net.cpp:156] Memory required for data: 2518306012
I1103 23:16:07.386800 30147 layer_factory.hpp:77] Creating layer loss2/classifier
I1103 23:16:07.386837 30147 net.cpp:91] Creating Layer loss2/classifier
I1103 23:16:07.386873 30147 net.cpp:425] loss2/classifier <- loss2/fc
I1103 23:16:07.386909 30147 net.cpp:399] loss2/classifier -> loss2/classifier
I1103 23:16:07.393718 30147 net.cpp:141] Setting up loss2/classifier
I1103 23:16:07.393760 30147 net.cpp:148] Top shape: 50 1000 (50000)
I1103 23:16:07.393786 30147 net.cpp:156] Memory required for data: 2518506012
I1103 23:16:07.393817 30147 layer_factory.hpp:77] Creating layer loss2/classifier_loss2/classifier_0_split
I1103 23:16:07.393856 30147 net.cpp:91] Creating Layer loss2/classifier_loss2/classifier_0_split
I1103 23:16:07.393880 30147 net.cpp:425] loss2/classifier_loss2/classifier_0_split <- loss2/classifier
I1103 23:16:07.393914 30147 net.cpp:399] loss2/classifier_loss2/classifier_0_split -> loss2/classifier_loss2/classifier_0_split_0
I1103 23:16:07.393954 30147 net.cpp:399] loss2/classifier_loss2/classifier_0_split -> loss2/classifier_loss2/classifier_0_split_1
I1103 23:16:07.393982 30147 net.cpp:399] loss2/classifier_loss2/classifier_0_split -> loss2/classifier_loss2/classifier_0_split_2
I1103 23:16:07.394063 30147 net.cpp:141] Setting up loss2/classifier_loss2/classifier_0_split
I1103 23:16:07.394093 30147 net.cpp:148] Top shape: 50 1000 (50000)
I1103 23:16:07.394121 30147 net.cpp:148] Top shape: 50 1000 (50000)
I1103 23:16:07.394148 30147 net.cpp:148] Top shape: 50 1000 (50000)
I1103 23:16:07.394179 30147 net.cpp:156] Memory required for data: 2519106012
I1103 23:16:07.394212 30147 layer_factory.hpp:77] Creating layer loss2/loss
I1103 23:16:07.394243 30147 net.cpp:91] Creating Layer loss2/loss
I1103 23:16:07.394271 30147 net.cpp:425] loss2/loss <- loss2/classifier_loss2/classifier_0_split_0
I1103 23:16:07.394309 30147 net.cpp:425] loss2/loss <- label_data_1_split_3
…
I1103 23:16:07.395236 30147 net.cpp:141] Setting up loss2/top-5
I1103 23:16:07.395263 30147 net.cpp:148] Top shape: (1)
I1103 23:16:07.395289 30147 net.cpp:156] Memory required for data: 2519106024
I1103 23:16:07.395320 30147 layer_factory.hpp:77] Creating layer inception_4e/1x1
I1103 23:16:07.395354 30147 net.cpp:91] Creating Layer inception_4e/1x1
I1103 23:16:07.395386 30147 net.cpp:425] inception_4e/1x1 <- inception_4d/output_inception_4d/output_0_split_1
I1103 23:16:07.395417 30147 net.cpp:399] inception_4e/1x1 -> inception_4e/1x1
I1103 23:16:07.397339 30147 net.cpp:141] Setting up inception_4e/1x1
I1103 23:16:07.397379 30147 net.cpp:148] Top shape: 50 256 14 14 (2508800)
I1103 23:16:07.397410 30147 net.cpp:156] Memory required for data: 2529141224
I1103 23:16:07.397442 30147 layer_factory.hpp:77] Creating layer inception_4e/relu_1x1
I1103 23:16:07.397475 30147 net.cpp:91] Creating Layer inception_4e/relu_1x1
I1103 23:16:07.397507 30147 net.cpp:425] inception_4e/relu_1x1 <- inception_4e/1x1
I1103 23:16:07.397541 30147 net.cpp:386] inception_4e/relu_1x1 -> inception_4e/1x1 (in-place)
I1103 23:16:07.397928 30147 net.cpp:141] Setting up inception_4e/relu_1x1
I1103 23:16:07.397964 30147 net.cpp:148] Top shape: 50 256 14 14 (2508800)
I1103 23:16:07.397995 30147 net.cpp:156] Memory required for data: 2539176424
I1103 23:16:07.398028 30147 layer_factory.hpp:77] Creating layer inception_4e/3x3_reduce
I1103 23:16:07.398074 30147 net.cpp:91] Creating Layer inception_4e/3x3_reduce
I1103 23:16:07.398107 30147 net.cpp:425] inception_4e/3x3_reduce <- inception_4d/output_inception_4d/output_0_split_2
I1103 23:16:07.398139 30147 net.cpp:399] inception_4e/3x3_reduce -> inception_4e/3x3_reduce
I1103 23:16:07.400197 30147 net.cpp:141] Setting up inception_4e/3x3_reduce
I1103 23:16:07.400241 30147 net.cpp:148] Top shape: 50 160 14 14 (1568000)
I1103 23:16:07.400274 30147 net.cpp:156] Memory required for data: 2545448424
I1103 23:16:07.400310 30147 layer_factory.hpp:77] Creating layer inception_4e/relu_3x3_reduce
I1103 23:16:07.400341 30147 net.cpp:91] Creating Layer inception_4e/relu_3x3_reduce
I1103 23:16:07.400372 30147 net.cpp:425] inception_4e/relu_3x3_reduce <- inception_4e/3x3_reduce
I1103 23:16:07.400403 30147 net.cpp:386] inception_4e/relu_3x3_reduce -> inception_4e/3x3_reduce (in-place)
I1103 23:16:07.400781 30147 net.cpp:141] Setting up inception_4e/relu_3x3_reduce
I1103 23:16:07.400818 30147 net.cpp:148] Top shape: 50 160 14 14 (1568000)
I1103 23:16:07.400852 30147 net.cpp:156] Memory required for data: 2551720424
I1103 23:16:07.400887 30147 layer_factory.hpp:77] Creating layer inception_4e/3x3
I1103 23:16:07.400923 30147 net.cpp:91] Creating Layer inception_4e/3x3
I1103 23:16:07.400959 30147 net.cpp:425] inception_4e/3x3 <- inception_4e/3x3_reduce
I1103 23:16:07.400993 30147 net.cpp:399] inception_4e/3x3 -> inception_4e/3x3
I1103 23:16:07.405388 30147 net.cpp:141] Setting up inception_4e/3x3
I1103 23:16:07.405427 30147 net.cpp:148] Top shape: 50 320 14 14 (3136000)
I1103 23:16:07.405464 30147 net.cpp:156] Memory required for data: 2564264424
I1103 23:16:07.405500 30147 layer_factory.hpp:77] Creating layer inception_4e/relu_3x3
I1103 23:16:07.405536 30147 net.cpp:91] Creating Layer inception_4e/relu_3x3
I1103 23:16:07.405571 30147 net.cpp:425] inception_4e/relu_3x3 <- inception_4e/3x3
I1103 23:16:07.405613 30147 net.cpp:386] inception_4e/relu_3x3 -> inception_4e/3x3 (in-place)
I1103 23:16:07.405807 30147 net.cpp:141] Setting up inception_4e/relu_3x3
I1103 23:16:07.405840 30147 net.cpp:148] Top shape: 50 320 14 14 (3136000)
I1103 23:16:07.405870 30147 net.cpp:156] Memory required for data: 2576808424
I1103 23:16:07.405902 30147 layer_factory.hpp:77] Creating layer inception_4e/5x5_reduce
I1103 23:16:07.405944 30147 net.cpp:91] Creating Layer inception_4e/5x5_reduce
I1103 23:16:07.405982 30147 net.cpp:425] inception_4e/5x5_reduce <- inception_4d/output_inception_4d/output_0_split_3
I1103 23:16:07.406015 30147 net.cpp:399] inception_4e/5x5_reduce -> inception_4e/5x5_reduce
I1103 23:16:07.407304 30147 net.cpp:141] Setting up inception_4e/5x5_reduce
I1103 23:16:07.407351 30147 net.cpp:148] Top shape: 50 32 14 14 (313600)
I1103 23:16:07.407382 30147 net.cpp:156] Memory required for data: 2578062824
I1103 23:16:07.407419 30147 layer_factory.hpp:77] Creating layer inception_4e/relu_5x5_reduce
I1103 23:16:07.407455 30147 net.cpp:91] Creating Layer inception_4e/relu_5x5_reduce
I1103 23:16:07.407487 30147 net.cpp:425] inception_4e/relu_5x5_reduce <- inception_4e/5x5_reduce
I1103 23:16:07.407522 30147 net.cpp:386] inception_4e/relu_5x5_reduce -> inception_4e/5x5_reduce (in-place)
I1103 23:16:07.407929 30147 net.cpp:141] Setting up inception_4e/relu_5x5_reduce
I1103 23:16:07.407968 30147 net.cpp:148] Top shape: 50 32 14 14 (313600)
I1103 23:16:07.408001 30147 net.cpp:156] Memory required for data: 2579317224
I1103 23:16:07.408033 30147 layer_factory.hpp:77] Creating layer inception_4e/5x5
I1103 23:16:07.408071 30147 net.cpp:91] Creating Layer inception_4e/5x5
I1103 23:16:07.408104 30147 net.cpp:425] inception_4e/5x5 <- inception_4e/5x5_reduce
I1103 23:16:07.408140 30147 net.cpp:399] inception_4e/5x5 -> inception_4e/5x5
I1103 23:16:07.409865 30147 net.cpp:141] Setting up inception_4e/5x5
I1103 23:16:07.409904 30147 net.cpp:148] Top shape: 50 128 14 14 (1254400)
I1103 23:16:07.409934 30147 net.cpp:156] Memory required for data: 2584334824
I1103 23:16:07.409970 30147 layer_factory.hpp:77] Creating layer inception_4e/relu_5x5
I1103 23:16:07.410001 30147 net.cpp:91] Creating Layer inception_4e/relu_5x5
I1103 23:16:07.410032 30147 net.cpp:425] inception_4e/relu_5x5 <- inception_4e/5x5
I1103 23:16:07.410068 30147 net.cpp:386] inception_4e/relu_5x5 -> inception_4e/5x5 (in-place)
I1103 23:16:07.410254 30147 net.cpp:141] Setting up inception_4e/relu_5x5
I1103 23:16:07.410295 30147 net.cpp:148] Top shape: 50 128 14 14 (1254400)
I1103 23:16:07.410326 30147 net.cpp:156] Memory required for data: 2589352424
I1103 23:16:07.410356 30147 layer_factory.hpp:77] Creating layer inception_4e/pool
I1103 23:16:07.410388 30147 net.cpp:91] Creating Layer inception_4e/pool
I1103 23:16:07.410423 30147 net.cpp:425] inception_4e/pool <- inception_4d/output_inception_4d/output_0_split_4
I1103 23:16:07.410457 30147 net.cpp:399] inception_4e/pool -> inception_4e/pool
I1103 23:16:07.410538 30147 net.cpp:141] Setting up inception_4e/pool
I1103 23:16:07.410573 30147 net.cpp:148] Top shape: 50 528 14 14 (5174400)
I1103 23:16:07.410606 30147 net.cpp:156] Memory required for data: 2610050024
I1103 23:16:07.410636 30147 layer_factory.hpp:77] Creating layer inception_4e/pool_proj
I1103 23:16:07.410676 30147 net.cpp:91] Creating Layer inception_4e/pool_proj
I1103 23:16:07.410708 30147 net.cpp:425] inception_4e/pool_proj <- inception_4e/pool
I1103 23:16:07.410742 30147 net.cpp:399] inception_4e/pool_proj -> inception_4e/pool_proj
I1103 23:16:07.412271 30147 net.cpp:141] Setting up inception_4e/pool_proj
I1103 23:16:07.412309 30147 net.cpp:148] Top shape: 50 128 14 14 (1254400)
I1103 23:16:07.412343 30147 net.cpp:156] Memory required for data: 2615067624
I1103 23:16:07.412376 30147 layer_factory.hpp:77] Creating layer inception_4e/relu_pool_proj
I1103 23:16:07.412413 30147 net.cpp:91] Creating Layer inception_4e/relu_pool_proj
I1103 23:16:07.412446 30147 net.cpp:425] inception_4e/relu_pool_proj <- inception_4e/pool_proj
I1103 23:16:07.412480 30147 net.cpp:386] inception_4e/relu_pool_proj -> inception_4e/pool_proj (in-place)
I1103 23:16:07.412664 30147 net.cpp:141] Setting up inception_4e/relu_pool_proj
I1103 23:16:07.412703 30147 net.cpp:148] Top shape: 50 128 14 14 (1254400)
I1103 23:16:07.412734 30147 net.cpp:156] Memory required for data: 2620085224
I1103 23:16:07.412763 30147 layer_factory.hpp:77] Creating layer inception_4e/output
I1103 23:16:07.412799 30147 net.cpp:91] Creating Layer inception_4e/output
I1103 23:16:07.412830 30147 net.cpp:425] inception_4e/output <- inception_4e/1x1
I1103 23:16:07.412863 30147 net.cpp:425] inception_4e/output <- inception_4e/3x3
I1103 23:16:07.412895 30147 net.cpp:425] inception_4e/output <- inception_4e/5x5
I1103 23:16:07.412955 30147 net.cpp:425] inception_4e/output <- inception_4e/pool_proj
I1103 23:16:07.412994 30147 net.cpp:399] inception_4e/output -> inception_4e/output
I1103 23:16:07.413058 30147 net.cpp:141] Setting up inception_4e/output
I1103 23:16:07.413091 30147 net.cpp:148] Top shape: 50 832 14 14 (8153600)
I1103 23:16:07.413122 30147 net.cpp:156] Memory required for data: 2652699624
I1103 23:16:07.413151 30147 layer_factory.hpp:77] Creating layer pool4/3x3_s2
I1103 23:16:07.413183 30147 net.cpp:91] Creating Layer pool4/3x3_s2
I1103 23:16:07.413213 30147 net.cpp:425] pool4/3x3_s2 <- inception_4e/output
I1103 23:16:07.413246 30147 net.cpp:399] pool4/3x3_s2 -> pool4/3x3_s2
I1103 23:16:07.413317 30147 net.cpp:141] Setting up pool4/3x3_s2
I1103 23:16:07.413349 30147 net.cpp:148] Top shape: 50 832 7 7 (2038400)
I1103 23:16:07.413378 30147 net.cpp:156] Memory required for data: 2660853224
I1103 23:16:07.413414 30147 layer_factory.hpp:77] Creating layer pool4/3x3_s2_pool4/3x3_s2_0_split
I1103 23:16:07.413445 30147 net.cpp:91] Creating Layer pool4/3x3_s2_pool4/3x3_s2_0_split
I1103 23:16:07.413472 30147 net.cpp:425] pool4/3x3_s2_pool4/3x3_s2_0_split <- pool4/3x3_s2
I1103 23:16:07.413503 30147 net.cpp:399] pool4/3x3_s2_pool4/3x3_s2_0_split -> pool4/3x3_s2_pool4/3x3_s2_0_split_0
I1103 23:16:07.413537 30147 net.cpp:399] pool4/3x3_s2_pool4/3x3_s2_0_split -> pool4/3x3_s2_pool4/3x3_s2_0_split_1
I1103 23:16:07.413568 30147 net.cpp:399] pool4/3x3_s2_pool4/3x3_s2_0_split -> pool4/3x3_s2_pool4/3x3_s2_0_split_2
I1103 23:16:07.413611 30147 net.cpp:399] pool4/3x3_s2_pool4/3x3_s2_0_split -> pool4/3x3_s2_pool4/3x3_s2_0_split_3
I1103 23:16:07.413702 30147 net.cpp:141] Setting up pool4/3x3_s2_pool4/3x3_s2_0_split
I1103 23:16:07.413736 30147 net.cpp:148] Top shape: 50 832 7 7 (2038400)
I1103 23:16:07.413766 30147 net.cpp:148] Top shape: 50 832 7 7 (2038400)
I1103 23:16:07.413796 30147 net.cpp:148] Top shape: 50 832 7 7 (2038400)
I1103 23:16:07.413825 30147 net.cpp:148] Top shape: 50 832 7 7 (2038400)
I1103 23:16:07.413856 30147 net.cpp:156] Memory required for data: 2693467624
I1103 23:16:07.413884 30147 layer_factory.hpp:77] Creating layer inception_5a/1x1
I1103 23:16:07.413919 30147 net.cpp:91] Creating Layer inception_5a/1x1
I1103 23:16:07.413952 30147 net.cpp:425] inception_5a/1x1 <- pool4/3x3_s2_pool4/3x3_s2_0_split_0
I1103 23:16:07.413986 30147 net.cpp:399] inception_5a/1x1 -> inception_5a/1x1
I1103 23:16:07.416725 30147 net.cpp:141] Setting up inception_5a/1x1
I1103 23:16:07.416766 30147 net.cpp:148] Top shape: 50 256 7 7 (627200)
I1103 23:16:07.416797 30147 net.cpp:156] Memory required for data: 2695976424
I1103 23:16:07.416833 30147 layer_factory.hpp:77] Creating layer inception_5a/relu_1x1
I1103 23:16:07.416867 30147 net.cpp:91] Creating Layer inception_5a/relu_1x1
I1103 23:16:07.416898 30147 net.cpp:425] inception_5a/relu_1x1 <- inception_5a/1x1
I1103 23:16:07.416936 30147 net.cpp:386] inception_5a/relu_1x1 -> inception_5a/1x1 (in-place)
I1103 23:16:07.417325 30147 net.cpp:141] Setting up inception_5a/relu_1x1
I1103 23:16:07.417359 30147 net.cpp:148] Top shape: 50 256 7 7 (627200)
I1103 23:16:07.417390 30147 net.cpp:156] Memory required for data: 2698485224
I1103 23:16:07.417421 30147 layer_factory.hpp:77] Creating layer inception_5a/3x3_reduce
I1103 23:16:07.417457 30147 net.cpp:91] Creating Layer inception_5a/3x3_reduce
I1103 23:16:07.417492 30147 net.cpp:425] inception_5a/3x3_reduce <- pool4/3x3_s2_pool4/3x3_s2_0_split_1
I1103 23:16:07.417528 30147 net.cpp:399] inception_5a/3x3_reduce -> inception_5a/3x3_reduce
I1103 23:16:07.419875 30147 net.cpp:141] Setting up inception_5a/3x3_reduce
I1103 23:16:07.419914 30147 net.cpp:148] Top shape: 50 160 7 7 (392000)
I1103 23:16:07.419947 30147 net.cpp:156] Memory required for data: 2700053224
I1103 23:16:07.419982 30147 layer_factory.hpp:77] Creating layer inception_5a/relu_3x3_reduce
I1103 23:16:07.420017 30147 net.cpp:91] Creating Layer inception_5a/relu_3x3_reduce
I1103 23:16:07.420053 30147 net.cpp:425] inception_5a/relu_3x3_reduce <- inception_5a/3x3_reduce
I1103 23:16:07.420119 30147 net.cpp:386] inception_5a/relu_3x3_reduce -> inception_5a/3x3_reduce (in-place)
I1103 23:16:07.420316 30147 net.cpp:141] Setting up inception_5a/relu_3x3_reduce
I1103 23:16:07.420354 30147 net.cpp:148] Top shape: 50 160 7 7 (392000)
I1103 23:16:07.420387 30147 net.cpp:156] Memory required for data: 2701621224
I1103 23:16:07.420416 30147 layer_factory.hpp:77] Creating layer inception_5a/3x3
I1103 23:16:07.420459 30147 net.cpp:91] Creating Layer inception_5a/3x3
I1103 23:16:07.420491 30147 net.cpp:425] inception_5a/3x3 <- inception_5a/3x3_reduce
I1103 23:16:07.420532 30147 net.cpp:399] inception_5a/3x3 -> inception_5a/3x3
I1103 23:16:07.424976 30147 net.cpp:141] Setting up inception_5a/3x3
I1103 23:16:07.425015 30147 net.cpp:148] Top shape: 50 320 7 7 (784000)
I1103 23:16:07.425051 30147 net.cpp:156] Memory required for data: 2704757224
I1103 23:16:07.425087 30147 layer_factory.hpp:77] Creating layer inception_5a/relu_3x3
I1103 23:16:07.425127 30147 net.cpp:91] Creating Layer inception_5a/relu_3x3
I1103 23:16:07.425163 30147 net.cpp:425] inception_5a/relu_3x3 <- inception_5a/3x3
I1103 23:16:07.425197 30147 net.cpp:386] inception_5a/relu_3x3 -> inception_5a/3x3 (in-place)
I1103 23:16:07.425392 30147 net.cpp:141] Setting up inception_5a/relu_3x3
I1103 23:16:07.425427 30147 net.cpp:148] Top shape: 50 320 7 7 (784000)
I1103 23:16:07.425457 30147 net.cpp:156] Memory required for data: 2707893224
I1103 23:16:07.425488 30147 layer_factory.hpp:77] Creating layer inception_5a/5x5_reduce
I1103 23:16:07.425528 30147 net.cpp:91] Creating Layer inception_5a/5x5_reduce
I1103 23:16:07.425561 30147 net.cpp:425] inception_5a/5x5_reduce <- pool4/3x3_s2_pool4/3x3_s2_0_split_2
I1103 23:16:07.425601 30147 net.cpp:399] inception_5a/5x5_reduce -> inception_5a/5x5_reduce
I1103 23:16:07.427126 30147 net.cpp:141] Setting up inception_5a/5x5_reduce
I1103 23:16:07.427170 30147 net.cpp:148] Top shape: 50 32 7 7 (78400)
I1103 23:16:07.427204 30147 net.cpp:156] Memory required for data: 2708206824
I1103 23:16:07.427237 30147 layer_factory.hpp:77] Creating layer inception_5a/relu_5x5_reduce
I1103 23:16:07.427276 30147 net.cpp:91] Creating Layer inception_5a/relu_5x5_reduce
I1103 23:16:07.427312 30147 net.cpp:425] inception_5a/relu_5x5_reduce <- inception_5a/5x5_reduce
I1103 23:16:07.427345 30147 net.cpp:386] inception_5a/relu_5x5_reduce -> inception_5a/5x5_reduce (in-place)
I1103 23:16:07.427930 30147 net.cpp:141] Setting up inception_5a/relu_5x5_reduce
I1103 23:16:07.427969 30147 net.cpp:148] Top shape: 50 32 7 7 (78400)
I1103 23:16:07.428000 30147 net.cpp:156] Memory required for data: 2708520424
I1103 23:16:07.428032 30147 layer_factory.hpp:77] Creating layer inception_5a/5x5
I1103 23:16:07.428069 30147 net.cpp:91] Creating Layer inception_5a/5x5
I1103 23:16:07.428107 30147 net.cpp:425] inception_5a/5x5 <- inception_5a/5x5_reduce
I1103 23:16:07.428143 30147 net.cpp:399] inception_5a/5x5 -> inception_5a/5x5
I1103 23:16:07.431424 30147 net.cpp:141] Setting up inception_5a/5x5
I1103 23:16:07.431473 30147 net.cpp:148] Top shape: 50 128 7 7 (313600)
I1103 23:16:07.431506 30147 net.cpp:156] Memory required for data: 2709774824
I1103 23:16:07.431543 30147 layer_factory.hpp:77] Creating layer inception_5a/relu_5x5
I1103 23:16:07.431581 30147 net.cpp:91] Creating Layer inception_5a/relu_5x5
I1103 23:16:07.431615 30147 net.cpp:425] inception_5a/relu_5x5 <- inception_5a/5x5
I1103 23:16:07.431648 30147 net.cpp:386] inception_5a/relu_5x5 -> inception_5a/5x5 (in-place)
I1103 23:16:07.431851 30147 net.cpp:141] Setting up inception_5a/relu_5x5
I1103 23:16:07.431886 30147 net.cpp:148] Top shape: 50 128 7 7 (313600)
I1103 23:16:07.431921 30147 net.cpp:156] Memory required for data: 2711029224
I1103 23:16:07.431951 30147 layer_factory.hpp:77] Creating layer inception_5a/pool
I1103 23:16:07.431988 30147 net.cpp:91] Creating Layer inception_5a/pool
I1103 23:16:07.432023 30147 net.cpp:425] inception_5a/pool <- pool4/3x3_s2_pool4/3x3_s2_0_split_3
I1103 23:16:07.432055 30147 net.cpp:399] inception_5a/pool -> inception_5a/pool
I1103 23:16:07.432166 30147 net.cpp:141] Setting up inception_5a/pool
I1103 23:16:07.432214 30147 net.cpp:148] Top shape: 50 832 7 7 (2038400)
I1103 23:16:07.432245 30147 net.cpp:156] Memory required for data: 2719182824
I1103 23:16:07.432281 30147 layer_factory.hpp:77] Creating layer inception_5a/pool_proj
I1103 23:16:07.432320 30147 net.cpp:91] Creating Layer inception_5a/pool_proj
I1103 23:16:07.432353 30147 net.cpp:425] inception_5a/pool_proj <- inception_5a/pool
I1103 23:16:07.432386 30147 net.cpp:399] inception_5a/pool_proj -> inception_5a/pool_proj
I1103 23:16:07.434576 30147 net.cpp:141] Setting up inception_5a/pool_proj
I1103 23:16:07.434617 30147 net.cpp:148] Top shape: 50 128 7 7 (313600)
I1103 23:16:07.434650 30147 net.cpp:156] Memory required for data: 2720437224
I1103 23:16:07.434685 30147 layer_factory.hpp:77] Creating layer inception_5a/relu_pool_proj
I1103 23:16:07.434723 30147 net.cpp:91] Creating Layer inception_5a/relu_pool_proj
I1103 23:16:07.434756 30147 net.cpp:425] inception_5a/relu_pool_proj <- inception_5a/pool_proj
I1103 23:16:07.434790 30147 net.cpp:386] inception_5a/relu_pool_proj -> inception_5a/pool_proj (in-place)
I1103 23:16:07.434980 30147 net.cpp:141] Setting up inception_5a/relu_pool_proj
I1103 23:16:07.435016 30147 net.cpp:148] Top shape: 50 128 7 7 (313600)
I1103 23:16:07.435045 30147 net.cpp:156] Memory required for data: 2721691624
I1103 23:16:07.435086 30147 layer_factory.hpp:77] Creating layer inception_5a/output
I1103 23:16:07.435118 30147 net.cpp:91] Creating Layer inception_5a/output
I1103 23:16:07.435151 30147 net.cpp:425] inception_5a/output <- inception_5a/1x1
I1103 23:16:07.435184 30147 net.cpp:425] inception_5a/output <- inception_5a/3x3
I1103 23:16:07.435219 30147 net.cpp:425] inception_5a/output <- inception_5a/5x5
I1103 23:16:07.435252 30147 net.cpp:425] inception_5a/output <- inception_5a/pool_proj
I1103 23:16:07.435287 30147 net.cpp:399] inception_5a/output -> inception_5a/output
I1103 23:16:07.435353 30147 net.cpp:141] Setting up inception_5a/output
I1103 23:16:07.435386 30147 net.cpp:148] Top shape: 50 832 7 7 (2038400)
I1103 23:16:07.435418 30147 net.cpp:156] Memory required for data: 2729845224
I1103 23:16:07.435452 30147 layer_factory.hpp:77] Creating layer inception_5a/output_inception_5a/output_0_split
I1103 23:16:07.435488 30147 net.cpp:91] Creating Layer inception_5a/output_inception_5a/output_0_split
I1103 23:16:07.435518 30147 net.cpp:425] inception_5a/output_inception_5a/output_0_split <- inception_5a/output
I1103 23:16:07.435554 30147 net.cpp:399] inception_5a/output_inception_5a/output_0_split -> inception_5a/output_inception_5a/output_0_split_0
I1103 23:16:07.435586 30147 net.cpp:399] inception_5a/output_inception_5a/output_0_split -> inception_5a/output_inception_5a/output_0_split_1
I1103 23:16:07.435618 30147 net.cpp:399] inception_5a/output_inception_5a/output_0_split -> inception_5a/output_inception_5a/output_0_split_2
I1103 23:16:07.435653 30147 net.cpp:399] inception_5a/output_inception_5a/output_0_split -> inception_5a/output_inception_5a/output_0_split_3
I1103 23:16:07.435755 30147 net.cpp:141] Setting up inception_5a/output_inception_5a/output_0_split
I1103 23:16:07.435789 30147 net.cpp:148] Top shape: 50 832 7 7 (2038400)
I1103 23:16:07.435818 30147 net.cpp:148] Top shape: 50 832 7 7 (2038400)
I1103 23:16:07.435868 30147 net.cpp:148] Top shape: 50 832 7 7 (2038400)
I1103 23:16:07.435897 30147 net.cpp:148] Top shape: 50 832 7 7 (2038400)
I1103 23:16:07.435927 30147 net.cpp:156] Memory required for data: 2762459624
I1103 23:16:07.435961 30147 layer_factory.hpp:77] Creating layer inception_5b/1x1
I1103 23:16:07.435999 30147 net.cpp:91] Creating Layer inception_5b/1x1
I1103 23:16:07.436031 30147 net.cpp:425] inception_5b/1x1 <- inception_5a/output_inception_5a/output_0_split_0
I1103 23:16:07.436070 30147 net.cpp:399] inception_5b/1x1 -> inception_5b/1x1
I1103 23:16:07.439450 30147 net.cpp:141] Setting up inception_5b/1x1
I1103 23:16:07.439491 30147 net.cpp:148] Top shape: 50 384 7 7 (940800)
I1103 23:16:07.439527 30147 net.cpp:156] Memory required for data: 2766222824
I1103 23:16:07.439594 30147 layer_factory.hpp:77] Creating layer inception_5b/relu_1x1
I1103 23:16:07.439642 30147 net.cpp:91] Creating Layer inception_5b/relu_1x1
I1103 23:16:07.439676 30147 net.cpp:425] inception_5b/relu_1x1 <- inception_5b/1x1
I1103 23:16:07.439712 30147 net.cpp:386] inception_5b/relu_1x1 -> inception_5b/1x1 (in-place)
I1103 23:16:07.440117 30147 net.cpp:141] Setting up inception_5b/relu_1x1
I1103 23:16:07.440157 30147 net.cpp:148] Top shape: 50 384 7 7 (940800)
I1103 23:16:07.440191 30147 net.cpp:156] Memory required for data: 2769986024
I1103 23:16:07.440227 30147 layer_factory.hpp:77] Creating layer inception_5b/3x3_reduce
I1103 23:16:07.440264 30147 net.cpp:91] Creating Layer inception_5b/3x3_reduce
I1103 23:16:07.440299 30147 net.cpp:425] inception_5b/3x3_reduce <- inception_5a/output_inception_5a/output_0_split_1
I1103 23:16:07.440335 30147 net.cpp:399] inception_5b/3x3_reduce -> inception_5b/3x3_reduce
I1103 23:16:07.442829 30147 net.cpp:141] Setting up inception_5b/3x3_reduce
I1103 23:16:07.442867 30147 net.cpp:148] Top shape: 50 192 7 7 (470400)
I1103 23:16:07.442896 30147 net.cpp:156] Memory required for data: 2771867624
I1103 23:16:07.442929 30147 layer_factory.hpp:77] Creating layer inception_5b/relu_3x3_reduce
I1103 23:16:07.442965 30147 net.cpp:91] Creating Layer inception_5b/relu_3x3_reduce
I1103 23:16:07.442998 30147 net.cpp:425] inception_5b/relu_3x3_reduce <- inception_5b/3x3_reduce
I1103 23:16:07.443034 30147 net.cpp:386] inception_5b/relu_3x3_reduce -> inception_5b/3x3_reduce (in-place)
I1103 23:16:07.443224 30147 net.cpp:141] Setting up inception_5b/relu_3x3_reduce
I1103 23:16:07.443260 30147 net.cpp:148] Top shape: 50 192 7 7 (470400)
I1103 23:16:07.443295 30147 net.cpp:156] Memory required for data: 2773749224
I1103 23:16:07.443328 30147 layer_factory.hpp:77] Creating layer inception_5b/3x3
I1103 23:16:07.443362 30147 net.cpp:91] Creating Layer inception_5b/3x3
I1103 23:16:07.443397 30147 net.cpp:425] inception_5b/3x3 <- inception_5b/3x3_reduce
I1103 23:16:07.443435 30147 net.cpp:399] inception_5b/3x3 -> inception_5b/3x3
I1103 23:16:07.449196 30147 net.cpp:141] Setting up inception_5b/3x3
I1103 23:16:07.449237 30147 net.cpp:148] Top shape: 50 384 7 7 (940800)
I1103 23:16:07.449270 30147 net.cpp:156] Memory required for data: 2777512424
I1103 23:16:07.449307 30147 layer_factory.hpp:77] Creating layer inception_5b/relu_3x3
I1103 23:16:07.449338 30147 net.cpp:91] Creating Layer inception_5b/relu_3x3
I1103 23:16:07.449373 30147 net.cpp:425] inception_5b/relu_3x3 <- inception_5b/3x3
I1103 23:16:07.449409 30147 net.cpp:386] inception_5b/relu_3x3 -> inception_5b/3x3 (in-place)
I1103 23:16:07.449612 30147 net.cpp:141] Setting up inception_5b/relu_3x3
I1103 23:16:07.449650 30147 net.cpp:148] Top shape: 50 384 7 7 (940800)
I1103 23:16:07.449681 30147 net.cpp:156] Memory required for data: 2781275624
I1103 23:16:07.449713 30147 layer_factory.hpp:77] Creating layer inception_5b/5x5_reduce
I1103 23:16:07.449750 30147 net.cpp:91] Creating Layer inception_5b/5x5_reduce
I1103 23:16:07.449787 30147 net.cpp:425] inception_5b/5x5_reduce <- inception_5a/output_inception_5a/output_0_split_2
I1103 23:16:07.449827 30147 net.cpp:399] inception_5b/5x5_reduce -> inception_5b/5x5_reduce
I1103 23:16:07.451300 30147 net.cpp:141] Setting up inception_5b/5x5_reduce
I1103 23:16:07.451341 30147 net.cpp:148] Top shape: 50 48 7 7 (117600)
I1103 23:16:07.451375 30147 net.cpp:156] Memory required for data: 2781746024
I1103 23:16:07.451409 30147 layer_factory.hpp:77] Creating layer inception_5b/relu_5x5_reduce
I1103 23:16:07.451448 30147 net.cpp:91] Creating Layer inception_5b/relu_5x5_reduce
I1103 23:16:07.451483 30147 net.cpp:425] inception_5b/relu_5x5_reduce <- inception_5b/5x5_reduce
I1103 23:16:07.451524 30147 net.cpp:386] inception_5b/relu_5x5_reduce -> inception_5b/5x5_reduce (in-place)
I1103 23:16:07.451927 30147 net.cpp:141] Setting up inception_5b/relu_5x5_reduce
I1103 23:16:07.451966 30147 net.cpp:148] Top shape: 50 48 7 7 (117600)
I1103 23:16:07.452003 30147 net.cpp:156] Memory required for data: 2782216424
I1103 23:16:07.452066 30147 layer_factory.hpp:77] Creating layer inception_5b/5x5
I1103 23:16:07.452119 30147 net.cpp:91] Creating Layer inception_5b/5x5
I1103 23:16:07.452159 30147 net.cpp:425] inception_5b/5x5 <- inception_5b/5x5_reduce
I1103 23:16:07.452194 30147 net.cpp:399] inception_5b/5x5 -> inception_5b/5x5
I1103 23:16:07.454255 30147 net.cpp:141] Setting up inception_5b/5x5
I1103 23:16:07.454295 30147 net.cpp:148] Top shape: 50 128 7 7 (313600)
I1103 23:16:07.454329 30147 net.cpp:156] Memory required for data: 2783470824
I1103 23:16:07.454365 30147 layer_factory.hpp:77] Creating layer inception_5b/relu_5x5
I1103 23:16:07.454397 30147 net.cpp:91] Creating Layer inception_5b/relu_5x5
I1103 23:16:07.454432 30147 net.cpp:425] inception_5b/relu_5x5 <- inception_5b/5x5
I1103 23:16:07.454468 30147 net.cpp:386] inception_5b/relu_5x5 -> inception_5b/5x5 (in-place)
I1103 23:16:07.454658 30147 net.cpp:141] Setting up inception_5b/relu_5x5
I1103 23:16:07.454694 30147 net.cpp:148] Top shape: 50 128 7 7 (313600)
I1103 23:16:07.454722 30147 net.cpp:156] Memory required for data: 2784725224
I1103 23:16:07.454754 30147 layer_factory.hpp:77] Creating layer inception_5b/pool
I1103 23:16:07.454794 30147 net.cpp:91] Creating Layer inception_5b/pool
I1103 23:16:07.454828 30147 net.cpp:425] inception_5b/pool <- inception_5a/output_inception_5a/output_0_split_3
I1103 23:16:07.454864 30147 net.cpp:399] inception_5b/pool -> inception_5b/pool
I1103 23:16:07.454944 30147 net.cpp:141] Setting up inception_5b/pool
I1103 23:16:07.454982 30147 net.cpp:148] Top shape: 50 832 7 7 (2038400)
I1103 23:16:07.455013 30147 net.cpp:156] Memory required for data: 2792878824
I1103 23:16:07.455045 30147 layer_factory.hpp:77] Creating layer inception_5b/pool_proj
I1103 23:16:07.455081 30147 net.cpp:91] Creating Layer inception_5b/pool_proj
I1103 23:16:07.455117 30147 net.cpp:425] inception_5b/pool_proj <- inception_5b/pool
I1103 23:16:07.455153 30147 net.cpp:399] inception_5b/pool_proj -> inception_5b/pool_proj
I1103 23:16:07.457373 30147 net.cpp:141] Setting up inception_5b/pool_proj
I1103 23:16:07.457413 30147 net.cpp:148] Top shape: 50 128 7 7 (313600)
I1103 23:16:07.457447 30147 net.cpp:156] Memory required for data: 2794133224
I1103 23:16:07.457481 30147 layer_factory.hpp:77] Creating layer inception_5b/relu_pool_proj
I1103 23:16:07.457518 30147 net.cpp:91] Creating Layer inception_5b/relu_pool_proj
I1103 23:16:07.457556 30147 net.cpp:425] inception_5b/relu_pool_proj <- inception_5b/pool_proj
I1103 23:16:07.457588 30147 net.cpp:386] inception_5b/relu_pool_proj -> inception_5b/pool_proj (in-place)
I1103 23:16:07.457970 30147 net.cpp:141] Setting up inception_5b/relu_pool_proj
I1103 23:16:07.458009 30147 net.cpp:148] Top shape: 50 128 7 7 (313600)
I1103 23:16:07.458045 30147 net.cpp:156] Memory required for data: 2795387624
I1103 23:16:07.458077 30147 layer_factory.hpp:77] Creating layer inception_5b/output
I1103 23:16:07.458115 30147 net.cpp:91] Creating Layer inception_5b/output
I1103 23:16:07.458153 30147 net.cpp:425] inception_5b/output <- inception_5b/1x1
I1103 23:16:07.458185 30147 net.cpp:425] inception_5b/output <- inception_5b/3x3
I1103 23:16:07.458220 30147 net.cpp:425] inception_5b/output <- inception_5b/5x5
I1103 23:16:07.458251 30147 net.cpp:425] inception_5b/output <- inception_5b/pool_proj
I1103 23:16:07.458287 30147 net.cpp:399] inception_5b/output -> inception_5b/output
I1103 23:16:07.458351 30147 net.cpp:141] Setting up inception_5b/output
I1103 23:16:07.458389 30147 net.cpp:148] Top shape: 50 1024 7 7 (2508800)
I1103 23:16:07.458416 30147 net.cpp:156] Memory required for data: 2805422824
I1103 23:16:07.458451 30147 layer_factory.hpp:77] Creating layer pool5/7x7_s1
I1103 23:16:07.458485 30147 net.cpp:91] Creating Layer pool5/7x7_s1
I1103 23:16:07.458519 30147 net.cpp:425] pool5/7x7_s1 <- inception_5b/output
I1103 23:16:07.458554 30147 net.cpp:399] pool5/7x7_s1 -> pool5/7x7_s1
I1103 23:16:07.458981 30147 net.cpp:141] Setting up pool5/7x7_s1
I1103 23:16:07.459019 30147 net.cpp:148] Top shape: 50 1024 1 1 (51200)
I1103 23:16:07.459076 30147 net.cpp:156] Memory required for data: 2805627624
I1103 23:16:07.459117 30147 layer_factory.hpp:77] Creating layer pool5/drop_7x7_s1
I1103 23:16:07.459149 30147 net.cpp:91] Creating Layer pool5/drop_7x7_s1
I1103 23:16:07.459185 30147 net.cpp:425] pool5/drop_7x7_s1 <- pool5/7x7_s1
I1103 23:16:07.459218 30147 net.cpp:386] pool5/drop_7x7_s1 -> pool5/7x7_s1 (in-place)
I1103 23:16:07.459286 30147 net.cpp:141] Setting up pool5/drop_7x7_s1
I1103 23:16:07.459321 30147 net.cpp:148] Top shape: 50 1024 1 1 (51200)
I1103 23:16:07.459348 30147 net.cpp:156] Memory required for data: 2805832424
I1103 23:16:07.459378 30147 layer_factory.hpp:77] Creating layer loss3/classifier
I1103 23:16:07.459414 30147 net.cpp:91] Creating Layer loss3/classifier
I1103 23:16:07.459445 30147 net.cpp:425] loss3/classifier <- pool5/7x7_s1
I1103 23:16:07.459477 30147 net.cpp:399] loss3/classifier -> loss3/classifier
I1103 23:16:07.466302 30147 net.cpp:141] Setting up loss3/classifier
I1103 23:16:07.466344 30147 net.cpp:148] Top shape: 50 1000 (50000)
I1103 23:16:07.466375 30147 net.cpp:156] Memory required for data: 2806032424
I1103 23:16:07.466408 30147 layer_factory.hpp:77] Creating layer loss3/classifier_loss3/classifier_0_split
I1103 23:16:07.466447 30147 net.cpp:91] Creating Layer loss3/classifier_loss3/classifier_0_split
I1103 23:16:07.466477 30147 net.cpp:425] loss3/classifier_loss3/classifier_0_split <- loss3/classifier
I1103 23:16:07.466511 30147 net.cpp:399] loss3/classifier_loss3/classifier_0_split -> loss3/classifier_loss3/classifier_0_split_0
I1103 23:16:07.466547 30147 net.cpp:399] loss3/classifier_loss3/classifier_0_split -> loss3/classifier_loss3/classifier_0_split_1
I1103 23:16:07.466580 30147 net.cpp:399] loss3/classifier_loss3/classifier_0_split -> loss3/classifier_loss3/classifier_0_split_2
I1103 23:16:07.466671 30147 net.cpp:141] Setting up loss3/classifier_loss3/classifier_0_split
I1103 23:16:07.466702 30147 net.cpp:148] Top shape: 50 1000 (50000)
I1103 23:16:07.466732 30147 net.cpp:148] Top shape: 50 1000 (50000)
I1103 23:16:07.466771 30147 net.cpp:148] Top shape: 50 1000 (50000)
I1103 23:16:07.466801 30147 net.cpp:156] Memory required for data: 2806632424
I1103 23:16:07.466831 30147 layer_factory.hpp:77] Creating layer loss
I1103 23:16:07.466866 30147 net.cpp:91] Creating Layer loss
I1103 23:16:07.466900 30147 net.cpp:425] loss <- loss3/classifier_loss3/classifier_0_split_0
I1103 23:16:07.466930 30147 net.cpp:425] loss <- label_data_1_split_6
I1103 23:16:07.466959 30147 net.cpp:399] loss -> loss
…
