…
I1103 23:15:40.183260 30124 net.cpp:313] The NetState phase (1) differed from the phase (0) specified by a rule in layer data
I1103 23:15:40.183523 30124 net.cpp:49] Initializing net from parameters: 
name: "VGG_ILSVRC_16_layer"
state {
  phase: TEST
}
layer {
  name: "data"
  type: "Data"
  top: "data"
  top: "label"
  include {
    phase: TEST
  }
  transform_param {
    mirror: false
    crop_size: 224
    mean_value: 103.939
    mean_value: 116.779
    mean_value: 123.68
  }
  data_param {
    source: "/ssd/dataset/ilsvrc12_val_lmdb/"
    batch_size: 50
    backend: LMDB
  }
}
layer {
  name: "conv1_1"
  type: "Convolution"
  bottom: "data"
  top: "conv1_1"
  convolution_param {
    num_output: 64
    pad: 1
    kernel_size: 3
  }
}
layer {
  name: "relu1_1"
  type: "ReLU"
  bottom: "conv1_1"
  top: "conv1_1"
}
layer {
  name: "conv1_2"
  type: "Convolution"
  bottom: "conv1_1"
  top: "conv1_2"
  convolution_param {
    num_output: 64
    pad: 1
    kernel_size: 3
  }
}
layer {
  name: "relu1_2"
  type: "ReLU"
  bottom: "conv1_2"
  top: "conv1_2"
}
layer {
  name: "pool1"
  type: "Pooling"
  bottom: "conv1_2"
  top: "pool1"
  pooling_param {
    pool: MAX
    kernel_size: 2
    stride: 2
  }
}
layer {
  name: "conv2_1"
  type: "Convolution"
  bottom: "pool1"
  top: "conv2_1"
  convolution_param {
    num_output: 128
    pad: 1
    kernel_size: 3
  }
}
layer {
  name: "relu2_1"
  type: "ReLU"
  bottom: "conv2_1"
  top: "conv2_1"
}
layer {
  name: "conv2_2"
  type: "Convolution"
  bottom: "conv2_1"
  top: "conv2_2"
  convolution_param {
    num_output: 128
    pad: 1
    kernel_size: 3
  }
}
layer {
  name: "relu2_2"
  type: "ReLU"
  bottom: "conv2_2"
  top: "conv2_2"
}
layer {
  name: "pool2"
  type: "Pooling"
  bottom: "conv2_2"
  top: "pool2"
  pooling_param {
    pool: MAX
    kernel_size: 2
    stride: 2
  }
}
layer {
  name: "conv3_1"
  type: "Convolution"
  bottom: "pool2"
  top: "conv3_1"
  convolution_param {
    num_output: 256
    pad: 1
    kernel_size: 3
  }
}
layer {
  name: "relu3_1"
  type: "ReLU"
  bottom: "conv3_1"
  top: "conv3_1"
}
layer {
  name: "conv3_2"
  type: "Convolution"
  bottom: "conv3_1"
  top: "conv3_2"
  convolution_param {
    num_output: 256
    pad: 1
    kernel_size: 3
  }
}
layer {
  name: "relu3_2"
  type: "ReLU"
  bottom: "conv3_2"
  top: "conv3_2"
}
layer {
  name: "conv3_3"
  type: "Convolution"
  bottom: "conv3_2"
  top: "conv3_3"
  convolution_param {
    num_output: 256
    pad: 1
    kernel_size: 3
  }
}
layer {
  name: "relu3_3"
  type: "ReLU"
  bottom: "conv3_3"
  top: "conv3_3"
}
layer {
  name: "pool3"
  type: "Pooling"
  bottom: "conv3_3"
  top: "pool3"
  pooling_param {
    pool: MAX
    kernel_size: 2
    stride: 2
  }
}
layer {
  name: "conv4_1"
  type: "Convolution"
  bottom: "pool3"
  top: "conv4_1"
  convolution_param {
    num_output: 512
    pad: 1
    kernel_size: 3
  }
}
layer {
  name: "relu4_1"
  type: "ReLU"
  bottom: "conv4_1"
  top: "conv4_1"
}
layer {
  name: "conv4_2"
  type: "Convolution"
  bottom: "conv4_1"
  top: "conv4_2"
  convolution_param {
    num_output: 512
    pad: 1
    kernel_size: 3
  }
}
layer {
  name: "relu4_2"
  type: "ReLU"
  bottom: "conv4_2"
  top: "conv4_2"
}
layer {
  name: "conv4_3"
  type: "Convolution"
  bottom: "conv4_2"
  top: "conv4_3"
  convolution_param {
    num_output: 512
    pad: 1
    kernel_size: 3
  }
}
layer {
  name: "relu4_3"
  type: "ReLU"
  bottom: "conv4_3"
  top: "conv4_3"
}
layer {
  name: "pool4"
  type: "Pooling"
  bottom: "conv4_3"
  top: "pool4"
  pooling_param {
    pool: MAX
    kernel_size: 2
    stride: 2
  }
}
layer {
  name: "conv5_1"
  type: "Convolution"
  bottom: "pool4"
  top: "conv5_1"
  convolution_param {
    num_output: 512
    pad: 1
    kernel_size: 3
  }
}
layer {
  name: "relu5_1"
  type: "ReLU"
  bottom: "conv5_1"
  top: "conv5_1"
}
layer {
  name: "conv5_2"
  type: "Convolution"
  bottom: "conv5_1"
  top: "conv5_2"
  convolution_param {
    num_output: 512
    pad: 1
    kernel_size: 3
  }
}
layer {
  name: "relu5_2"
  type: "ReLU"
  bottom: "conv5_2"
  top: "conv5_2"
}
layer {
  name: "conv5_3"
  type: "Convolution"
  bottom: "conv5_2"
  top: "conv5_3"
  convolution_param {
    num_output: 512
    pad: 1
    kernel_size: 3
  }
}
layer {
  name: "relu5_3"
  type: "ReLU"
  bottom: "conv5_3"
  top: "conv5_3"
}
layer {
  name: "pool5"
  type: "Pooling"
  bottom: "conv5_3"
  top: "pool5"
  pooling_param {
    pool: MAX
    kernel_size: 2
    stride: 2
  }
}
layer {
  name: "fc6"
  type: "InnerProduct"
  bottom: "pool5"
  top: "fc6"
  inner_product_param {
    num_output: 4096
  }
}
layer {
  name: "relu6"
  type: "ReLU"
  bottom: "fc6"
  top: "fc6"
}
layer {
  name: "drop6"
  type: "Dropout"
  bottom: "fc6"
  top: "fc6"
  dropout_param {
    dropout_ratio: 0.5
  }
}
layer {
  name: "fc7"
  type: "InnerProduct"
  bottom: "fc6"
  top: "fc7"
  inner_product_param {
    num_output: 4096
  }
}
layer {
  name: "relu7"
  type: "ReLU"
  bottom: "fc7"
  top: "fc7"
}
layer {
  name: "drop7"
  type: "Dropout"
  bottom: "fc7"
  top: "fc7"
  dropout_param {
    dropout_ratio: 0.5
  }
}
layer {
  name: "fc8"
  type: "InnerProduct"
  bottom: "fc7"
  top: "fc8"
  inner_product_param {
    num_output: 1000
  }
}
layer {
  name: "accuracy_top1"
  type: "Accuracy"
  bottom: "fc8"
  bottom: "label"
  top: "accuracy_top1"
  include {
    phase: TEST
  }
  accuracy_param {
    top_k: 1
  }
}
layer {
  name: "accuracy_top5"
  type: "Accuracy"
  bottom: "fc8"
  bottom: "label"
  top: "accuracy_top5"
  include {
    phase: TEST
  }
  accuracy_param {
    top_k: 5
  }
}
layer {
  name: "loss"
  type: "SoftmaxWithLoss"
  bottom: "fc8"
  bottom: "label"
  top: "loss"
}
I1103 23:15:40.183850 30124 layer_factory.hpp:77] Creating layer data
I1103 23:15:40.185127 30124 net.cpp:91] Creating Layer data
I1103 23:15:40.185211 30124 net.cpp:399] data -> data
I1103 23:15:40.185300 30124 net.cpp:399] data -> label
I1103 23:15:40.187021 30129 db_lmdb.cpp:35] Opened lmdb /ssd/dataset/ilsvrc12_val_lmdb/
I1103 23:15:40.259038 30124 data_layer.cpp:41] output data size: 50,3,224,224
I1103 23:15:40.303503 30124 net.cpp:141] Setting up data
I1103 23:15:40.303611 30124 net.cpp:148] Top shape: 50 3 224 224 (7526400)
I1103 23:15:40.303675 30124 net.cpp:148] Top shape: 50 (50)
I1103 23:15:40.303745 30124 net.cpp:156] Memory required for data: 30105800
I1103 23:15:40.303799 30124 layer_factory.hpp:77] Creating layer label_data_1_split
I1103 23:15:40.304839 30124 net.cpp:91] Creating Layer label_data_1_split
I1103 23:15:40.304919 30124 net.cpp:425] label_data_1_split <- label
I1103 23:15:40.304968 30124 net.cpp:399] label_data_1_split -> label_data_1_split_0
I1103 23:15:40.305022 30124 net.cpp:399] label_data_1_split -> label_data_1_split_1
I1103 23:15:40.305076 30124 net.cpp:399] label_data_1_split -> label_data_1_split_2
I1103 23:15:40.307941 30124 net.cpp:141] Setting up label_data_1_split
I1103 23:15:40.307988 30124 net.cpp:148] Top shape: 50 (50)
I1103 23:15:40.308035 30124 net.cpp:148] Top shape: 50 (50)
I1103 23:15:40.308090 30124 net.cpp:148] Top shape: 50 (50)
I1103 23:15:40.308135 30124 net.cpp:156] Memory required for data: 30106400
I1103 23:15:40.308172 30124 layer_factory.hpp:77] Creating layer conv1_1
I1103 23:15:40.308228 30124 net.cpp:91] Creating Layer conv1_1
I1103 23:15:40.308266 30124 net.cpp:425] conv1_1 <- data
I1103 23:15:40.308312 30124 net.cpp:399] conv1_1 -> conv1_1
I1103 23:15:40.737643 30124 net.cpp:141] Setting up conv1_1
I1103 23:15:40.737768 30124 net.cpp:148] Top shape: 50 64 224 224 (160563200)
I1103 23:15:40.737841 30124 net.cpp:156] Memory required for data: 672359200
I1103 23:15:40.737906 30124 layer_factory.hpp:77] Creating layer relu1_1
I1103 23:15:40.737963 30124 net.cpp:91] Creating Layer relu1_1
I1103 23:15:40.738019 30124 net.cpp:425] relu1_1 <- conv1_1
I1103 23:15:40.738056 30124 net.cpp:386] relu1_1 -> conv1_1 (in-place)
I1103 23:15:40.739014 30124 net.cpp:141] Setting up relu1_1
I1103 23:15:40.739053 30124 net.cpp:148] Top shape: 50 64 224 224 (160563200)
I1103 23:15:40.739111 30124 net.cpp:156] Memory required for data: 1314612000
I1103 23:15:40.739220 30124 layer_factory.hpp:77] Creating layer conv1_2
I1103 23:15:40.739296 30124 net.cpp:91] Creating Layer conv1_2
I1103 23:15:40.739344 30124 net.cpp:425] conv1_2 <- conv1_1
I1103 23:15:40.739390 30124 net.cpp:399] conv1_2 -> conv1_2
I1103 23:15:40.740887 30124 net.cpp:141] Setting up conv1_2
I1103 23:15:40.740929 30124 net.cpp:148] Top shape: 50 64 224 224 (160563200)
I1103 23:15:40.740975 30124 net.cpp:156] Memory required for data: 1956864800
I1103 23:15:40.741052 30124 layer_factory.hpp:77] Creating layer relu1_2
I1103 23:15:40.741098 30124 net.cpp:91] Creating Layer relu1_2
I1103 23:15:40.741137 30124 net.cpp:425] relu1_2 <- conv1_2
I1103 23:15:40.741189 30124 net.cpp:386] relu1_2 -> conv1_2 (in-place)
I1103 23:15:40.741395 30124 net.cpp:141] Setting up relu1_2
I1103 23:15:40.741444 30124 net.cpp:148] Top shape: 50 64 224 224 (160563200)
I1103 23:15:40.741483 30124 net.cpp:156] Memory required for data: 2599117600
I1103 23:15:40.741524 30124 layer_factory.hpp:77] Creating layer pool1
I1103 23:15:40.741611 30124 net.cpp:91] Creating Layer pool1
I1103 23:15:40.741653 30124 net.cpp:425] pool1 <- conv1_2
I1103 23:15:40.741689 30124 net.cpp:399] pool1 -> pool1
I1103 23:15:40.741787 30124 net.cpp:141] Setting up pool1
I1103 23:15:40.741827 30124 net.cpp:148] Top shape: 50 64 112 112 (40140800)
I1103 23:15:40.741868 30124 net.cpp:156] Memory required for data: 2759680800
I1103 23:15:40.741897 30124 layer_factory.hpp:77] Creating layer conv2_1
I1103 23:15:40.741945 30124 net.cpp:91] Creating Layer conv2_1
I1103 23:15:40.741981 30124 net.cpp:425] conv2_1 <- pool1
I1103 23:15:40.742027 30124 net.cpp:399] conv2_1 -> conv2_1
I1103 23:15:40.744515 30124 net.cpp:141] Setting up conv2_1
I1103 23:15:40.744568 30124 net.cpp:148] Top shape: 50 128 112 112 (80281600)
I1103 23:15:40.744633 30124 net.cpp:156] Memory required for data: 3080807200
I1103 23:15:40.744686 30124 layer_factory.hpp:77] Creating layer relu2_1
I1103 23:15:40.744729 30124 net.cpp:91] Creating Layer relu2_1
I1103 23:15:40.744772 30124 net.cpp:425] relu2_1 <- conv2_1
I1103 23:15:40.744815 30124 net.cpp:386] relu2_1 -> conv2_1 (in-place)
I1103 23:15:40.745040 30124 net.cpp:141] Setting up relu2_1
I1103 23:15:40.745080 30124 net.cpp:148] Top shape: 50 128 112 112 (80281600)
I1103 23:15:40.745121 30124 net.cpp:156] Memory required for data: 3401933600
I1103 23:15:40.745198 30124 layer_factory.hpp:77] Creating layer conv2_2
I1103 23:15:40.745247 30124 net.cpp:91] Creating Layer conv2_2
I1103 23:15:40.745280 30124 net.cpp:425] conv2_2 <- conv2_1
I1103 23:15:40.745329 30124 net.cpp:399] conv2_2 -> conv2_2
I1103 23:15:40.746822 30124 net.cpp:141] Setting up conv2_2
I1103 23:15:40.746868 30124 net.cpp:148] Top shape: 50 128 112 112 (80281600)
I1103 23:15:40.746909 30124 net.cpp:156] Memory required for data: 3723060000
I1103 23:15:40.746953 30124 layer_factory.hpp:77] Creating layer relu2_2
I1103 23:15:40.747025 30124 net.cpp:91] Creating Layer relu2_2
I1103 23:15:40.747071 30124 net.cpp:425] relu2_2 <- conv2_2
I1103 23:15:40.747112 30124 net.cpp:386] relu2_2 -> conv2_2 (in-place)
I1103 23:15:40.747545 30124 net.cpp:141] Setting up relu2_2
I1103 23:15:40.747617 30124 net.cpp:148] Top shape: 50 128 112 112 (80281600)
I1103 23:15:40.747664 30124 net.cpp:156] Memory required for data: 4044186400
I1103 23:15:40.747706 30124 layer_factory.hpp:77] Creating layer pool2
I1103 23:15:40.747750 30124 net.cpp:91] Creating Layer pool2
I1103 23:15:40.747788 30124 net.cpp:425] pool2 <- conv2_2
I1103 23:15:40.747853 30124 net.cpp:399] pool2 -> pool2
I1103 23:15:40.747931 30124 net.cpp:141] Setting up pool2
I1103 23:15:40.747980 30124 net.cpp:148] Top shape: 50 128 56 56 (20070400)
I1103 23:15:40.748021 30124 net.cpp:156] Memory required for data: 4124468000
I1103 23:15:40.748060 30124 layer_factory.hpp:77] Creating layer conv3_1
I1103 23:15:40.748116 30124 net.cpp:91] Creating Layer conv3_1
I1103 23:15:40.748152 30124 net.cpp:425] conv3_1 <- pool2
I1103 23:15:40.748193 30124 net.cpp:399] conv3_1 -> conv3_1
I1103 23:15:40.750375 30124 net.cpp:141] Setting up conv3_1
I1103 23:15:40.750424 30124 net.cpp:148] Top shape: 50 256 56 56 (40140800)
I1103 23:15:40.750509 30124 net.cpp:156] Memory required for data: 4285031200
I1103 23:15:40.750560 30124 layer_factory.hpp:77] Creating layer relu3_1
I1103 23:15:40.750600 30124 net.cpp:91] Creating Layer relu3_1
I1103 23:15:40.750645 30124 net.cpp:425] relu3_1 <- conv3_1
I1103 23:15:40.750682 30124 net.cpp:386] relu3_1 -> conv3_1 (in-place)
I1103 23:15:40.750911 30124 net.cpp:141] Setting up relu3_1
I1103 23:15:40.750948 30124 net.cpp:148] Top shape: 50 256 56 56 (40140800)
I1103 23:15:40.750990 30124 net.cpp:156] Memory required for data: 4445594400
I1103 23:15:40.751066 30124 layer_factory.hpp:77] Creating layer conv3_2
I1103 23:15:40.751121 30124 net.cpp:91] Creating Layer conv3_2
I1103 23:15:40.751155 30124 net.cpp:425] conv3_2 <- conv3_1
I1103 23:15:40.751202 30124 net.cpp:399] conv3_2 -> conv3_2
I1103 23:15:40.753926 30124 net.cpp:141] Setting up conv3_2
I1103 23:15:40.753983 30124 net.cpp:148] Top shape: 50 256 56 56 (40140800)
I1103 23:15:40.754024 30124 net.cpp:156] Memory required for data: 4606157600
I1103 23:15:40.754076 30124 layer_factory.hpp:77] Creating layer relu3_2
I1103 23:15:40.754169 30124 net.cpp:91] Creating Layer relu3_2
I1103 23:15:40.754209 30124 net.cpp:425] relu3_2 <- conv3_2
I1103 23:15:40.754248 30124 net.cpp:386] relu3_2 -> conv3_2 (in-place)
I1103 23:15:40.754477 30124 net.cpp:141] Setting up relu3_2
I1103 23:15:40.754561 30124 net.cpp:148] Top shape: 50 256 56 56 (40140800)
I1103 23:15:40.754606 30124 net.cpp:156] Memory required for data: 4766720800
I1103 23:15:40.754638 30124 layer_factory.hpp:77] Creating layer conv3_3
I1103 23:15:40.754691 30124 net.cpp:91] Creating Layer conv3_3
I1103 23:15:40.754734 30124 net.cpp:425] conv3_3 <- conv3_2
I1103 23:15:40.754776 30124 net.cpp:399] conv3_3 -> conv3_3
I1103 23:15:40.757463 30124 net.cpp:141] Setting up conv3_3
I1103 23:15:40.757514 30124 net.cpp:148] Top shape: 50 256 56 56 (40140800)
I1103 23:15:40.757583 30124 net.cpp:156] Memory required for data: 4927284000
I1103 23:15:40.757637 30124 layer_factory.hpp:77] Creating layer relu3_3
I1103 23:15:40.757674 30124 net.cpp:91] Creating Layer relu3_3
I1103 23:15:40.757717 30124 net.cpp:425] relu3_3 <- conv3_3
I1103 23:15:40.757750 30124 net.cpp:386] relu3_3 -> conv3_3 (in-place)
I1103 23:15:40.758189 30124 net.cpp:141] Setting up relu3_3
I1103 23:15:40.758227 30124 net.cpp:148] Top shape: 50 256 56 56 (40140800)
I1103 23:15:40.758270 30124 net.cpp:156] Memory required for data: 5087847200
I1103 23:15:40.758348 30124 layer_factory.hpp:77] Creating layer pool3
I1103 23:15:40.758400 30124 net.cpp:91] Creating Layer pool3
I1103 23:15:40.758433 30124 net.cpp:425] pool3 <- conv3_3
I1103 23:15:40.758482 30124 net.cpp:399] pool3 -> pool3
I1103 23:15:40.758569 30124 net.cpp:141] Setting up pool3
I1103 23:15:40.758611 30124 net.cpp:148] Top shape: 50 256 28 28 (10035200)
I1103 23:15:40.758651 30124 net.cpp:156] Memory required for data: 5127988000
I1103 23:15:40.758690 30124 layer_factory.hpp:77] Creating layer conv4_1
I1103 23:15:40.758729 30124 net.cpp:91] Creating Layer conv4_1
I1103 23:15:40.758775 30124 net.cpp:425] conv4_1 <- pool3
I1103 23:15:40.758811 30124 net.cpp:399] conv4_1 -> conv4_1
I1103 23:15:40.763247 30124 net.cpp:141] Setting up conv4_1
I1103 23:15:40.763336 30124 net.cpp:148] Top shape: 50 512 28 28 (20070400)
I1103 23:15:40.763386 30124 net.cpp:156] Memory required for data: 5208269600
I1103 23:15:40.763437 30124 layer_factory.hpp:77] Creating layer relu4_1
I1103 23:15:40.763487 30124 net.cpp:91] Creating Layer relu4_1
I1103 23:15:40.763525 30124 net.cpp:425] relu4_1 <- conv4_1
I1103 23:15:40.763571 30124 net.cpp:386] relu4_1 -> conv4_1 (in-place)
I1103 23:15:40.763788 30124 net.cpp:141] Setting up relu4_1
I1103 23:15:40.763831 30124 net.cpp:148] Top shape: 50 512 28 28 (20070400)
I1103 23:15:40.763914 30124 net.cpp:156] Memory required for data: 5288551200
I1103 23:15:40.763975 30124 layer_factory.hpp:77] Creating layer conv4_2
I1103 23:15:40.764024 30124 net.cpp:91] Creating Layer conv4_2
I1103 23:15:40.764098 30124 net.cpp:425] conv4_2 <- conv4_1
I1103 23:15:40.764164 30124 net.cpp:399] conv4_2 -> conv4_2
I1103 23:15:40.770092 30124 net.cpp:141] Setting up conv4_2
I1103 23:15:40.770169 30124 net.cpp:148] Top shape: 50 512 28 28 (20070400)
I1103 23:15:40.770243 30124 net.cpp:156] Memory required for data: 5368832800
I1103 23:15:40.770303 30124 layer_factory.hpp:77] Creating layer relu4_2
I1103 23:15:40.770359 30124 net.cpp:91] Creating Layer relu4_2
I1103 23:15:40.770401 30124 net.cpp:425] relu4_2 <- conv4_2
I1103 23:15:40.770436 30124 net.cpp:386] relu4_2 -> conv4_2 (in-place)
I1103 23:15:40.770668 30124 net.cpp:141] Setting up relu4_2
I1103 23:15:40.770709 30124 net.cpp:148] Top shape: 50 512 28 28 (20070400)
I1103 23:15:40.770753 30124 net.cpp:156] Memory required for data: 5449114400
I1103 23:15:40.770834 30124 layer_factory.hpp:77] Creating layer conv4_3
I1103 23:15:40.770885 30124 net.cpp:91] Creating Layer conv4_3
I1103 23:15:40.770917 30124 net.cpp:425] conv4_3 <- conv4_2
I1103 23:15:40.770967 30124 net.cpp:399] conv4_3 -> conv4_3
I1103 23:15:40.777005 30124 net.cpp:141] Setting up conv4_3
I1103 23:15:40.777081 30124 net.cpp:148] Top shape: 50 512 28 28 (20070400)
I1103 23:15:40.777133 30124 net.cpp:156] Memory required for data: 5529396000
I1103 23:15:40.777184 30124 layer_factory.hpp:77] Creating layer relu4_3
I1103 23:15:40.777262 30124 net.cpp:91] Creating Layer relu4_3
I1103 23:15:40.777303 30124 net.cpp:425] relu4_3 <- conv4_3
I1103 23:15:40.777338 30124 net.cpp:386] relu4_3 -> conv4_3 (in-place)
I1103 23:15:40.777791 30124 net.cpp:141] Setting up relu4_3
I1103 23:15:40.777863 30124 net.cpp:148] Top shape: 50 512 28 28 (20070400)
I1103 23:15:40.777909 30124 net.cpp:156] Memory required for data: 5609677600
I1103 23:15:40.777945 30124 layer_factory.hpp:77] Creating layer pool4
I1103 23:15:40.777993 30124 net.cpp:91] Creating Layer pool4
I1103 23:15:40.778036 30124 net.cpp:425] pool4 <- conv4_3
I1103 23:15:40.778082 30124 net.cpp:399] pool4 -> pool4
I1103 23:15:40.778163 30124 net.cpp:141] Setting up pool4
I1103 23:15:40.778209 30124 net.cpp:148] Top shape: 50 512 14 14 (5017600)
I1103 23:15:40.778244 30124 net.cpp:156] Memory required for data: 5629748000
I1103 23:15:40.778285 30124 layer_factory.hpp:77] Creating layer conv5_1
I1103 23:15:40.778326 30124 net.cpp:91] Creating Layer conv5_1
I1103 23:15:40.778369 30124 net.cpp:425] conv5_1 <- pool4
I1103 23:15:40.778409 30124 net.cpp:399] conv5_1 -> conv5_1
I1103 23:15:40.784518 30124 net.cpp:141] Setting up conv5_1
I1103 23:15:40.784586 30124 net.cpp:148] Top shape: 50 512 14 14 (5017600)
I1103 23:15:40.784633 30124 net.cpp:156] Memory required for data: 5649818400
I1103 23:15:40.784711 30124 layer_factory.hpp:77] Creating layer relu5_1
I1103 23:15:40.784761 30124 net.cpp:91] Creating Layer relu5_1
I1103 23:15:40.784796 30124 net.cpp:425] relu5_1 <- conv5_1
I1103 23:15:40.784842 30124 net.cpp:386] relu5_1 -> conv5_1 (in-place)
I1103 23:15:40.785070 30124 net.cpp:141] Setting up relu5_1
I1103 23:15:40.785117 30124 net.cpp:148] Top shape: 50 512 14 14 (5017600)
I1103 23:15:40.785153 30124 net.cpp:156] Memory required for data: 5669888800
I1103 23:15:40.785198 30124 layer_factory.hpp:77] Creating layer conv5_2
I1103 23:15:40.785271 30124 net.cpp:91] Creating Layer conv5_2
I1103 23:15:40.785312 30124 net.cpp:425] conv5_2 <- conv5_1
I1103 23:15:40.785353 30124 net.cpp:399] conv5_2 -> conv5_2
I1103 23:15:40.791332 30124 net.cpp:141] Setting up conv5_2
I1103 23:15:40.791440 30124 net.cpp:148] Top shape: 50 512 14 14 (5017600)
I1103 23:15:40.791486 30124 net.cpp:156] Memory required for data: 5689959200
I1103 23:15:40.791539 30124 layer_factory.hpp:77] Creating layer relu5_2
I1103 23:15:40.791594 30124 net.cpp:91] Creating Layer relu5_2
I1103 23:15:40.791627 30124 net.cpp:425] relu5_2 <- conv5_2
I1103 23:15:40.791671 30124 net.cpp:386] relu5_2 -> conv5_2 (in-place)
I1103 23:15:40.791916 30124 net.cpp:141] Setting up relu5_2
I1103 23:15:40.791959 30124 net.cpp:148] Top shape: 50 512 14 14 (5017600)
I1103 23:15:40.792039 30124 net.cpp:156] Memory required for data: 5710029600
I1103 23:15:40.792131 30124 layer_factory.hpp:77] Creating layer conv5_3
I1103 23:15:40.792181 30124 net.cpp:91] Creating Layer conv5_3
I1103 23:15:40.792227 30124 net.cpp:425] conv5_3 <- conv5_2
I1103 23:15:40.792270 30124 net.cpp:399] conv5_3 -> conv5_3
I1103 23:15:40.798260 30124 net.cpp:141] Setting up conv5_3
I1103 23:15:40.798336 30124 net.cpp:148] Top shape: 50 512 14 14 (5017600)
I1103 23:15:40.798408 30124 net.cpp:156] Memory required for data: 5730100000
I1103 23:15:40.798454 30124 layer_factory.hpp:77] Creating layer relu5_3
I1103 23:15:40.798499 30124 net.cpp:91] Creating Layer relu5_3
I1103 23:15:40.798542 30124 net.cpp:425] relu5_3 <- conv5_3
I1103 23:15:40.798575 30124 net.cpp:386] relu5_3 -> conv5_3 (in-place)
I1103 23:15:40.799012 30124 net.cpp:141] Setting up relu5_3
I1103 23:15:40.799053 30124 net.cpp:148] Top shape: 50 512 14 14 (5017600)
I1103 23:15:40.799089 30124 net.cpp:156] Memory required for data: 5750170400
I1103 23:15:40.799160 30124 layer_factory.hpp:77] Creating layer pool5
I1103 23:15:40.799211 30124 net.cpp:91] Creating Layer pool5
I1103 23:15:40.799249 30124 net.cpp:425] pool5 <- conv5_3
I1103 23:15:40.799294 30124 net.cpp:399] pool5 -> pool5
I1103 23:15:40.799391 30124 net.cpp:141] Setting up pool5
I1103 23:15:40.799434 30124 net.cpp:148] Top shape: 50 512 7 7 (1254400)
I1103 23:15:40.799469 30124 net.cpp:156] Memory required for data: 5755188000
I1103 23:15:40.799513 30124 layer_factory.hpp:77] Creating layer fc6
I1103 23:15:40.799566 30124 net.cpp:91] Creating Layer fc6
I1103 23:15:40.799600 30124 net.cpp:425] fc6 <- pool5
I1103 23:15:40.799636 30124 net.cpp:399] fc6 -> fc6
I1103 23:15:41.107024 30124 net.cpp:141] Setting up fc6
I1103 23:15:41.107137 30124 net.cpp:148] Top shape: 50 4096 (204800)
I1103 23:15:41.107206 30124 net.cpp:156] Memory required for data: 5756007200
I1103 23:15:41.107273 30124 layer_factory.hpp:77] Creating layer relu6
I1103 23:15:41.107331 30124 net.cpp:91] Creating Layer relu6
I1103 23:15:41.107370 30124 net.cpp:425] relu6 <- fc6
I1103 23:15:41.107420 30124 net.cpp:386] relu6 -> fc6 (in-place)
I1103 23:15:41.107694 30124 net.cpp:141] Setting up relu6
I1103 23:15:41.107743 30124 net.cpp:148] Top shape: 50 4096 (204800)
I1103 23:15:41.107830 30124 net.cpp:156] Memory required for data: 5756826400
I1103 23:15:41.107882 30124 layer_factory.hpp:77] Creating layer drop6
I1103 23:15:41.108513 30124 net.cpp:91] Creating Layer drop6
I1103 23:15:41.108556 30124 net.cpp:425] drop6 <- fc6
I1103 23:15:41.108628 30124 net.cpp:386] drop6 -> fc6 (in-place)
I1103 23:15:41.108711 30124 net.cpp:141] Setting up drop6
I1103 23:15:41.108770 30124 net.cpp:148] Top shape: 50 4096 (204800)
I1103 23:15:41.108819 30124 net.cpp:156] Memory required for data: 5757645600
I1103 23:15:41.108860 30124 layer_factory.hpp:77] Creating layer fc7
I1103 23:15:41.108906 30124 net.cpp:91] Creating Layer fc7
I1103 23:15:41.108935 30124 net.cpp:425] fc7 <- fc6
I1103 23:15:41.108983 30124 net.cpp:399] fc7 -> fc7
I1103 23:15:41.156394 30124 net.cpp:141] Setting up fc7
I1103 23:15:41.156479 30124 net.cpp:148] Top shape: 50 4096 (204800)
I1103 23:15:41.156543 30124 net.cpp:156] Memory required for data: 5758464800
I1103 23:15:41.156601 30124 layer_factory.hpp:77] Creating layer relu7
I1103 23:15:41.156677 30124 net.cpp:91] Creating Layer relu7
I1103 23:15:41.156721 30124 net.cpp:425] relu7 <- fc7
I1103 23:15:41.156766 30124 net.cpp:386] relu7 -> fc7 (in-place)
I1103 23:15:41.157359 30124 net.cpp:141] Setting up relu7
I1103 23:15:41.157443 30124 net.cpp:148] Top shape: 50 4096 (204800)
I1103 23:15:41.157501 30124 net.cpp:156] Memory required for data: 5759284000
I1103 23:15:41.157559 30124 layer_factory.hpp:77] Creating layer drop7
I1103 23:15:41.157611 30124 net.cpp:91] Creating Layer drop7
I1103 23:15:41.157649 30124 net.cpp:425] drop7 <- fc7
I1103 23:15:41.157701 30124 net.cpp:386] drop7 -> fc7 (in-place)
I1103 23:15:41.157769 30124 net.cpp:141] Setting up drop7
I1103 23:15:41.157821 30124 net.cpp:148] Top shape: 50 4096 (204800)
I1103 23:15:41.157860 30124 net.cpp:156] Memory required for data: 5760103200
I1103 23:15:41.157960 30124 layer_factory.hpp:77] Creating layer fc8
I1103 23:15:41.158017 30124 net.cpp:91] Creating Layer fc8
I1103 23:15:41.158054 30124 net.cpp:425] fc8 <- fc7
I1103 23:15:41.158100 30124 net.cpp:399] fc8 -> fc8
I1103 23:15:41.166329 30124 net.cpp:141] Setting up fc8
I1103 23:15:41.166407 30124 net.cpp:148] Top shape: 50 1000 (50000)
I1103 23:15:41.166483 30124 net.cpp:156] Memory required for data: 5760303200
I1103 23:15:41.166544 30124 layer_factory.hpp:77] Creating layer fc8_fc8_0_split
I1103 23:15:41.166615 30124 net.cpp:91] Creating Layer fc8_fc8_0_split
I1103 23:15:41.166659 30124 net.cpp:425] fc8_fc8_0_split <- fc8
I1103 23:15:41.166702 30124 net.cpp:399] fc8_fc8_0_split -> fc8_fc8_0_split_0
I1103 23:15:41.166749 30124 net.cpp:399] fc8_fc8_0_split -> fc8_fc8_0_split_1
I1103 23:15:41.166790 30124 net.cpp:399] fc8_fc8_0_split -> fc8_fc8_0_split_2
I1103 23:15:41.166895 30124 net.cpp:141] Setting up fc8_fc8_0_split
I1103 23:15:41.166937 30124 net.cpp:148] Top shape: 50 1000 (50000)
I1103 23:15:41.166983 30124 net.cpp:148] Top shape: 50 1000 (50000)
I1103 23:15:41.167021 30124 net.cpp:148] Top shape: 50 1000 (50000)
I1103 23:15:41.167068 30124 net.cpp:156] Memory required for data: 5760903200
I1103 23:15:41.167106 30124 layer_factory.hpp:77] Creating layer accuracy_top1
I1103 23:15:41.167156 30124 net.cpp:91] Creating Layer accuracy_top1
I1103 23:15:41.167192 30124 net.cpp:425] accuracy_top1 <- fc8_fc8_0_split_0
I1103 23:15:41.167239 30124 net.cpp:425] accuracy_top1 <- label_data_1_split_0
I1103 23:15:41.167279 30124 net.cpp:399] accuracy_top1 -> accuracy_top1
…
